analysis/lightning_logs/version_5/checkpoints/epoch=29-step=6600.ckpt (torch, 217087 bytes, 33 tensors)

embeddings.embeddings.series_id.weight f4 [5, 4]
-0.7737518 -1.7246118 2.1803625 -0.11702586 -0.33289257 1.4659742 0.92596537 1.2895724
-0.8714328 -1.1923417 -0.75089514 -0.19546983 -0.4990574 -0.5805405 0.77618206 -0.55097044
1.8848212 0.19380976 1.2352878 -0.22783346
00000000: 9914 46bf 14c0 dcbf 0f8b 0b40 41ab efbd
00000010: e570 aabe 0ba5 bb3f 110c 6d3f b510 a53f
00000020: 3816 5fbf a79e 98bf aa3a 40bf 3e29 48be
00000030: 7484 ffbe 4d9e 14bf deb3 463f 660c 0dbf
00000040: d241 f13f 1176 463e e91d 9e3f 2d4d 69be

rnn.weight_ih_l0 f4 [120, 14]
-0.26243252 0.21959874 -0.13740937 0.05179551 0.119064264 0.18322787 0.03175178 -3.7821064e-05
0.028325472 -0.25251383 -0.0010048281 -0.056658566 -0.012334674 0.147518 0.05195091 -0.048838306
0.22071593 -0.045690052 -0.30120113 0.031311795 -0.25687662 -0.013813767 -0.17187297 -0.16596769
0.100314416 -0.13078116 0.11341418 -0.15541938 -0.048750237 0.16574246 0.31160578 -0.14748682
0.12565497 -0.06360857 -0.12045536 -0.07876726 0.24706542 0.13770881 0.18760684 -0.101504155
0.084341004 0.0423035 0.24427408 -0.10806957 -0.12682495 0.015801901 0.026479267 -0.21090631
-0.052998085 0.069815315 0.15095942 -0.14367816 0.17778759 -0.2239986 0.01690963 -0.093376555
0.091153026 0.21906462 0.024288753 0.28421158 0.19679561 -0.17558146 0.09007346 0.1332398
0.08969925 0.272637 0.14630026 -0.034439772 -0.058720015 0.033327095 -0.049940277 0.18332653
-0.0422906 -0.16262138 0.13754334 0.01213252 0.12742001 -0.06839075 -0.106034055 0.046310045
0.07492523 -0.172138 0.23039809 -0.11244506 0.28754282 0.14008245 0.08355053 -0.17874025
0.06612237 -0.0825546 -0.0061266073 0.027831404 0.09843064 0.2619595 0.016356457 -0.1260915
0.12985553 -0.025862215 -0.15929376 -0.15852095 -0.0034198712 -0.15589526 0.036873415 -0.15344442
0.026409457 0.22414772 -0.07728447 0.49206313 -0.040428173 -0.00013880363 0.0978046 0.14014623
0.101349495 0.07864169 -0.04408387 -0.17010812 0.17146043 0.021493923 0.0661621 0.17186671
-0.057241302 0.02034615 0.19530329 0.08334955 0.08367572 0.03869977 -0.089759864 -0.09156795
0.068201 0.079498 -0.04189535 -0.0764848 0.10927707 0.05915626 -0.03489294 0.28001586
-0.39381686 -0.109021835 0.15623643 -0.0066486113 0.039813977 0.14448334 0.06660133 -0.17195407
-0.22847508 0.047741238 0.075474836 -0.2508207 0.038208764 -0.21778867 -0.06017005 -0.2812722
0.09198548 0.01728318 0.08438124 0.16094092 -0.10580482 -0.08790387 0.2521139 0.15210587
0.053207815 -0.2454683 0.10972053 0.10832392 0.16647905 -0.1401079 0.16909188 0.1260066
0.12628555 0.23018599 -0.04093766 -0.023975665 0.21547809 0.15984288 0.08081642 -0.18381499
0.11062556 0.12540373 -0.32239765 -0.15396826 -0.043233324 0.025286956 0.25847116 0.07878945
0.07493716 0.005403202 0.18751405 -0.112164885 -0.15546694 -0.026952624 0.093287475 -0.11072903
-0.09988161 -0.08676421 0.04831219 -0.06586126 0.13815519 -0.13727933 -0.102883264 -0.1487429
-0.19098024 -0.1850495 -0.07998115 -0.03798418 0.06441472 0.05993447 -0.04168037 -0.012843917
0.09835311 -0.056116197 0.050051693 -0.060351253 0.16613929 -0.09805611 0.17223065 0.1001034
-0.08817604 -0.030525008 -0.05031587 -0.09610869 0.06400214 0.0969249 0.19029258 -0.19606332
0.016033363 0.17055933 0.15037648 -0.13825169 0.034152683 0.1875906 -0.0011763533 0.048867766
-0.08971169 -0.047135957 0.14280747 -0.15677884 0.002369551 0.086024635 -0.1040959 -0.010114521
-0.041803118 -0.017352143 -0.06700237 -0.06351981 -0.00021551113 -0.15283287 0.08756937 0.097270556
0.15168521 -0.031178523 0.15570438 -0.1971257 -0.01698973 0.067726 0.024559563 0.13469695
00000000: 8e5d 86be 7ede 603e 0bb5 0cbe 8727 543d
00000010: f7d7 f33d 16a0 3b3e 280e 023d 0fa2 1eb8
00000020: d20a e83c 7e49 81be 70b4 83ba d012 68bd
00000030: 5f17 4abc f50e 173e 7aca 543d ad0a 48bd
00000040: 5b03 623e 7e25 3bbd 0937 9abe cc40 003d
00000050: 5585 83be 2353 62bc 78ff 2fbe 6ff3 29be
00000060: a571 cd3d 7feb 05be b245 e83d 4226 1fbe
00000070: 54ae 47bd 64b8 293e cb8a 9f3e c906 17be
00000080: b2ab 003e 3645 82bd 4db1 f6bd bb50 a1bd
00000090: b8fe 7c3e 8a03 0d3e 021c 403e 69e1 cfbd
000000a0: faba ac3d 6f46 2d3d fc22 7a3e 9453 ddbd
000000b0: 66de 01be fd72 813c 0ceb d83c d3f7 57be
000000c0: 8514 59bd 55fb 8e3d 1b95 1a3e 5e20 13be
000000d0: f30d 363e e45f 65be 1086 8a3c 353c bfbd
000000e0: 70ae ba3d 7a52 603e 35f9 c63c 2e84 913e
000000f0: ca84 493e a0cb 33be 6f78 b83d 0470 083e
00000100: 3eb4 b73d 1497 8b3e bccf 153e b810 0dbd
00000110: 6684 70bd fe81 083d 2d8e 4cbd f3b9 3b3e
00000120: e838 2dbd 3886 26be 29d8 0c3e 7ac7 463c
00000130: 647a 023e 7310 8cbd 6228 d9bd 9aaf 3d3d
00000140: 6672 993d f244 30be 7aed 6b3e 9849 e6bd
00000150: d038 933e c671 0f3e 8a1c ab3d af07 37be
00000160: 2a6b 873d 6312 a9bd b5c1 c8bb affe e33c
00000170: 0196 c93d 8e1f 863e fafd 853c 211e 01be
00000180: d9f8 043e ffdc d3bc e71d 23be 5153 22be
00000190: eb1f 60bb 02a3 1fbe 9408 173d 8920 1dbe
000001a0: a558 d83c fb86 653e 5247 9ebd b3ef fb3e
000001b0: 0398 25bd d18b 11b9 c74d c83d 7e82 0f3e
000001c0: 5390 cf3d e50e a13d 4a91 34bd d330 2ebe
000001d0: 5393 2f3e 0614 b03c ff7f 873d d4fd 2f3e
000001e0: db75 6abd f8ac a63c 96fd 473e 2bb3 aa3d
000001f0: 2d5e ab3d a683 1e3d 05d4 b7bd fa87 bbbd
00000200: f7ac 8b3d d9cf a23d 759a 2bbd 10a4 9cbd
00000210: a8cc df3d d64d 723d e6eb 0ebd 3d5e 8f3e
00000220: 5da2 c9be d746 dfbd 71fc 1f3e 98dc d9bb
00000230: fb13 233d 71f3 133e 4766 883d ba14 30be
00000240: 5ff5 69be 518c 433d 8d92 9a3d 926b 80be
00000250: cb80 1c3d fe03 5fbe df74 76bd e902 90be
00000260: e262 bc3d 7595 8d3c 12d0 ac3d b2cd 243e
00000270: 33b0 d8bd f206 b4bd 1315 813e a4c1 1b3e
00000280: 70f0 593d 0b5c 7bbe 28b5 e03d eed8 dd3d
00000290: 7c79 2a3e 7278 0fbe 6c26 2d3e e007 013e
000002a0: 0051 013e e0b5 6b3e 3fae 27bd 9d68 c4bc
000002b0: 4aa6 5c3e daad 233e 1483 a53d ff39 3cbe
000002c0: a78f e23d d669 003e 4e11 a5be dba9 1dbe
000002d0: 6d15 31bd 9726 cf3c 5556 843e 5d5c a13d
000002e0: a778 993d 580d b13b af03 403e b4b6 e5bd
000002f0: ba32 1fbe c0cb dcbc 810d bf3d e7c5 e2bd
00000300: bb8e ccbd 6fb1 b1bd 01e3 453d 45e2 86bd
00000310: 8e78 0d3e f492 0cbe 76b4 d2bd 0f50 18be
00000320: 5390 43be 9e7d 3dbe 28cd a3bd 4d95 1bbd
00000330: ddeb 833d d97d 753d 09b9 2abd 4b6f 52bc
00000340: 5b6d c93d 19da 65bd 0103 4d3d e032 77bd
00000350: 6b20 2a3e a4d1 c8bd 3b5d 303e 0303 cd3d
00000360: a495 b4bd 950f fabc 0418 4ebd a2d4 c4bd
00000370: 8e13 833d 9080 c63d 0fdc 423e d3c4 48be
00000380: 6658 833c 1ba7 2e3e 4bfc 193e da91 0dbe
00000390: afe3 0b3d c017 403e de2f 9aba 9129 483d
000003a0: c3ba b7bd a211 41bd 1f3c 123e a28a 20be
000003b0: 784a 1b3b af2d b03d 3b30 d5bd 60b7 25bc
000003c0: bf39 2bbd 1526 8ebc 8a38 89bd ad16 82bd
000003d0: d4fa 61b9 3880 1cbe 9257 b33d c935 c73d
000003e0: 5e53 1b3e 1a6a ffbc f870 1f3e 52db 49be
000003f0: 0c2e 8bbc eeb3 8a3d 2331 c93c ffed 093e

rnn.weight_hh_l0 f4 [120, 30]
-0.24098352 0.16839604 -0.027302027 0.09673156 0.26017177 0.2706518 0.12297709 -0.2474738
-0.202358 -0.054720774 0.14333342 0.12553847 -0.13935736 -0.01086197 -0.07725907 -0.017181383
-0.20768785 0.2738391 -0.11067226 -0.08815724 -0.11449417 -0.11722318 -0.020795936 0.1174456
0.20413205 -0.11677082 0.047578283 0.12449586 0.027634267 -0.012919744 -0.20080404 0.21404941
-0.15150799 -0.12521632 0.13913243 0.19683638 -0.009458825 0.34922805 -0.06918205 0.1685771
0.18856646 0.014249749 -0.12600093 0.12901463 0.0019702648 0.2974098 -0.20160653 0.012393003
-0.15744212 -0.15846337 0.19392237 0.11803229 -0.3346144 0.14275293 -0.10959283 0.11273034
-7.6053548e-06 0.2314088 -0.13900991 0.21378669 -0.1337927 -0.14727375 0.11743613 -0.12637499
-0.07376736 -0.08152597 -0.19331776 0.10013984 0.06060716 0.0038362588 0.08254942 0.08391481
0.06954891 -0.2770496 0.18503985 0.021235254 0.04789002 0.014902685 -0.0825142 -0.28836715
-0.0052878726 0.10332689 0.16304407 -0.013067018 0.051004097 0.22859079 0.004398719 -0.17324898
0.036464795 0.13301556 0.068556085 0.16209783 -0.07279037 -0.078874975 -0.10377884 0.13767995
0.059894443 0.13266444 -0.15943198 -0.10259097 0.19843735 -0.3227917 0.031634733 -0.27156395
0.2321819 0.05040967 -0.2387399 0.08868267 -0.05568273 -0.061742526 -0.11838311 -0.063997105
-0.23334293 -0.087452576 0.11051198 0.23047414 -0.00021770335 -0.050821047 -0.038100056 0.06665263
-0.12716132 0.16453847 -0.09393857 -0.13879977 0.29418603 0.3273531 0.09334096 0.087643825
-0.20492204 -0.1299165 0.044973932 0.022742273 -0.047931544 -0.17374471 -0.02677732 0.18856995
-0.1999818 0.2962572 -0.22664435 -0.06878031 -0.27933347 -0.013732648 -0.12943412 0.06731315
-0.15741315 0.021997018 0.023369832 0.09328063 -0.042799037 -0.0526483 0.016154027 0.18584272
-0.037801698 -0.036201794 0.044645473 0.1357774 -0.08020213 0.08969839 0.09415412 -0.08249922
-0.11026304 -0.1077112 0.026293438 0.0053019966 0.1558912 0.04721068 -0.015961511 -0.0011338828
0.029423887 -0.27745038 0.0053368476 -0.059475455 -0.0035444433 0.0024968232 -0.1149053 -0.04651762
0.11152231 -0.07538564 -0.0007921519 -0.024563441 0.034773543 0.1626199 0.03808623 -0.14436316
0.09615783 0.17044795 0.08709467 0.22817631 -0.21650063 -0.07245579 -0.05527181 -0.026245153
-0.08996964 -0.20199658 0.2642986 0.010063804 -0.15073754 -0.087371044 -0.0364217 0.0337919
-0.16961867 -0.22864532 0.12249184 -0.114132166 -0.06002274 -0.02617862 0.038981486 0.061284453
0.01254066 -0.021738369 -0.029763395 0.13393517 -0.14205153 0.2569925 -0.07510869 0.12216842
-0.07096391 0.10755765 -0.06653801 -0.1761668 -0.008994145 -0.03540775 -0.03157245 0.03967426
-0.04670126 -0.08507079 -0.035773516 0.14682809 -0.21047819 0.16006063 -0.0488102 0.107199855
-0.22348881 -0.08640366 -0.2537058 -0.050410606 -0.03622325 0.18081333 -0.01804315 0.00856306
0.010879644 0.25400835 0.06395825 -0.014222174 -0.036295418 -0.027640175 -0.24475855 -0.019012325
0.026974954 0.10952658 -0.052580077 -0.102131374 -0.1042488 -0.2660079 0.19077626 -0.010401445
00000000: 62c4 76be 0370 2c3e 80a8 dfbc 321b c63d
00000010: 3c35 853e df92 8a3e 6adb fb3d c669 7dbe
00000020: f036 4fbe e422 60bd ffc5 123e 288d 003e
00000030: b2b3 0ebe 67f6 31bc 013a 9ebd f9bf 8cbc
00000040: 20ac 54be a334 8c3e 23a8 e2bd c88b b4bd
00000050: eb7b eabd b512 f0bd 3d5c aabc 5287 f03d
00000060: fe07 513e 8a25 efbd 72e1 423d aff7 fe3d
00000070: 4261 e23c 55ad 53bc 939f 4dbe c52f 5b3e
00000080: e924 1bbe b538 00be bb78 0e3e 7a8f 493e
00000090: 30f9 1abc 05ce b23e 52af 8dbd 7a9f 2c3e
000000a0: 9117 413e c777 693c 6306 01be 691c 043e
000000b0: 8f1f 013b 1946 983e f171 4ebe 060c 4b3c
000000c0: 8238 21be 3944 22be 9693 463e eaba f13d
000000d0: 9452 abbe d32d 123e 3572 e0bd 2adf e63d
000000e0: 8031 ffb6 6ef6 6c3e 9d58 0ebe e6ea 5a3e
000000f0: f400 09be eece 16be 5b82 f03d 7268 01be
00000100: 5713 97bd 16f7 a6bd 17f5 45be 1e16 cd3d
00000110: 373f 783d be69 7b3b ac0f a93d 87db ab3d
00000120: a96f 8e3d 72d9 8dbe 167b 3d3e 8ef5 ad3c
00000130: 5328 443d 642a 743c 34fd a8bd dca4 93be
00000140: e445 adbb 0c9d d33d 06f5 263e 0c17 56bc
00000150: ace9 503d b413 6a3e 2123 903b 2e68 31be
00000160: 1c5c 153d 3b35 083e 2267 8c3d f9fc 253e
00000170: 1e13 95bd 3489 a1bd 008a d4bd f9fb 0c3e
00000180: e053 753d 30d9 073e 2342 23be 371b d2bd
00000190: 2933 4b3e f444 a5be 6c93 013d 6e0a 8bbe
000001a0: 18c1 6d3e 5f7a 4e3d 3b78 74be 429f b53d
000001b0: 9313 64bd bbe5 7cbd d872 f2bd ea10 83bd
000001c0: 73f1 6ebe 561a b3bd 1b54 e23d 6a01 6c3e
000001d0: 4c47 64b9 bb29 50bd ce0e 1cbd 2d81 883d
000001e0: 9436 02be c67c 283e dd62 c0bd 8721 0ebe
000001f0: 8d9f 963e d39a a73e 8c29 bf3d 9b7e b33d
00000200: 15d7 51be d508 05be 9636 383d 014e ba3c
00000210: de53 44bd 22ea 31be 1c5c dbbc 7b18 413e
00000220: 07c8 4cbe 06af 973e 7515 68be b1dc 8cbd
00000230: cc04 8fbe e7fe 60bc 618a 04be 7adb 893d
00000240: ea30 21be 1733 b43c 1772 bf3c ea09 bf3d
00000250: 0b4e 2fbd bea5 57bd 7355 843c 8e4d 3e3e
00000260: f4d5 1abd 5548 14bd 2cde 363d 3b09 0b3e
00000270: 0441 a4bd cab3 b73d e0d3 c03d 5af5 a8bd
00000280: 97d1 e1bd b197 dcbd 5665 d73c 5fbc ad3b
00000290: f1a1 1f3e fc5f 413d b7c1 82bc cb9e 94ba
000002a0: 5d0a f13c fa0d 8ebe b9e0 ae3b 899c 73bd
000002b0: e449 68bb bea1 233b 7853 ebbd 4389 3ebd
000002c0: cf65 e43d c963 9abd 6aa8 4fba 4539 c9bc
000002d0: b46e 0e3d d585 263e 4f00 1c3d f0d3 13be
000002e0: 65ee c43d e889 2e3e b15e b23d 0da7 693e
000002f0: 57b2 5dbe b463 94bd b264 62bd 1300 d7bc
00000300: 0142 b8bd 31d8 4ebe 2552 873e a7e2 243c
00000310: f15a 1abe 97ef b2bd ec2e 15bd 6069 0a3d
00000320: 84b0 2dbe 0022 6abe 00dd fa3d 20be e9bd
00000330: 68da 75bd 8c74 d6bc 0dab 1f3d 6805 7b3d
00000340: 5777 4d3c aa14 b2bc 5dd2 f3bc 4d26 093e
00000350: f575 11be 8594 833e 96d2 99bd 7033 fa3d
00000360: 8755 91bd 2f47 dc3d 1545 88bd 1265 34be
00000370: 2e5c 13bc b807 11bd 1d52 01bd 7a81 223d
00000380: d249 3fbd 9839 aebd 4087 12bd 1a5a 163e
00000390: 9887 57be efe6 233e 34ed 47bd 998b db3d
000003a0: 40da 64be 67f4 b0bd bae5 81be 5a7b 4ebd
000003b0: d55e 14bd 2127 393e 3acf 93bc 144c 0c3c
000003c0: 8940 323c 620d 823e 8bfc 823d 1f04 69bc
000003d0: 81aa 14bd a66d e2bc fca1 7abe bcbf 9bbc
000003e0: 94fa dc3c 794f e03d 355e 57bd 412a d1bd
000003f0: 6580 d5bd 3032 88be da5a 433e d36a 2abc

rnn.bias_ih_l0 f4 [120]
0.11800223 0.08515955 0.0361622 -0.1381864 0.24149568 0.117120035 -0.038323123 0.199471
0.012214694 0.31173137 0.09136963 0.012638447 0.33770862 0.05020939 0.23698449 -0.018484663
0.065655164 0.15239309 0.1815746 0.12101311 0.09553479 0.2966651 0.460363 -0.11546294
0.44481626 0.109301515 0.044667993 0.011538868 0.08708259 0.033727165 0.18211336 0.060055662
-0.07138644 -0.0062237806 -0.118285105 0.1392603 0.11129598 -0.28095862 -0.021477947 -0.36152434
-0.009387649 -0.07202302 -0.04706597 0.091205336 -0.15666118 0.080538385 -0.017247213 0.0981295
-0.08157861 0.20211124 -4.915818e-05 0.010023935 -0.36478376 0.16405502 -0.32997712 0.32286787
0.11853078 -0.20465937 0.12069726 -0.116959885 0.0023814242 0.047451925 0.026048165 -0.07366769
-0.086314246 0.07138372 -0.19246115 0.08796548 -0.16921024 0.102749385 0.037919436 0.030791784
0.054196216 0.10246233 0.14695506 0.14180605 -0.1460449 0.16973396 -0.14112425 0.16165589
-0.01977055 -0.011787641 -0.08248788 0.16444625 0.0801143 0.065305434 0.013179265 -0.09305298
0.016375229 0.06385039 -0.06588789 0.24348707 0.10124464 0.2764839 0.2922437 0.18580759
0.17271052 -0.040041525 0.14652465 0.22352718 -0.01990186 0.28663352 0.20780848 -0.013052552
-0.061921827 0.0922555 0.053074665 -0.11950262 0.31779236 0.11758571 -0.00090916536 -0.02940314
0.4527232 -0.06518518 0.34292325 0.029142719 0.1383137 0.12730138 0.13664368 -0.02803877
00000000: 27ab f13d 2168 ae3d d11e 143d bc80 0dbe
00000010: a54a 773e a1dc ef3d b5f8 1cbd 2042 4c3e
00000020: 2420 483c 419b 9f3e 0020 bb3d 7d11 4f3c
00000030: 25e8 ac3e 5da8 4d3d 10ac 723e 266d 97bc
00000040: 3776 863d ef0c 1c3e b1ee 393e b9d5 f73d
00000050: bea7 c33d 7de4 973e b3b4 eb3e d577 ecbd
00000060: f5be e33e 79d9 df3d c9f5 363d 850d 3d3c
00000070: 5b58 b23d 7f25 0a3d ed7b 3a3e edfc 753d
00000080: 0e33 92bd dbf0 cbbb 763f f2bd 419a 0e3e
00000090: 26ef e33d cfd9 8fbe 85f2 afbc b819 b9be
000000a0: a7ce 19bc ce80 93bd 3fc8 40bd ddc9 ba3d
000000b0: ca6b 20be 4ff1 a43d 074a 8dbc 1ff8 c83d
000000c0: b012 a7bd 40f6 4e3e 322f 4eb8 6e3b 243c
000000d0: f0c4 babe 0afe 273e c3f2 a8be f04e a53e
000000e0: 44c0 f23d 3a92 51be 2030 f73d aa88 efbd
000000f0: ab11 1c3b f35c 423d f662 d53c 16df 96bd
00000100: 86c5 b0bd a131 923d 8914 45be 3f27 b43d
00000110: 7345 2dbe 456e d23d 6951 1b3d 0d3f fc3c
00000120: dafc 5d3d c5d7 d13d 637b 163e 9b35 113e
00000130: cb8c 15be bdce 2d3e e082 10be 1f89 253e
00000140: d9f5 a1bc f320 41bc 68ef a8bd 9964 283e
00000150: f712 a43d dbbe 853d d8ed 573c 9092 bebd
00000160: 5825 863c fec3 823d 3bf0 86bd ad54 793e
00000170: 5a59 cf3d 4c8f 8d3e f7a0 953e 5844 3e3e
00000180: 07db 303e 9502 24bd 8f0a 163e 4fe4 643e
00000190: 3a09 a3bc a1c1 923e bfcb 543e 5fda 55bc
000001a0: bea1 7dbd 74f0 bc3d d264 593d cabd f4bd
000001b0: aeb5 a23e c7d0 f03d 0e55 6eba dbde f0bc
000001c0: 56cb e73e cf7f 85bd a393 af3e b6bc ee3c
000001d0: 1ba2 0d3e 4b5b 023e 52ec 0b3e 90b1 e5bc

rnn.bias_hh_l0 f4 [120]
-0.07733393 0.22206825 -0.16392662 -0.1483782 0.014570647 -0.13624401 0.07472861 0.23376155
-0.055870574 0.30683136 -0.13331284 -0.07072284 0.053241823 0.012652383 0.020443603 0.23335661
0.0903892 0.11500525 0.13516542 -0.04159819 0.076189905 0.28222805 0.57150114 0.14093256
0.35678092 0.11012772 0.06760225 -0.01356454 0.029822094 0.16689704 -0.13160965 -0.14606924
0.045291506 -0.15176716 -0.16820048 0.21464176 -0.098301716 -0.22051372 0.13768263 -0.077547766
0.019466408 -0.10824987 -0.32639658 -0.027960872 0.00021670268 0.1529216 -0.21766059 0.12933603
-0.034263648 -0.019821443 0.03782009 0.00044584833 -0.2041872 0.18589155 -0.12678817 0.2520284
-0.13835989 0.07954036 0.0052415086 -0.092872605 -0.02430875 0.1691033 0.08070147 -0.123642564
-0.09069149 0.14168398 -0.1408615 -0.081626676 -0.18327715 -0.07895528 0.0040561464 0.05410827
-0.14214966 0.12021185 -0.10739303 -0.0729917 -0.12805696 0.048240688 0.059913233 -0.06320358
-0.08238254 0.0825009 -0.045017596 0.15050752 0.104419105 -0.06599738 0.03640132 0.040891983
0.013622543 -0.11163613 -0.096450225 0.073642574 0.042626377 -0.042531505 0.20394781 -0.044730008
0.22230765 0.054238286 -0.014670342 0.3421992 0.06900439 0.16135144 0.315032 0.14523259
-0.108146474 0.01713993 0.0009171213 -0.026090322 0.17517489 0.14134541 0.22880748 0.2791203
0.38281792 -0.099278204 0.30705678 0.252694 -0.011927395 0.07620974 0.08911215 0.11041529
00000000: 4061 9ebd dc65 633e 61dc 27be 74f0 17be
00000010: b9b9 6e3c 8d83 0bbe 500b 993d 305f 6f3e
00000020: 8bd8 64bd 0019 9d3e 2983 08be 23d7 90bd
00000030: 1914 5a3d f14b 4f3c 5879 a73c 09f5 6e3e
00000040: f91d b93d df87 eb3d ce68 0a3e dd62 2abd
00000050: 7409 9c3d 3280 903e e64d 123f a050 103e
00000060: fdab b63e a48a e13d 0c73 8a3d ce3d 5ebc
00000070: 774d f43c 0fe7 2a3e aec4 06be 2d93 15be
00000080: 9683 393d da68 1bbe bf3c 2cbe 0dcb 5b3e
00000090: 6952 c9bd 59ce 61be adfc 0c3e 5dd1 9ebd
000000a0: 0478 9f3c 1cb2 ddbd 741d a7be 330e e5bc
000000b0: af3a 6339 7b97 1c3e 6be2 5ebe aa70 043e
000000c0: 0a58 0cbd 9460 a2bc 3de9 1a3d c0c0 e939
000000d0: 7316 51be 5b5a 3e3e c2d4 01be de09 813e
000000e0: 37ae 0dbe 0ee6 a23d f6c0 ab3b fe33 bebd
000000f0: 2523 c7bc 6a29 2d3e d046 a53d 5038 fdbd
00000100: 76bc b9bd 9b15 113e ff3d 10be e32b a7bd
00000110: 01ad 3bbe 4eb3 a1bd 6ce9 843b a2a0 5d3d
00000120: ae8f 11be a131 f63d e0f0 dbbd ac7c 95bd
00000130: 5d21 03be 0798 453d 9467 753d e170 81bd
00000140: 2db8 a8bd 3bf6 a83d 5f64 38bd a51e 1a3e
00000150: afd9 d53d a229 87bd 8d19 153d 5a7e 273d
00000160: 1631 5f3c 7ca1 e4bd b287 c5bd ebd1 963d
00000170: ff98 2e3d 8435 2ebd b2d7 503e d036 37bd
00000180: 9ea4 633e f728 5e3d e05b 70bc bc34 af3e
00000190: 2c52 8d3d 5039 253e e04b a13e dab7 143e
000001a0: e67b ddbd 0a69 8c3c f86a 703a 5fbb d5bc
000001b0: 0c61 333e dabc 103e 824c 6a3e dbe8 8e3e
000001c0: b600 c43e 5f52 cbbd 8c36 9d3e 1c61 813e
000001d0: 1f6b 43bc da13 9c3d 6e80 b63d 6921 e23d

rnn.weight_ih_l1 f4 [120, 30]
-0.1964365 -0.0034133547 0.26704326 -0.08648962 -0.030699383 0.13902529 -0.056288008 0.20495328
-0.073715374 0.10695614 0.14353131 0.12994029 0.1291464 0.100347795 0.06081037 0.02079618
0.024759142 0.05718939 -0.23942198 0.058386058 -0.10142712 0.028029101 -0.28725508 -0.067395896
0.03533499 0.101738736 0.20255786 -0.0065269573 0.037328646 0.2002863 -0.09334932 0.16393784
-0.056008395 -0.38064718 -0.09547531 0.065669015 0.10066125 -0.027246287 -0.17155653 -0.0867544
-0.041928474 -0.40308967 -0.0033623765 0.11712077 0.041927088 -0.12836319 0.05956568 -0.03328656
-0.19614945 -0.09622849 -0.09943735 -0.1808471 0.15924655 -0.11457345 0.012435529 0.18056217
0.040089242 -0.33756652 -0.1264494 0.09877807 -0.18166521 -0.054973327 0.109589584 -0.010893514
0.14691664 0.27772376 -0.07028707 -0.031573594 0.030125484 -0.18791547 -0.0843646 -0.059683874
-0.1911744 0.018507337 -0.24161851 0.11702634 -0.07863332 -0.034602214 0.1924403 0.017882435
0.21469043 0.1866153 -0.071802355 0.26234794 0.100021705 0.010823817 -0.060328443 -0.012823436
0.12392284 -0.0240678 0.13592003 -0.16175972 0.1330861 -0.28116557 0.058701485 -0.070464216
0.018617002 0.13657174 0.088998556 0.21376573 0.070314825 -0.25735715 0.16526346 -0.17129986
0.23546514 -0.17044389 0.17257367 -0.11387413 -0.25493115 -0.026608359 -0.056109942 -0.11619261
0.28982458 -0.047775358 -0.076563224 0.16026004 0.1673972 -0.34036875 0.04076987 0.10255575
0.040416393 -0.06516386 0.20776324 0.029258754 0.01557097 -0.10132307 -0.22568582 0.33845627
0.028192963 0.18419108 -0.042783093 -0.2127365 0.0329365 -0.0032302816 0.0341288 0.09338799
0.06187802 0.060694825 -0.2537934 0.12369987 -0.20207193 -0.23807256 0.1152749 -0.13827334
-0.118500054 0.16775636 -0.0040503955 -0.29737884 -0.10447585 -0.25382578 -0.22295073 -0.04727497
0.07837343 0.01309666 0.09223262 0.14629337 0.058292776 0.2476453 -0.24535061 -0.008416189
-0.065682426 -0.09379557 0.10314869 -0.114736624 0.07851789 -0.046372496 -0.013133133 0.16857001
-0.063330114 0.017064698 -0.1552285 -0.03712969 0.19676551 -0.09171894 -0.17678808 -0.00621871
-0.12931892 -0.11262761 0.037053302 -0.12208691 0.15541773 0.12938558 0.08147367 -0.19951288
0.21160147 0.037799485 0.0424305 0.036102153 -0.14849864 0.0006141299 0.13870448 -0.28306395
0.08955101 -0.17913438 0.1102708 -0.16208991 -0.01590854 -0.14368208 -0.1298953 0.15995222
-0.075945035 0.14210105 0.07673747 0.20017974 0.14347911 -0.0034679207 -0.13603355 -0.038112555
-0.15297292 -0.07102346 0.06365264 -0.03829841 -0.10305888 -0.009947846 0.16158506 0.06599914
0.026278153 -0.17285126 -0.0014509845 0.14809304 0.10387962 0.0569355 -0.15098128 0.0686605
-0.020565514 -0.08485044 0.052434523 -0.084768355 0.07270483 -0.022218049 0.048362605 -0.12397851
-0.14154795 0.15892631 -0.054117646 -0.18388505 -0.045749877 -0.18552369 -0.0109314555 0.08580458
0.114669904 0.16787755 0.041366935 -0.16331759 -0.18147095 0.004497406 -0.2504775 0.17332342
0.01328479 0.34049103 -0.1582382 0.15297808 0.16049562 0.0163524 0.20092298 0.031354718
00000000: a626 49be 97b2 5fbb e5b9 883e 7821 b1bd
00000010: 467d fbbc a55c 0e3e 418e 66bd 46df 513e
00000020: 16f8 96bd d20b db3d dff9 123e 110f 053e
00000030: f43e 043e 2583 cd3d 4b14 793d c05c aa3c
00000040: afd3 ca3c 6c3f 6a3d 092b 75be 3826 6f3d
00000050: 06b9 cfbd 499d e53c 1913 93be dc06 8abd
00000060: 6cbb 103d 665c d03d 546b 4f3e 16e0 d5bb
00000070: ece5 183d da17 4d3e ee2d bfbd 52df 273e
00000080: 0f69 65bd 30e4 c2be 8f88 c3bd 7a7d 863d
00000090: 7c27 ce3d 9b33 dfbc 84ac 2fbe 4aac b1bd
000000a0: 31bd 2bbd c561 cebe 515b 5cbb 04dd ef3d
000000b0: bdbb 2b3d a471 03be 24fb 733d 7d57 08bd
000000c0: 67db 48be 7113 c5bd cfa5 cbbd fb2f 39be
000000d0: 8711 233e 7ca5 eabd 64be 4b3c 4ae5 383e
000000e0: 9e34 243d 85d5 acbe f47b 01be 284c ca3d
000000f0: 7206 3abe b62b 61bd 8170 e03d b67a 32bc
00000100: 5171 163e cf31 8e3e abf2 8fbd 5053 01bd
00000110: b8c9 f63c ea6c 40be 59c7 acbd 1477 74bd
00000120: 39c3 43be b39c 973c d86a 77be 81ab ef3d
00000130: 820a a1bd 0dbb 0dbd 120f 453e 2f7e 923c
00000140: cfd7 5b3e 1518 3f3e 1d0d 93bd 7852 863e
00000150: 2ed8 cc3d 6156 313c f51a 77bd 6419 52bc
00000160: 42cb fd3d d629 c5bc 9f2e 0b3e 57a4 25be
00000170: b947 083e eff4 8fbe f870 703d 8b4f 90bd
00000180: af82 983c 76d9 0b3e e044 b63d 67e5 5a3e
00000190: 3801 903d 51c4 83be d33a 293e 3b69 2fbe
000001a0: c61d 713e d888 2ebe 27b7 303e d736 e9bd
000001b0: 5686 82be c6f9 d9bc 8ad3 65bd 64f6 edbd
000001c0: e363 943e 18b0 43bd 2ecd 9cbd 351b 243e
000001d0: 2c6a 2b3e d044 aebe 4ffe 263d c008 d23d
000001e0: a98b 253d a174 85bd e3bf 543e 0eb0 ef3c
000001f0: 621d 7f3c 7882 cfbd 2f1a 67be 244a ad3e
00000200: eef4 e63c 969c 3c3e 533d 2fbd 99d7 59be
00000210: 6ce8 063d 22b3 53bb a4ca 0b3d 3442 bf3d
00000220: cf73 7d3d 239b 783d 35f1 81be 5c56 fd3d
00000230: f2eb 4ebe 4bc9 73be 3f15 ec3d 8797 0dbe
00000240: 28b0 f2bd 53c8 2b3e 2eb9 84bb 0a42 98be
00000250: 6ff7 d5bd 74f5 81be 324d 64be 66a3 41bd
00000260: 4082 a03d 6093 563c 75e4 bc3d eecd 153e
00000270: 68c4 6e3d bb96 7d3e 313d 7bbe 0ee4 09bc
00000280: 8284 86bd e417 c0bd 9f3f d33d 09fb eabd
00000290: fdcd a03d 16f1 3dbd 5a2c 57bc 9e9d 2c3e
000002a0: 38b3 81bd 44cb 8b3c 38f4 1ebe 4d15 18bd
000002b0: e67c 493e 24d7 bbbd ef07 35be 52c6 cbbb
000002c0: 2e6c 04be 4ea9 e6bd 34c5 173d b408 fabd
000002d0: d325 1f3e a77d 043e abdb a63d 1b4d 4cbe
000002e0: 0eae 583e a2d3 1a3d 9bcb 2d3d dadf 133d
000002f0: 0710 18be 8ffd 203a 8c08 0e3e c2ed 90be
00000300: 8566 b73d 016f 37be a8d5 e13d e6fa 25be
00000310: a052 82bc 6521 13be 4603 05be 84ca 233e
00000320: 1289 9bbd f082 113e 8928 9d3d ebfb 4c3e
00000330: 30ec 123e 0e46 63bb 614c 0bbe e91b 1cbd
00000340: efa4 1cbe bf74 91bd 515c 823d cbde 1cbd
00000350: 8910 d3bd 4afc 22bc 8e76 253e 8f2a 873d
00000360: 4845 d73c ecff 30be f62e beba b4a5 173e
00000370: d7be d43d 3335 693d d69a 1abe e09d 8c3d
00000380: 0279 a8bc 11c6 adbd 95c5 563d 089b adbd
00000390: 45e6 943d a002 b6bc de17 463d 72e8 fdbd
000003a0: f2f1 10be 94bd 223e 77aa 5dbd 5d4c 3cbe
000003b0: 3964 3bbd ecf9 3dbe d919 33bc 50ba af3d
000003c0: 0ed8 ea3d 18e8 2b3e 6070 293d ba3c 27be
000003d0: 85d3 39be fa5e 933b 963e 80be b27b 313e
000003e0: 73a8 593c d754 ae3e 3209 22be 49a6 1c3e
000003f0: f758 243e 78f5 853c c1be 4d3e ce6d 003d

rnn.weight_hh_l1 f4 [120, 30]
0.13175872 -0.09408562 -0.062303554 0.039573032 0.10313084 -0.0038034515 -0.14045265 -0.14904532
-0.23097795 -0.10554519 0.27456447 -0.09350183 -0.24115095 0.08903515 -0.24492215 0.06972955
-0.10743026 0.037216343 -0.0447606 -0.024412652 -0.12516634 0.07900534 -0.18000527 0.0058060368
-0.15408333 -0.21662922 0.10213699 0.08007459 -0.046935357 0.15737604 -0.14830366 -0.14970532
-0.14098985 0.07993043 -0.0576574 0.019530773 0.08945361 0.03302516 0.16907467 -0.26315635
0.016617525 -0.0528671 -0.042771798 0.09707712 0.025000427 0.08607611 -0.11219326 0.16296373
0.07418154 0.09346931 0.12549148 -0.21116361 -0.11154057 0.20441905 0.24288452 -0.055271287
-0.0921881 -0.22379439 -0.04296939 0.1611716 -0.019769473 -0.124708965 0.028967436 0.08110855
0.15794758 -0.08560856 0.14800401 -0.14637639 -0.22246557 -0.13679872 0.06978587 -0.062387753
-0.16624394 -0.16920161 -0.13422336 0.0044916617 -0.0036666035 0.21101429 0.14445022 -0.06132634
-0.005493137 0.010969094 -0.28262603 -0.19805521 -0.009817653 0.04326418 0.2340725 -0.1451859
0.0577324 -0.05760945 -0.15635768 -0.026849737 -0.17932284 -0.14550918 -0.18465163 0.010438791
-0.14299828 0.051164713 -0.08074319 -0.26668337 0.11594347 -0.03202059 0.12399863 -0.13765557
-0.071566194 0.12678348 -0.07600361 0.03878635 -0.13701925 -0.17332445 0.08381667 -0.14830565
0.003033393 0.066609025 -0.07991971 -0.02008233 0.01978857 -0.26965678 0.124497235 0.09728716
0.14290449 -0.1333094 -0.025667105 0.11997274 0.062409442 0.12768319 -0.012257938 0.12147664
0.09122891 -0.018876467 0.18392499 -0.31060433 -0.036563024 -0.025470588 -0.014136841 -0.14613609
-0.0010546482 -0.17610773 0.11942815 -0.23055974 0.14514452 -0.1093945 -0.18215397 -0.013240655
0.10668992 -0.114373855 -0.12516807 -0.09002524 -0.18332273 0.13411261 0.0678599 -0.12954067
0.16454013 -0.0059757507 0.086590566 -0.07296263 -0.016877694 0.034524016 -0.25744936 0.17885427
0.0542307 -0.009789956 -0.14459598 -0.21387777 -0.20121175 -0.052261576 -0.15198977 0.07031067
0.015107155 -0.14257851 0.038766302 -0.01749403 0.021306653 -0.06413129 -0.05605263 -0.005120123
0.22819342 -0.1831165 -0.089652054 0.024574038 -0.14246027 -0.20718108 -0.03947775 -0.07565689
-0.117395096 0.23095644 -0.09810819 0.14277156 0.2405213 -0.18694225 -0.026095541 -0.1821513
0.0132969925 0.016523233 -0.09881842 -0.18832554 -0.1324341 -0.054476645 -0.032640804 0.0638928
0.015092079 -0.108996935 -0.12627216 -0.13477749 -0.049096704 0.16149674 0.1419857 -0.15744542
0.00980347 0.09755811 0.1587299 -0.06520568 0.017176311 0.06228867 0.046685796 0.17095992
0.17834473 0.053615138 -0.11996825 0.076337345 0.12201479 -0.14893006 -0.12639916 0.16182102
0.02605235 -0.06391906 -0.04593992 -0.09582208 0.18375053 -0.10502722 0.044140182 -0.045757595
0.079254985 -0.06788558 0.021629045 -0.093813576 -0.03015614 -0.1750885 0.15600473 0.094855785
0.27322847 0.053619895 -0.047920823 -0.05938765 0.008059387 0.22102045 -0.068554275 -0.12709123
-0.15648867 -0.13552837 0.06832572 -0.06436658 -0.11406915 -0.04614371 -0.24573487 -0.2530214
00000000: c2eb 063e f6af c0bd 0332 7fbd 5517 223d
00000010: 4336 d33d 5443 79bb d2d2 0fbe 569f 18be
00000020: 7c85 6cbe 1428 d8bd b793 8c3e e37d bfbd
00000030: 46f0 76be 1058 b63d dfcc 7abe 5ece 8e3d
00000040: 6504 dcbd 2a70 183d e456 37bd 0bfd c7bc
00000050: 9b2b 00be 8dcd a13d 4d53 38be 9140 be3b
00000060: 05c8 1dbe 0dd4 5dbe 332d d13d 26fe a33d
00000070: 4a3f 40bd 2f27 213e eadc 17be 5a4c 19be
00000080: a55f 10be 91b2 a33d 2a2a 6cbd 00ff 9f3c
00000090: 7433 b73d 6445 073d e921 2d3e 6ebc 86be
000000a0: 7a21 883c 2c8b 58bd 7b31 2fbd 5ed0 c63d
000000b0: b2cd cc3c ac48 b03d 94c5 e5bd f7df 263e
000000c0: 7eec 973d d66c bf3d d780 003e 463b 58be
000000d0: 626f e4bd 3a53 513e b8b6 783e 2564 62bd
000000e0: 1dcd bcbd 5b2a 65be ac00 30bd 2b0a 253e
000000f0: 97f3 a1bc 6a67 ffbd 1e4d ed3c 3d1c a63d
00000100: 03bd 213e 8a53 afbd 5d8e 173e b1e3 15be
00000110: 04ce 63be f714 0cbe e5eb 8e3d 4d8a 7fbd
00000120: da3b 2abe 3043 2dbe d971 09be ca2e 933b
00000130: 664b 70bb 2114 583e c2ea 133e 5431 7bbd
00000140: c6ff b3bb b7b7 333c 5cb4 90be fcce 4abe
00000150: 39da 20bc c835 313d b4b0 6f3e 9dab 14be
00000160: cf78 6c3d e3f7 6bbd 3a1c 20be fbf3 dbbc
00000170: 68a0 37be 5c00 15be 5115 3dbe 7607 2b3c
00000180: 246e 12be 1792 513d b05c a5bd b98a 88be
00000190: c573 ed3d 0628 03bd fef2 fd3d 95f5 0cbe
000001a0: 4c91 92bd 87d3 013e c8a7 9bbd 70de 1e3d
000001b0: c64e 0cbe f77b 31be 13a8 ab3d 70dd 17be
000001c0: e4cb 463b 506a 883d f2ac a3bd b383 a4bc
000001d0: a41b a23c 7410 8abe 68f8 fe3d 7e3e c73d
000001e0: 8e55 123e 4282 08be d243 d2bc 45b4 f53d
000001f0: 0ba1 7f3d 62bf 023e 85d5 48bc bfc8 f83d
00000200: 39d6 ba3d d2a2 9abc d556 3c3e 8807 9fbe
00000210: 1cc3 15bd b2a7 d0bc 359e 67bc b3a4 15be
00000220: 1f3c 8aba 9655 34be bf96 f43d da17 6cbe
00000230: c4a0 143e 390a e0bd 9286 3abe 55ef 58bc
00000240: 3f80 da3d d73c eabd 0f2c 00be 275f b8bd
00000250: f4b8 3bbe d154 093e 22fa 8a3d 4fa6 04be
00000260: 357d 283e 3bd0 c3bb 6556 b13d 6e6d 95bd
00000270: 1743 8abc 0e69 0d3d 67d0 83be 9325 373e
00000280: 0321 5e3d 0d66 20bc f810 14be c602 5bbe
00000290: 740a 4ebe 3c10 56bd 35a3 1bbe 0aff 8f3d
000002a0: 0084 773c 1a00 12be 6ac9 1e3d a44f 8fbc
000002b0: 4a8b ae3c 4457 83bd 7197 65bd b4c6 a7bb
000002c0: 89ab 693e e482 3bbe 7f9b b7bd 7e4f c93c
000002d0: 1be1 11be 4727 54be 6cb3 21bd 00f2 9abd
000002e0: d76c f0bd d87f 6c3e f2ec c8bd b532 123e
000002f0: 374b 763e ca6d 3fbe 51c6 d5bc df85 3abe
00000300: a1db 593c bb5b 873c 5061 cabd 69d8 40be
00000310: ce9c 07be e722 5fbd 5db2 05bd 3ada 823d
00000320: c444 773c c939 dfbd 7d4d 01be 1c03 0abe
00000330: a019 49bd 675f 253e b364 113e 5f39 21be
00000340: bc9e 203c 8ccc c73d 178a 223e 8e8a 85bd
00000350: 56b5 8c3c 6822 7f3d 9b39 3f3d 1e10 2f3e
00000360: 00a0 363e 8c9b 5b3d eab1 f5bd c156 9c3d
00000370: e4e2 f93d 1f81 18be c86e 01be 69b4 253e
00000380: bd6b d53c ffe7 82bd 7f2b 3cbd 5e3e c4bd
00000390: 1929 3c3e 8318 d7bd 56cc 343d 516c 3bbd
000003a0: 7050 a23d 9807 8bbd 652f b13c 5521 c0bd
000003b0: 020a f7bc 664a 33be b4bf 1f3e c043 c23d
000003c0: 9ae4 8b3e 89a0 5b3d a048 44bd 7740 73bd
000003d0: 850b 043c 2f53 623e 2f66 8cbd 3424 02be
000003e0: 913e 20be f3c7 0abe 5bee 8b3d a0d2 83bd
000003f0: 169d e9bd 3001 3dbd eca1 7bbe 058c 81be

rnn.bias_ih_l1 f4 [120]
0.21405138 -0.07466873 0.20953748 -0.041661005 -0.09838995 0.09558942 0.07243269 0.18089601
0.19545187 0.3738983 0.056339525 0.06647259 0.03972058 -0.039126847 0.21188977 0.04569985
0.08608542 0.044349167 -0.08314509 0.20720637 0.060509592 -0.09468005 0.19668391 -0.02002145
0.22942965 0.1516522 -0.07220337 0.073683806 0.1987757 0.15201989 -0.04186797 0.01998072
0.15402207 -0.010636529 -0.030498778 -0.15018977 0.042130988 0.04810179 0.15089196 0.02875345
0.0061121285 0.10839 0.0056863115 0.03220789 0.06803347 -0.09137267 0.012461054 0.18139146
0.062306594 -0.122614905 0.18777196 -0.07039792 -0.065804385 0.21989788 -0.08125909 0.060430296
0.0499368 -0.030086007 -0.0929953 0.074778676 -0.028732195 -0.08248963 0.104876295 0.17803583
0.08843973 0.016649084 0.028715514 -0.10617209 -0.14055774 -0.08080979 -0.02986999 0.0011229909
-0.16636713 -0.10726374 0.05985211 -0.087697506 -0.0045108586 0.19974029 0.033574123 0.06550079
0.06564563 -0.054586794 0.019448482 -0.14501832 -0.061399497 0.07413378 0.1660217 0.073537126
0.049217943 -0.119322695 0.01487199 0.24253485 0.012959071 0.059272185 0.1903936 0.13287754
0.028901068 -0.11361249 0.37248972 0.2748205 -0.07045098 0.16154741 0.1343421 0.042181574
0.2400712 0.019914448 0.1410086 0.06910436 -0.023369586 0.06301512 -0.07512313 0.16357163
0.028576061 0.1897127 0.2193459 0.32905987 -0.038088832 0.18135549 0.16630355 0.21867408
00000000: 4930 5b3e ebeb 98bd fe90 563e bba4 2abd
00000010: ac80 c9bd 63c4 c33d 9757 943d ce3c 393e
00000020: 8924 483e 996f bf3e 46c4 663d c822 883d
00000030: 0cb2 223d 7943 20bd a2f9 583e c42f 3b3d
00000040: 8d4d b03d 79a7 353d f947 aabd e82d 543e
00000050: e8d8 773d 9de7 c1bd 8267 493e 0604 a4bc
00000060: 9bef 6a3e b74a 1b3e 5cdf 93bd 89e7 963d
00000070: db8b 4b3e 1aab 1b3e c07d 2bbd 9bae a33c
00000080: f6b7 1d3e d644 2ebc 93d8 f9bc 59cb 19be
00000090: 8b91 2c3d 6206 453d 6c83 1a3e 5b8c eb3c
000000a0: 4048 c83b 94fb dd3d 3d54 ba3b 6cec 033d
000000b0: 2255 8b3d 9821 bbbd 7329 4c3c afbe 393e
000000c0: 3335 7f3d 861d fbbd 4b47 403e c92c 90bd
000000d0: 73c4 86bd e92c 613e 2a6b a6bd c285 773d
000000e0: 888a 4c3d ee76 f6bc 5274 bebd 9025 993d
000000f0: c85f ebbc 53f0 a8bd 62c9 d63d 064f 363e
00000100: e41f b53d a963 883c cc3c eb3c c170 d9bd
00000110: 5eee 0fbe 9a7f a5bd e9b1 f4bc 5231 933a
00000120: 255c 2abe 17ad dbbd 7c27 753d c09a b3bd
00000130: d3cf 93bb b888 4c3e 0585 093d 4725 863d
00000140: 3771 863d 6796 5fbd 6c52 9f3c af7f 14be
00000150: 0a7e 7bbd 74d3 973d 9801 2a3e a29a 963d
00000160: c198 493d 755f f4bd a6a9 733c 0e5b 783e
00000170: 4952 543c 64c7 723d 8af6 423e 0d11 083e
00000180: efc1 ec3c aaad e8bd f9b6 be3e 46b5 8c3e
00000190: 9a48 90bd af6c 253e fa90 093e 96c6 2c3d
000001a0: 3ad5 753e a023 a33c 8f64 103e 9686 8d3d
000001b0: 9371 bfbc 120e 813d 28da 99bd 527f 273e
000001c0: 5818 ea3c 0c44 423e 369c 603e 897a a83e
000001d0: 0903 1cbd 41b5 393e 7a4b 2a3e 19ec 5f3e

rnn.bias_hh_l1 f4 [120]
-0.012167677 -0.071964964 0.060450993 -0.18056242 -0.048970837 0.19230025 0.04507684 -0.11899654
-0.030690467 0.27448002 0.09256565 0.24593292 0.25323713 0.0027994884 0.113594696 0.25450337
0.20892987 -0.08875714 -0.083911315 0.08105245 0.15145642 0.19551295 -0.053869285 0.19130222
0.31488264 0.093397886 -0.08842963 0.040943127 0.16523851 0.11320654 0.0682672 0.1255158
0.23627006 0.07208939 -0.083103284 0.11652009 0.18518695 0.034163974 0.028158626 -0.2059183
-0.030401712 -0.23962313 -0.052972715 -0.036580164 0.21474153 0.16647154 0.277921 -0.16102785
0.15495454 0.17209071 0.007489836 -0.058441583 0.2268024 -0.037399773 0.109787494 -0.09429476
0.15808453 0.14635481 0.05301688 0.1367133 -0.091542214 -0.1399561 0.080108516 -0.046315957
0.04421563 -0.1601465 -0.0038652802 -0.109453514 -0.1357338 -0.02385918 0.10896728 0.11758125
-0.13837205 -0.09432917 -0.03345668 -0.24973637 -0.14308551 0.091435514 -0.058212508 -0.101240136
-0.012227978 -0.021847704 -0.18375076 -0.20848683 -0.0012875838 -0.042572796 0.031983946 -0.13177581
0.07834509 0.057609495 0.22997463 -0.11114374 0.010793838 0.23745151 0.25040692 0.07663188
0.23935868 -0.12500551 0.20727618 0.15081108 -0.03680732 0.10904239 0.06818404 0.26340958
-0.07194091 0.1208179 -0.06911772 0.16748327 0.0076570217 0.057087302 0.18805245 0.25543422
0.1880659 -0.0039882744 0.16002533 0.09628794 -0.088270195 0.15506135 0.17649068 0.036248744
00000000: f05a 47bc 5e62 93bd 769b 773d 5be5 38be
00000010: a595 48bd 5bea 443e 7ea2 383d 75b4 f3bd
00000020: 936a fbbc a588 8c3e 0f93 bd3d d7d5 7b3e
00000030: 4ca8 813e 9f77 373b 56a4 e83d 444e 823e
00000040: b6f1 553e 4ec6 b5bd b2d9 abbd d4fe a53d
00000050: 6417 1b3e 8c34 483e 0aa6 5cbd bbe4 433e
00000060: 4c38 a13e 6447 bf3d 981a b5bd fbb3 273d
00000070: 4934 293e d5d8 e73d accf 8b3d 3787 003e
00000080: c7f0 713e 9aa3 933d 0e32 aabd 16a2 ee3d
00000090: a6a1 3d3e 86ef 0b3d ebac e63c 3fdc 52be
000000a0: 030d f9bc c45f 75be ebf9 58bd 15d5 15bd
000000b0: 34e5 5b3e 8477 2a3e a94b 8e3e 7ce4 24be
000000c0: 67ac 1e3e 8c38 303e 4c6d f53b 7160 6fbd
000000d0: e33e 683e 8130 19bd 44d8 e03d 9c1d c1bd
000000e0: e9e0 213e 09de 153e 3a28 593d 92fe 0b3e
000000f0: 7c7a bbbd a750 0fbe ef0f a43d cdb5 3dbd
00000100: 731b 353d 72fd 23be a450 7dbb 2a29 e0bd
00000110: cdfd 0abe 5474 c3bc 3d2a df3d 70ce f03d
00000120: 67b1 0dbe a72f c1bd df09 09bd e4ba 7fbe
00000130: 0285 12be 8b42 bb3d 3d70 6ebd fd56 cfbd
00000140: db57 48bc f5f9 b2bc 2929 3cbe 927d 55be
00000150: 25c4 a8ba d060 2ebd 9901 033d 3df0 06be
00000160: 6473 a03d eff7 6b3d 787e 6b3e 549f e3bd
00000170: a3d8 303c 7d26 733e 5635 803e 2df1 9c3d
00000180: 711a 753e 7201 00be 3540 543e 386e 1a3e
00000190: 46c3 16bd 9e51 df3d 13a4 8b3d 9fdd 863e
000001a0: c155 93bd 606f f73d 978d 8dbd bc80 2b3e
000001b0: c1e7 fa3b 60d4 693d d290 403e 46c8 823e
000001c0: 5994 403e 12b0 82bb aedd 233e 9d32 c53d
000001d0: 01c7 b4bd 67c8 1e3e f9b9 343e 9079 143d

distribution_projector.weight f4 [32, 30]
-0.08943614 -0.1971499 -0.02152722 -0.047167342 -0.18646565 0.18676022 0.31510934 0.099205025
0.14945138 -0.37278777 0.25823835 -0.31602198 0.17509028 -0.32098418 0.11321363 0.2598032
-0.21142635 -0.03436838 0.1918008 -0.31620422 0.14503455 -0.28996882 0.073875986 0.2767689
0.1979136 -0.3399654 0.106428996 -0.10429044 -0.16571198 0.0012230437 -0.66714656 0.6420482
-0.57302004 -0.54769796 -0.66307366 -0.67957556 -0.5150028 0.56976 0.66045034 -0.6972119
-0.47710735 -0.7781399 0.56742656 0.5503848 0.57235664 0.4976156 0.636194 -0.5203079
-0.5040479 0.48201054 -0.61331594 -0.62962073 0.4853618 0.52723247 0.6779815 0.43043098
-0.64862436 0.5215917 -0.5752324 -0.5811046 0.022514299 0.058503646 0.18609966 -0.22686067
-0.29220766 0.21978208 0.062317275 0.056933064 -0.07978134 0.0860276 0.0892831 0.1971223
0.030341549 -0.19325575 0.07319792 -0.0063367225 -0.062773846 -0.23653978 0.084780626 0.053046614
-0.24851298 -0.1368112 0.18746531 -0.12554137 0.06978106 -0.1045037 0.1183194 0.01129065
0.033301562 0.0836805 -0.089493245 -0.09748911 0.04008034 0.30809754 0.049772225 0.11037381
0.07239545 0.08235883 -0.031336237 0.114393406 -0.2646941 -0.19079885 0.099523656 0.084126964
-0.12879708 -0.22628015 0.22951947 -0.037404202 0.06288158 0.23992991 0.054204144 0.24110559
-0.23514389 0.043797005 0.3586848 0.05181113 0.18218914 0.15103145 -0.0123145515 0.12993011
0.04994975 0.085440055 -0.011838264 0.024923401 -0.29118568 0.20205887 0.17395937 -0.19775885
0.044897918 -0.14411825 0.22546843 -0.040966157 -0.031895626 -0.20118815 0.24824277 0.224171
-0.18492961 -0.09302867 0.2945463 0.0313902 -0.074793346 -0.17496584 0.018976491 0.16079296
-0.031805307 -0.23507254 -0.056130107 -0.022634849 -0.09304763 -0.14396475 0.17051195 0.058601387
0.15247583 0.044161532 -0.24944735 -0.085840836 0.14332493 0.17349443 -0.061945762 -0.1539184
0.2982312 -0.29769233 0.11747923 0.075850695 0.13241476 0.1491191 -0.18967308 0.10477664
-0.0615567 -0.086912304 0.17396231 -0.06432611 0.17476201 0.15059267 -0.12398878 -0.256925
-0.08766624 -0.074449815 0.067732915 -0.10679945 -0.01717889 0.0032017024 0.015920175 0.30683824
0.19212419 -0.04712635 -0.22712398 -0.1514915 -0.0025964428 0.2821642 -0.35787892 0.018916711
-0.037203647 0.19449225 -0.17531908 -0.32658485 0.28903562 0.22894299 -0.19517364 0.36646837
0.17913368 -0.058286868 -0.22258364 -0.12491538 0.3597453 0.24837981 -0.06835647 0.14813061
0.17134006 0.16084076 -0.13213344 0.12375648 0.07554489 0.042505525 -0.31183252 0.23811363
0.094487034 -0.04774898 0.090689406 -0.028462302 0.04883733 0.21488273 0.030233027 -0.14516948
0.2555955 0.15346529 -0.24121623 -0.00982984 0.14073695 -0.22031336 -0.1230306 -0.16217619
0.01937083 0.10824895 -0.09995949 0.016205497 -0.07164357 -0.17518282 -0.054801527 -0.110016644
0.17206255 -0.1040177 -0.15795188 0.07276422 0.27292463 0.0664092 -0.072943926 0.112082735
0.08671994 -0.02569268 0.07108099 -0.16931304 0.11043504 -0.034229547 -0.08066983 0.06453755
00000000: 4c2a b7bd aae1 49be da59 b0bc 8b32 41bd
00000010: daf0 3ebe 123e 3f3e 0356 a13e 012c cb3d
00000020: c809 193e 0ade bebe d137 843e a2cd a1be
00000030: de4a 333e 0a58 a4be 8cdc e73d ed04 853e
00000040: 2680 58be dcc5 0cbd 6e67 443e 85e5 a1be
00000050: f083 143e cb76 94be 4b4c 973d a7b4 8d3e
00000060: dda9 4a3e f20f aebe 72f7 d93d 3a96 d5bd
00000070: 67b0 29be 894e a03a 1eca 2abf 455d 243f
00000080: 71b1 12bf ef35 0cbf 32bf 29bf aaf8 2dbf
00000090: 39d7 03bf cbdb 113f 4613 293f 7b7c 32bf
000000a0: 6a47 f4be 2d34 47bf de42 113f 05e6 0c3f
000000b0: f785 123f 79c7 fe3e 9cdd 223f e632 05bf
000000c0: 4809 01bf 16ca f63e 4602 1dbf d32e 21bf
000000d0: 5881 f83e b5f8 063f 3290 2d3f 7361 dc3e
000000e0: 3f0c 26bf 0987 053f 6e42 13bf 45c3 14bf
000000f0: e86f b83c 85a1 6f3d e990 3e3e 2a4e 68be
00000100: 3e9c 95be 8e0e 613e 6640 7f3d a532 693d
00000110: 6664 a3bd 3d2f b03d 0fda b63d 6eda 493e
00000120: d78e f83c d6e4 45be cbe8 953d 48a4 cfbb
00000130: 938f 80bd 7c37 72be 77a1 ad3d 6847 593d
00000140: 307a 7ebe 3c18 0cbe e8f6 3f3e eb8d 00be
00000150: 5fe9 8e3d 0906 d6bd 7151 f23d 6bfc 383c
00000160: 3867 083d af60 ab3d 3c48 b7bd 5fa8 c7bd
00000170: 482b 243d f6be 9d3e f6dd 4b3d aa0b e23d
00000180: 1144 943d bfab a83d 6d5a 00bd 1747 ea3d
00000190: fc85 87be c660 43be 0fd3 cb3d c24a ac3d
000001a0: 62e3 03be fcb5 67be 2707 6b3e 2635 19bd
000001b0: 0fc8 803d 30b0 753e 2a05 5e3d 62e4 763e
000001c0: 8fc9 70be 7d64 333d 89a5 b73e e837 543d
000001d0: ca8f 3a3e fda7 1a3e f9c2 49bc 660c 053e
000001e0: 1c98 4c3d 32fb ae3d 47f5 41bc 292c cc3c
000001f0: 4a16 95be 85e8 4e3e 6822 323e 4c81 4abe
00000200: e1e6 373d bc93 13be 32e1 663e 21cc 27bd
00000210: fda4 02bd 4404 4ebe 5a33 7e3e 158d 653e
00000220: 305e 3dbe d185 bebd c6ce 963e 0393 003d
00000230: 412d 99bd 3f2a 33be 9674 9b3c e9a6 243e
00000240: 4846 02bd dbb6 70be afe8 65bd b86c b9bc
00000250: c18f bebd 7f6b 13be af9a 2e3e 0208 703d
00000260: a022 1c3e b9e2 343d 206f 7fbe 52cd afbd
00000270: c5c3 123e 86a8 313e d7ba 7dbd c99c 1dbe
00000280: c3b1 983e 216b 98be f398 f03d 9c57 9b3d
00000290: bc97 073e adb2 183e a939 42be 2395 d63d
000002a0: e122 7cbd 14ff b1bd 2d23 323e 68bd 83bd
000002b0: d0f4 323e f734 1a3e d4ed fdbd ac8b 83be
000002c0: 5c8a b3bd 2579 98bd 8eb7 8a3d acb9 dabd
000002d0: beba 8cbc a7d3 513b 076b 823c e719 9d3e
000002e0: 34bc 443e 8f07 41bd 3093 68be 9620 1bbe
000002f0: 1529 2abb d377 903e e83b b7be 38f7 9a3c
00000300: da62 18bd fa28 473e d886 33be 2136 a7be
00000310: 7afc 933e 0870 6a3e 99db 47be bea1 bb3e
00000320: d26e 373e 36be 6ebd f7ec 63be a2d3 ffbd
00000330: 8930 b83e 4757 7e3e 7afe 8bbd 8daf 173e
00000340: c573 2f3e 71b3 243e fd4d 07be 0a74 fd3d
00000350: 47b7 9a3d 461a 2e3d 83a8 9fbe 0fd4 733e
00000360: 6b82 c13d 6f94 43bd 5ebb b93d c629 e9bc
00000370: a709 483d 380a 5c3e 41ab f73c 4fa7 14be
00000380: 6add 823e 0126 1d3e 6301 77be 560d 21bc
00000390: 591d 103e d399 61be 78f7 fbbd 8411 26be
000003a0: 93af 9e3c a0b1 dd3d 90b7 ccbd 64c1 843c
000003b0: ddb9 92bd 2063 33be 9177 60bd 6850 e1bd
000003c0: 2a31 303e 3b07 d5bd 23be 21be 6805 953d
000003d0: c7bc 8b3e 8c01 883d a063 95bd a28b e53d
000003e0: 399a b13d 7579 d2bc e992 913d 6660 2dbe
000003f0: c42b e23d 4834 0cbd 3936 a5bd 432c 843d

distribution_projector.bias f4 [32]
0.07350064 -0.2404098 -0.06894752 -0.14395137 0.06396802 0.1798461 -0.019773535 0.010129103
-0.08536555 0.17300293 -0.02896569 -0.034814443 0.18443233 0.17587137 0.027750058 -0.1571487
-0.06449718 -0.19933613 0.07074466 0.12621105 -0.0036721851 0.16444957 -0.038684987 -0.02371807
0.050827693 0.027251186 0.074545994 -0.1270453 0.21681559 -0.1438981 -0.102853425 0.08843476
00000000: 8187 963d fd2d 76be 5b34 8dbd fd67 13be
00000010: aa01 833d 9329 383e 1cfc a1bc 8af4 253c
00000020: 22d4 aebd ae27 313e 7449 edbc 9799 0ebd
00000030: d4db 3c3e a017 343e 1754 e33c 97eb 20be
00000040: 1917 84bd c51e 4cbe 94e2 903d 783d 013e
00000050: 0ba9 70bb 7865 283e 2674 1ebd 664c c2bc
00000060: b330 503d e13d df3c 92ab 983d 2a18 02be
00000070: e804 5e3e 065a 13be d1a4 d2bd 491d b53d

exp_avg f4 [5, 4]
1.3557773e-12 2.3259873e-12 -4.5643467e-12 1.4294775e-13 -1.9064286e-10 -1.0403088e-11 1.4865706e-10 1.400845e-10
-3.223822e-08 3.623105e-08 -2.1092742e-08 -5.5505048e-08 2.2028264e-05 -1.7279335e-05 8.90619e-06 1.0682861e-05
-5.526946e-06 5.7719826e-06 -6.3001708e-06 -2.4137764e-06
00000000: 06cf be2b 43ad 232c fb97 a0ac e2f1 202a
00000010: 329d 51af 5803 37ad 3e73 232f 4806 1a2f
00000020: 4c76 0ab3 769c 1b33 6e2f b5b2 7264 6eb3
00000030: 56c9 b837 17f3 90b7 cb6b 1537 8a3a 3337
00000040: 1b74 b9b6 f4ac c136 0e66 d3b6 5dfc 21b6

exp_avg_sq f4 [5, 4]
9.992701e-06 1.8116215e-06 8.7734463e-07 6.528814e-07 1.3109979e-05 3.4253358e-06 5.522751e-07 8.1482966e-07
1.4439871e-05 4.605108e-06 7.60347e-07 1.8162921e-06 2.2684719e-05 6.9332395e-06 1.6968048e-06 3.1287057e-06
6.499488e-08 1.2987988e-08 1.1582541e-08 9.4216395e-09
00000000: 53a6 2737 d726 f335 aa82 6b35 ab41 2f35
00000010: eef2 5b37 d2de 6536 0e40 1435 abba 5a35
00000020: c642 7237 9485 9a36 a61a 4c35 52c7 f335
00000030: 104b be37 13a4 e836 c5bd e335 c1f6 5136
00000040: 5093 8b33 c621 5f32 8efc 4632 cfdc 2132
