analysis/lightning_logs/version_4/checkpoints/epoch=0-step=50.ckpt (torch, 217087 bytes, 33 tensors)

embeddings.embeddings.series_id.weight f4 [5, 4]
-0.8762961 -1.5476866 1.9555016 -0.047875043 -0.23290879 1.4871145 0.9827989 1.2134407
-0.89200974 -1.1460232 -0.87631077 -0.23337437 -0.1389466 -1.0002707 1.2234037 -0.5975997
1.6384807 0.3991858 1.0362588 -0.10336356
00000000: f154 60bf 981a c6bf e04d fa3f 9f18 44bd
00000010: a47f 6ebe c559 be3f b598 7b3f 0652 9b3f
00000020: c05a 64bf e3b0 92bf e755 60bf b1f9 6ebe
00000030: 0448 0ebe df08 80bf 7e98 9c3f 4bfc 18bf
00000040: bcb9 d13f 1562 cc3e 21a4 843f 46b0 d3bd

rnn.weight_ih_l0 f4 [120, 14]
-0.16160786 0.13795376 -0.15407743 0.019093212 -0.010582771 0.1313942 -0.016460618 0.12595259
0.08118374 -0.05077698 -0.09061429 -0.053079028 -0.019822355 0.15605994 0.0603831 0.06453027
0.17382483 -0.08308909 -0.1464957 0.09518841 -0.17661507 0.0004825828 -0.13136144 -0.07621599
-0.01014408 -0.08651947 0.13868408 -0.06666102 -0.1281035 0.1743987 0.16960785 -0.102292135
0.053631026 -0.07447907 -0.094026424 -0.15600182 -0.06857378 0.057866298 0.120538816 -0.11824782
0.06480994 -0.063680165 0.16723868 -0.08795507 -0.03813131 -0.024353247 -0.023648573 -0.12302875
-0.010187223 0.10344382 0.13318714 -0.13665491 0.075685136 -0.17543203 -0.086546734 -0.13665976
0.10395871 0.14182203 0.045764044 0.12623936 0.16574226 -0.08708387 0.08812609 0.15681282
-0.1055647 0.10063402 0.116199374 0.004322404 -0.16103807 -0.010050905 -0.068208255 0.14900029
-0.011294675 -0.036204133 0.14477186 -0.034895465 0.0421013 -0.03879852 0.005548632 0.08703759
-0.00024980272 -0.1404123 0.17271705 -0.14924842 0.17102648 0.13570791 0.06780116 -0.106246665
0.07411773 -0.07912908 -0.018357415 0.15423256 -0.04657667 0.14805333 -0.061731964 -0.0858034
0.107754916 -0.06455533 -0.10345175 -0.028561756 0.03269318 -0.10995589 0.03341261 -0.06710253
0.003568258 -0.027298529 0.012135866 0.13938685 0.11942312 -0.013758621 0.094551414 0.012690404
-0.014405041 0.10381713 -0.07638745 -0.0940791 0.08460988 0.07523324 0.0911671 0.07140333
-0.034109395 -0.051725384 0.1266593 0.12697989 0.11549961 0.05837115 0.007900361 -0.09200049
0.11334196 0.119688526 -0.13497889 -0.10516341 0.060857747 -0.17184575 -0.12316832 0.077330105
-0.093442574 -0.103218295 0.048084486 -0.15411818 0.030699236 0.1351961 0.1276625 -0.15674427
-0.17495722 0.12206707 0.15033627 -0.18885717 -0.040861577 -0.035879575 0.032630518 -0.1049839
0.020634905 0.1210671 0.12850448 0.13714242 -0.08241399 -0.13775694 0.15057363 0.14382489
0.060987186 -0.16127712 0.009895058 -0.014838616 0.070483744 -0.065376386 0.09068045 0.16249304
0.13116887 0.15531601 -0.049380973 -0.16488479 0.18008451 0.13735226 0.061362732 -0.1549287
-0.025349386 -0.15084851 -0.12375254 -0.03222043 -0.10369493 0.026890917 0.11734835 0.095724896
-0.06496103 -0.05075052 0.09337529 -0.1844577 -0.1213647 0.053398497 0.045493197 -0.1726818
-0.102063574 -0.052687023 -0.060632862 -0.03591033 -0.03570616 -0.14915064 -0.0013272697 -0.08894143
-0.05384686 -0.066931404 0.11690525 -0.11662888 -0.14788575 -0.045092653 0.037749205 0.042241015
0.025063448 -0.09690538 0.010109964 0.015255995 0.13831666 0.015076445 0.12094743 0.09985732
-0.0666003 -0.08025026 -0.17763756 -0.18409511 0.12417123 0.13404973 0.119496584 -0.1778593
0.05067333 0.15723523 0.123895876 -0.07560848 0.02884277 0.11703572 -0.07379425 -0.12983678
-0.12723796 -0.020971319 0.07027908 -0.14996973 0.008625145 0.11571419 -0.11498239 -0.029244864
-0.054185607 0.030427996 -0.037385978 -0.027788274 -0.033909805 -0.14664741 0.12756243 0.101125754
0.027224941 -0.037103478 0.1393001 -0.14589371 -0.1206984 0.1035011 0.13848732 0.057577886
00000000: 887c 25be c043 0d3e 79c6 1dbe 5e69 9c3c
00000010: 5c63 2dbc 338c 063e 6bd8 86bc b7f9 003e
00000020: a943 a63d 86fb 4fbd fc93 b9bd 6569 59bd
00000030: 7e62 a2bc 2dce 1f3e 4554 773d 7228 843d
00000040: 23ff 313e 9d2a aabd f802 16be 24f2 c23d
00000050: 95da 34be 2b03 fd39 9d83 06be 2117 9cbd
00000060: 5b33 26bc 1f31 b1bd 3303 0e3e 9385 88bd
00000070: 902d 03be 9395 323e aead 2d3e 8a7e d1bd
00000080: 35ac 5b3d 7c88 98bd ed90 c0bd f1be 1fbe
00000090: 6970 8cbd 3605 6d3d 0edd f63d ea2b f2bd
000000a0: 13bb 843d bf6a 82bd 9e40 2b3e ca21 b4bd
000000b0: 942f 1cbd 7680 c7bc a7ba c1bc 7ff6 fbbd
000000c0: 4fe8 26bc 5ada d33d 3662 083e 44ef 0bbe
000000d0: cf00 9b3d 74a4 33be 6a3f b1bd 89f0 0bbe
000000e0: 4ee8 d43d cb39 113e 1473 3b3d e444 013e
000000f0: 57b8 293e 0759 b2bd 747b b43d 8a93 203e
00000100: 4e32 d8bd 3619 ce3d f0f9 ed3d f4a2 8d3b
00000110: 2ae7 24be 8dac 24bc c5b0 8bbd 8893 183e
00000120: 4d0d 39bc c94a 14bd 133f 143e 8cee 0ebd
00000130: 6a72 2c3d 32eb 1ebd 4cd1 b53b c440 b23d
00000140: f4f7 82b9 3ec8 0fbe bddc 303e 94d4 18be
00000150: 9121 2f3e 04f7 0a3e 56db 8a3d da97 d9bd
00000160: 09cb 973d 6d0e a2bd 4a62 96bc 24ef 1d3e
00000170: 2ec7 3ebd 4b9b 173e a8da 7cbd b1b9 afbd
00000180: 9cae dc3d 9635 84bd 83de d3bd 58fa e9bc
00000190: 49e9 053d 8e30 e1bd a9db 083d 0d6d 89bd
000001a0: 6fd9 693b 2aa1 dfbc 83d5 463c 6dbb 0e3e
000001b0: 1c94 f43d d76b 61bc 2ca4 c13d 6aeb 4f3c
000001c0: 1f03 6cbc 139e d43d 0671 9cbd 8bac c0bd
000001d0: f247 ad3d e313 9a3d d1b5 ba3d e93b 923d
000001e0: 4bb6 0bbd ffdd 53bd fab2 013e 0407 023e
000001f0: 0f8b ec3d 9616 6f3d 8470 013c c16a bcbd
00000200: d41f e83d 421f f53d e837 0abe ea5f d7bd
00000210: f945 793d 55f8 2fbe ac3f fcbd 3f5f 9e3d
00000220: d25e bfbd 1d64 d3bd 3df4 443d 28d1 1dbe
00000230: f77c fb3c d970 0a3e f5b9 023e 9281 20be
00000240: fc27 33be 4dfe f93d c0f1 193e c663 41be
00000250: 785e 27bd 76f6 12bd 94a7 053d cd01 d7bd
00000260: 880a a93c 07f2 f73d ae96 033e 106f 0c3e
00000270: aac8 a8bd 2810 0dbe f92f 1a3e d546 133e
00000280: b3cd 793d d425 25be e21e 223c ab1d 73bc
00000290: c859 903d 0ee4 85bd acb6 b93d 9364 263e
000002a0: 2251 063e 290b 1f3e b443 4abd 8fd7 28be
000002b0: 1368 383e 12a6 0c3e 7d57 7b3d a1a5 1ebe
000002c0: 84a9 cfbc 0878 1abe f971 fdbd 92f9 03bd
000002d0: 025e d4bd 574a dc3c 5554 f03d 6a0b c43d
000002e0: 4a0a 85bd c7df 4fbd 8b3b bf3d 7be2 3cbe
000002f0: 0e8e f8bd 62b8 5a3d 1357 3a3d 7fd3 30be
00000300: b506 d1bd 59ce 57bd 2a5a 78bd b616 13bd
00000310: 9f40 12bd f2ba 18be c8f7 adba ed26 b6bd
00000320: 868e 5cbd 5513 89bd 056c ef3d 1fdb eebd
00000330: 5d6f 17be 13b3 38bd e99e 1a3d ea04 2d3d
00000340: dc51 cd3c 5476 c6bd 43a4 253c 48f4 793c
00000350: e2a2 0d3e 3203 773c 49b3 f73d ff81 cc3d
00000360: bd65 88bd 405a a4bd 9fe6 35be 6e83 3cbe
00000370: 7c4d fe3d 5544 093e a0ba f43d c020 36be
00000380: d68e 4f3d 4602 213e 1fbd fd3d 9ed8 9abd
00000390: ac47 ec3c 6cb0 ef3d 7121 97bd eff3 04be
000003a0: ab4a 02be 0bcc abbc 7aee 8f3d aa91 19be
000003b0: 7b50 0d3c 90fb ec3d e37b ebbd ed92 efbc
000003c0: baf1 5dbd 2244 f93c 0a22 19bd 3ca4 e3bc
000003d0: 02e5 0abd bd2a 16be ba9f 023e 051b cf3d
000003e0: d706 df3c d1f9 17bd afa4 0e3e 2965 15be
000003f0: b930 f7bd 62f8 d33d 9fcf 0d3e cad6 6b3d

rnn.weight_hh_l0 f4 [120, 30]
-0.14061204 -0.032537024 -0.07694428 0.10985039 0.09203614 0.1736551 0.17045754 -0.18749668
-0.108095095 -0.083579734 0.13050856 0.13080592 -0.109580174 0.04793838 0.111153856 -0.14268355
-0.079058625 0.18005428 -0.08638613 0.025288725 -0.11015046 -0.084758885 0.11246563 0.069655135
0.1576307 -0.15009284 -0.037330396 0.13615069 0.0078062788 -0.14625171 -0.13249181 0.12150146
-0.10728739 0.023835594 0.10101736 0.11513688 -0.015583264 0.10920183 -0.01925065 -0.055253875
0.10741942 0.031673457 -0.13292398 0.15302992 -0.02331124 0.15401609 -0.10639837 -0.003811494
-0.12280963 -0.14142866 0.16751826 0.14497466 -0.1579229 0.09181928 -0.14120239 0.11724345
-0.100338586 0.10098054 -0.05143663 0.14993058 -0.17554659 -0.11400632 0.11446364 -0.009763585
-0.08096404 -0.07602549 -0.14722955 0.07762437 0.07338187 -0.05916885 0.08627268 0.10152959
0.04448104 -0.13586827 0.069788754 0.0047696047 -0.0177669 0.13622244 -0.002003794 -0.19376227
-0.023762552 0.1616081 0.1362521 -0.018177075 0.0642109 0.13065663 0.032471105 -0.098067075
-0.064983085 0.09970804 0.14751312 0.071193054 -0.10489323 -0.004909823 -0.16930859 0.11779135
0.10285739 0.08483139 -0.12719387 0.033763956 0.13731323 -0.16789864 0.1631483 -0.112885006
0.15148541 0.09818414 -0.17525409 0.0655066 0.09659259 -0.012775896 -0.020746792 -0.032802727
-0.08428861 -0.12210614 0.008983357 0.17297225 -0.023708869 0.0060180346 0.001884703 0.009507055
0.11071798 -0.074794106 -0.13198537 -0.15686294 0.102372706 0.18151811 0.16649982 -0.09946489
-0.15197289 -0.15522304 -0.061531495 0.03193251 0.09085673 -0.07455158 0.06472945 0.061733473
-0.12922555 0.12517658 -0.1735876 -0.10101857 -0.18738681 -0.045057975 -0.099752806 -0.111698
-0.097999796 0.09801218 -0.0546145 0.15977865 -0.05880969 -0.16842377 0.058512546 0.06530573
-0.1179357 0.057637274 -0.04919799 0.11349113 -0.044222202 0.0790292 0.14962922 -0.05068846
-0.0999657 0.017826648 0.06401821 -0.002739475 0.15087017 0.0089972075 0.016421534 -0.01240586
0.12737498 -0.1614546 -0.0071376306 -0.021835547 0.03012453 -0.017015077 -0.13748118 -0.17199208
0.04644326 0.011277024 0.044636615 -0.07117713 0.049045485 0.08950051 0.0034847178 -0.032413132
0.0440718 0.11174794 0.11663637 0.18104626 -0.17854996 -0.09349344 -0.15335087 0.041203324
-0.06509494 -0.09916527 0.15855467 0.022833616 -0.1371187 -0.085283615 0.10130236 0.12853155
-0.16792311 -0.17146745 0.13335715 -0.15354483 -0.1442048 -0.1516653 0.024815302 0.16925009
0.05130465 -0.08411077 0.05745576 -0.0027380264 -0.12010478 0.1674773 0.032904398 0.024671497
0.0072400817 0.047145292 -0.01558469 -0.15545551 0.047489427 -0.07028964 0.09193786 0.13180286
-0.052751817 -0.12640831 0.017105022 0.1009705 -0.09326796 0.06742119 -0.13737252 0.09307175
-0.17688683 -0.17724523 -0.073622786 0.16096087 -0.12910506 0.13278775 -0.10064237 0.09543189
0.0247178 0.10014147 0.004255896 0.11400889 0.0037993237 -0.08694688 -0.14117275 -0.12795208
0.09021557 -0.07032748 -0.10336109 -0.047732268 -0.18040591 -0.14843023 0.079886675 -0.06522716
00000000: 9afc 0fbe 8b45 05bd f694 9dbd 3ef9 e03d
00000010: 727d bc3d a4d2 313e 6c8c 2e3e 21ff 3fbe
00000020: f660 ddbd da2b abbd 09a4 053e fdf1 053e
00000030: 926b e0bd 095b 443d a2a4 e33d a31b 12be
00000040: 7de9 a1bd 2660 383e 36eb b0bd 4d2a cf3c
00000050: 9096 e1bd 1196 adbd 6154 e63d 5aa7 8e3d
00000060: f169 213e f0b1 19be c2e7 18bd 166b 0b3e
00000070: d0cb ff3b 02c3 15be efab 07be c2d5 f83d
00000080: 7eb9 dbbd dd42 c33c 31e2 ce3d e2cc eb3d
00000090: f250 7fbc 36a5 df3d 8ab3 9dbc e351 62bd
000000a0: b6fe db3d 07bc 013d 391d 08be e0b3 1c3e
000000b0: 37f7 bebc 65b6 1d3e 63e7 d9bd 42ca 79bb
000000c0: 9e83 fbbd add2 10be e889 2b3e 3d74 143e
000000d0: 8ab6 21be bf0b bc3d 5c97 10be 551d f03d
000000e0: 517e cdbd e3ce ce3d 37af 52bd 6787 193e
000000f0: 7cc2 33be 257c e9bd ea6b ea3d 72f7 1fbc
00000100: 79d0 a5bd 41b3 9bbd 58c3 16be 87f9 9e3d
00000110: 3c49 963d 095b 72bd bbaf b03d bfee cf3d
00000120: c031 363d 0d21 0bbe 68ed 8e3d 584a 9c3b
00000130: e48b 91bc e57d 0b3e 1652 03bb 9e69 46be
00000140: afa9 c2bc 987c 253e ac85 0b3e 17e8 94bc
00000150: 0181 833d daca 053e 6c00 053d 64d7 c8bd
00000160: da15 85bd bb33 cc3d ae0d 173e aacd 913d
00000170: 43d2 d6bd 95e2 a0bb 3b5f 2dbe 973c f13d
00000180: e5a6 d23d 14bc ad3d 1c3f 02be 134c 0a3d
00000190: d79b 0c3e 9fed 2bbe 5910 273e 4130 e7bd
000001a0: fe1e 1b3e c414 c93d cf75 33be 5328 863d
000001b0: 56d2 c53d fe51 51bc 2df5 a9bc 275c 06bd
000001c0: 829f acbd c912 fabd ee2e 133c a31f 313e
000001d0: 1a39 c2bc ef32 c53b 2308 f73a 7bc3 1b3c
000001e0: 1cc0 e23d a72d 99bd 2c27 07be aea0 20be
000001f0: c8a8 d13d e2df 393e ee7e 2a3e 40b4 cbbd
00000200: c89e 1bbe caf2 1ebe 7308 7cbd aacb 023d
00000210: 1813 ba3d 80ae 98bd e090 843d 3ddc 7c3d
00000220: b453 04be 4a2e 003e f3c0 31be d3e2 cebd
00000230: 54e2 3fbe b68e 38bd 334b ccbd ecc1 e4bd
00000240: 1eb4 c8bd 9cba c83d 74b3 5fbd 049d 233e
00000250: 6ee2 70bd 4877 2cbe daaa 6f3d 03bf 853d
00000260: 4688 f1bd 1015 6c3d d583 49bd 0a6e e83d
00000270: 5722 35bd 10da a13d 6738 193e b49e 4fbd
00000280: d1ba ccbd 3109 923c fb1b 833d c488 33bb
00000290: b67d 1a3e 0669 133c 7486 863c f341 4bbc
000002a0: 966e 023e 5b54 25be c9e2 e9bb 76e0 b2bc
000002b0: b8c7 f63c 3463 8bbc dec7 0cbe b11e 30be
000002c0: 4a3b 3e3d 44c3 383c e2d4 363d 51c5 91bd
000002d0: ebe3 483d 0b4c b73d dd5f 643b a2c3 04bd
000002e0: a284 343d 1bdc e43d 0ddf ee3d 3164 393e
000002f0: cdd5 36be 7d79 bfbd 0308 1dbe d1c4 283d
00000300: 7f50 85bd 2917 cbbd 285c 223e 900d bb3c
00000310: d868 0cbe 2da9 aebd 9d77 cf3d c69d 033e
00000320: 09f4 2bbe 2a95 2fbe c78e 083e db3a 1dbe
00000330: 6caa 13be 264e 1bbe 7649 cb3c e54f 2d3e
00000340: d324 523d 4442 acbd bb56 6b3d 7670 33bb
00000350: 7ff9 f5bd 2b7f 2b3e c3c6 063d e11b ca3c
00000360: 353e ed3b 6c1b 413d ed56 7fbc bb2f 1fbe
00000370: 4684 423d 04f4 8fbd eb49 bc3d 54f7 063e
00000380: 4a12 58bd 2e71 01be d51f 8c3c 9fc9 ce3d
00000390: 4603 bfbd 1f14 8a3d 62ab 0cbe 679c be3d
000003a0: d221 35be c67f 35be 8bc7 96bd edd2 243e
000003b0: 1e34 04be 83f9 073e 961d cebd cb71 c33d
000003c0: fc7c ca3c f916 cd3d 0b75 8b3b 7e7d e93d
000003d0: 13fe 783b 3511 b2bd 978f 10be df05 03be
000003e0: f1c2 b83d db07 90bd fbae d3bd e982 43bd
000003f0: 54bc 38be 18fe 17be a09b a33d d195 85bd

rnn.bias_ih_l0 f4 [120]
0.0659797 -0.00014145419 0.0481963 -0.15048207 0.15927368 0.08955063 -0.05778729 0.061141945
-0.04398289 0.0118762255 0.054805737 0.0053989966 0.16260181 -0.073332645 0.14600512 -0.13204394
0.028418463 0.13417907 -0.06692878 0.07124399 0.05422659 0.14794163 0.03533492 -0.11961281
0.08393621 -0.0060473625 0.0672515 -0.119200744 -0.011497025 0.04590871 0.17805178 0.06085756
-0.040510833 0.008840808 -0.09148318 0.112587 0.05776788 -0.11238298 0.007468811 -0.15339552
0.005446506 -0.11239771 0.118002065 0.0050406284 -0.08697717 0.1072985 0.037379313 0.14590348
0.07968556 0.13945001 -0.06417958 -0.040513135 -0.19012567 0.1650276 -0.16881001 0.16898078
0.14247273 -0.16353585 0.12346452 -0.108112805 0.076222084 0.035131395 0.03799994 -0.06064114
-0.11725763 0.07179608 -0.1548311 0.14653873 -0.16112612 0.12267641 0.05916228 -0.01552897
0.073344216 0.08093441 0.11570422 0.12310433 -0.15772519 0.12175409 -0.16392781 0.1515434
-0.06915326 -0.09938927 -0.040549498 0.16950196 0.04685172 0.13362741 0.027001513 -0.09857942
-0.026116097 0.06165292 -0.1408872 0.086952515 0.04684287 0.13156831 0.08589338 0.11028151
0.11468294 -0.18531558 0.1156382 -0.09787213 -0.11127801 0.17435692 0.054341227 -0.15063365
-0.10716529 -0.009097782 -0.031527482 -0.16953209 0.12486517 0.092589445 -0.06599062 -0.1793925
-0.0014996582 -0.08199722 -0.008171776 -0.1194043 0.16901006 0.0059763086 0.011817674 -0.14063638
00000000: 5d20 873d 5253 14b9 7c69 453d f917 1abe
00000010: a418 233e 5266 b73d 5eb2 6cbd fa6f 7a3d
00000020: 6727 34bd 8094 423c fb7b 603d 11ea b03b
00000030: 1781 263e 6d2f 96bd 5e82 153e 8736 07be
00000040: d6cd e83c 3d66 093e f511 89bd 5ee8 913d
00000050: b31c 5e3d 037e 173e 59bb 103d 90f7 f4bd
00000060: bfe6 ab3d f428 c6bb 28bb 893d 851f f4bd
00000070: 055e 3cbc c60a 3c3d 3553 363e c745 793d
00000080: b0ee 25bd 09d9 103c 895b bbbd 0394 e63d
00000090: 039e 6c3d 0c29 e6bd edbc f43b b713 1dbe
000000a0: 9b78 b23b c530 e6bd 11ab f13d db2b a53b
000000b0: 1621 b2bd 51bf db3d 0d1b 193d b967 153e
000000c0: 2f32 a33d fccb 0e3e 9570 83bd 1af1 25bd
000000d0: 4eb0 42be fffc 283e 88dc 2cbe 4c09 2d3e
000000e0: 5fe4 113e f175 27be f7da fc3d 3f6a ddbd
000000f0: 531a 9c3d f0e5 0f3d d3a5 1b3d d862 78bd
00000100: c524 f0bd d309 933d 0b8c 1ebe 400e 163e
00000110: 3ffe 24be c53d fb3d 2654 723d 396d 7ebc
00000120: 7e35 963d f1c0 a53d 56f6 ec3d 1f1e fc3d
00000130: b682 21be 355a f93d b1dc 27be 312e 1b3e
00000140: 39a0 8dbd 9a8c cbbd 3b17 26bd ec91 2d3e
00000150: 97e7 3f3d a0d5 083e 4732 dd3c 02e4 c9bd
00000160: 6df1 d5bc c687 7c3d bc44 10be 2914 b23d
00000170: 4fde 3f3d d8b9 063e dee8 af3d 46db e13d
00000180: e4de ea3d 5ec3 3dbe b8d3 ec3d 2f71 c8bd
00000190: bae5 e3bd 9f8a 323e e894 5e3d b53f 1abe
000001a0: 7a79 dbbd dd0e 15bc f622 01bd d299 2dbe
000001b0: 4fb9 ff3d 899f bd3d 1726 87bd abb2 37be
000001c0: 2e90 c4ba 29ee a7bd eae2 05bc 3e8a f4bd
000001d0: f910 2d3e e9d4 c33b eb9e 413c fc02 10be

rnn.bias_hh_l0 f4 [120]
-0.1293565 0.13676657 -0.15189275 -0.16067402 -0.06765121 -0.16381319 0.05526466 0.09543248
-0.112068005 0.0069761793 -0.169877 -0.07796216 -0.12186536 -0.11088952 -0.070535704 0.11979742
0.053152252 0.0967916 -0.113337874 -0.09136752 0.03488183 0.1335048 0.14647397 0.13678245
-0.004099403 -0.0052211382 0.090185605 -0.14430422 -0.06875771 0.1790794 -0.13567124 -0.14526738
0.076167084 -0.1367027 -0.14139877 0.18796846 -0.15182978 -0.051938325 0.16662955 0.13058263
0.034300808 -0.14862461 -0.1613284 -0.114125334 0.06990066 0.17968093 -0.16303368 0.17710966
0.12700029 -0.082482636 -0.026310215 -0.050091274 -0.029528376 0.1868642 0.034378044 0.09814051
-0.11441795 0.120664336 0.008008626 -0.08402533 0.04953183 0.15678261 0.09265333 -0.110615626
-0.121634945 0.14209603 -0.103231475 -0.023053354 -0.17519306 -0.059028246 0.02529898 0.0077874227
-0.12300133 0.09868381 -0.13864449 -0.091693 -0.13973725 0.00026118953 0.03710983 -0.07331628
-0.13176496 -0.005100893 -0.0030792665 0.15556319 0.07115646 0.0023248305 0.050223652 0.03536571
-0.028868798 -0.11383348 -0.17144984 -0.08289211 -0.011775587 -0.18744704 -0.002402876 -0.12025677
0.16428001 -0.09103587 -0.045557067 0.02079995 -0.022371821 0.04907468 0.16156492 0.007651467
-0.15339002 -0.08421356 -0.08368492 -0.07611957 -0.017751532 0.116348945 0.16372547 0.12913062
-0.071404815 -0.116090134 -0.044038434 0.10414768 0.01876829 -0.04511508 -0.03571372 -0.0021828108
00000000: 0876 04be 890c 0c3e c689 1bbe bb87 24be
00000010: b88c 8abd a5be 27be 325d 623d 1b72 c33d
00000020: e983 e5bd 6f98 e43b 3cf4 2dbe a0aa 9fbd
00000030: 8c94 f9bd 0b1a e3bd 0675 90bd 5a58 f53d
00000040: 2db6 593d ad3a c63d b01d e8bd e51e bbbd
00000050: 40e0 0e3d 7bb5 083e 46fd 153e b310 0c3e
00000060: 4954 86bb 1516 abbb 3bb3 b83d 7cc4 13be
00000070: d8d0 8cbd 9760 373e 67ed 0abe f9c0 14be
00000080: 7dfd 9b3d cbfb 0bbe d7ca 10be ce7a 403e
00000090: 4479 1bbe 48bd 54bd f0a0 2a3e 74b7 053e
000000a0: 017f 0c3d 0d31 18be 4633 25be 8bba e9bd
000000b0: 1428 8f3d 47fe 373e 4df2 26be 3c5c 353e
000000c0: 5d0c 023e a8ec a8bd 8588 d7bc 822c 4dbd
000000d0: 7ee5 f1bc 5459 3f3e fecf 0c3d e4fd c83d
000000e0: f553 eabd dd1e f73d 9d36 033c 7915 acbd
000000f0: e3e1 4a3d 9f8b 203e 07c1 bd3d 728a e2bd
00000100: be1b f9bd 9f81 113e 066b d3bd 63da bcbc
00000110: cf65 33be 9ac7 71bd ce3f cf3c a32d ff3b
00000120: 1fe8 fbbd bd1a ca3d d2f8 0dbe 8ac9 bbbd
00000130: 4817 0fbe 44f0 8839 7a00 183d d926 96bd
00000140: 65ed 06be 6425 a7bb 85cd 49bb f54b 1f3e
00000150: 7aba 913d 2f5c 183b 51b7 4d3d a2db 103d
00000160: 427e ecbc 8721 e9bd 8c90 2fbe 57c3 a9bd
00000170: 64ee 40bc 1ef2 3fbe 9279 1dbb 2e49 f6bd
00000180: 0539 283e 0471 babd 0c9a 3abd a864 aa3c
00000190: 1c45 b7bc 8802 493d 4671 253e 28b9 fa3b
000001a0: 4612 1dbe 2978 acbd 0063 abbd 94e4 9bbd
000001b0: a96b 91bc 5b48 ee3d a6a7 273e d13a 043e
000001c0: b03c 92bd aac0 edbd a561 34bd 614b d53d
000001d0: f5bf 993c 97ca 38bd 8d48 12bd 7d0d 0fbb

rnn.weight_ih_l1 f4 [120, 30]
-0.15271647 -0.1710418 0.1673393 0.004663294 -0.06413961 0.045453664 0.05279745 0.08000139
0.0401848 -0.0031745774 0.12818283 0.13509408 0.059099063 0.14134392 0.04093939 -0.032437764
0.1402975 -0.0014102835 -0.14636108 0.073375404 -0.08202914 0.05321174 -0.1838987 -0.17593385
-0.042924214 0.13378549 0.12412444 0.09310245 -0.009060045 0.17245705 -0.117972136 0.16467263
-0.11456681 -0.13900389 -0.11610781 0.07223432 0.15559751 -0.059855457 -0.18592663 -0.13989496
0.00688866 -0.1880523 -0.010170109 0.07823073 -0.07493277 -0.052983746 -0.008477851 -0.003884304
-0.027453836 0.03334011 0.0071763596 -0.08501587 0.045826443 -0.08872452 0.06540955 0.0044810637
-0.018522877 -0.08623574 -0.09224325 0.10090247 -0.079439536 -0.10746691 0.09919642 -0.035060693
0.056296844 0.14726998 -0.047612015 -0.024527125 0.15262961 -0.12606676 -0.115601845 -0.113406226
-0.10254038 0.07390461 -0.16701935 0.02825695 -0.029852657 -0.085836895 0.15567553 0.0061462135
0.1493088 0.099137075 -0.011566905 0.1772271 0.02679823 0.09129105 -0.061613612 -0.058837567
0.11324487 -0.048209697 0.107628986 -0.17258587 0.07870568 -0.12635057 0.096127704 -0.045897253
0.085373536 0.012010304 0.086316265 0.013351356 0.14750564 -0.14386149 0.0644778 -0.15488999
0.1352542 -0.17647758 0.13670324 -0.060161438 -0.13606866 0.07582946 -0.008357636 -0.05029099
0.1494302 0.00028313306 0.008345836 0.08967313 0.08997351 -0.121203035 0.019843936 0.1467482
0.029933373 -0.10635532 0.16216692 0.13553047 0.06677667 -0.03503799 -0.117273845 0.15715833
0.045323864 -0.05351277 0.042571668 -0.047874782 -0.07092918 0.007696612 -0.055645544 0.08546979
0.036560733 0.12925535 -0.11804397 0.12489716 -0.09012939 -0.099070676 -0.028716488 -0.08006448
0.029219722 0.09233069 -0.15529749 -0.1405177 -0.14800882 -0.17336613 -0.12727804 -0.14358577
0.056953058 0.007209824 -0.030120682 0.09164581 0.08581394 0.06750865 -0.13732804 -0.15134308
-0.09598341 0.046146452 0.028265016 -0.07080555 0.008504583 -0.027146516 0.020111665 0.15530777
0.1225993 -0.068909235 -0.010435575 0.01724027 0.13767865 -0.106570944 -0.02239954 -0.033329766
-0.17776667 0.020180726 0.050764643 -0.03940563 0.1659067 0.15390801 -0.044344917 -0.07272666
0.15583941 -0.014437889 0.09397666 -0.046707585 -0.09894869 0.099804856 0.03861619 -0.18095984
0.11396198 -0.15600704 -0.04128554 -0.058530074 0.004187802 -0.1228908 0.02941352 0.113930985
0.005946882 0.1429895 0.1602704 0.19185387 0.0634002 -0.029867595 -0.16335158 0.048568
-0.11990959 -0.027200013 0.07327076 -0.11102184 -0.073027566 -0.04725165 0.17153876 0.06707983
0.05222845 -0.16460694 0.018296698 0.10080466 0.14518541 0.07869844 -0.14100184 0.049496494
0.0039572725 -0.16185331 0.044464964 -0.040830687 0.013176338 0.011333087 0.105851874 -0.10593178
-0.1265453 0.17162983 -0.12542023 -0.13974154 -0.07474399 -0.14953491 -0.015330861 0.107404456
0.13489719 0.057810657 -0.015449772 -0.13813788 -0.00044497615 0.040967926 -0.07267115 0.06434454
-0.0446947 0.12068366 -0.043381713 0.110662684 -0.017846346 0.104972534 0.12911932 0.02415347
00000000: b561 1cbe 9525 2fbe fe5a 2b3e 8cce 983b
00000010: a15b 83bd 9f2d 3a3d 2442 583d c5d7 a33d
00000020: d198 243d 920c 50bb 5c42 033e 1a56 0a3e
00000030: dc11 723d 76bc 103e 10b0 273d 76dd 04bd
00000040: 26aa 0f3e 43d9 b8ba aedf 15be d845 963d
00000050: e5fe a7bd 8ef4 593d f14f 3cbe 0128 34be
00000060: 4dd1 2fbd 10ff 083e f434 fe3d 7fac be3d
00000070: 9570 14bc 9598 303e 609b f1bd f19f 283e
00000080: 01a2 eabd 0957 0ebe eec9 edbd 96ef 933d
00000090: f454 1f3e ff2a 75bd 8d63 3ebe a040 0fbe
000000a0: 45ba e13b c890 40be 87a0 26bc 6f37 a03d
000000b0: 5a76 99bd 7c05 59bd afe6 0abc cf8f 7ebb
000000c0: dee6 e0bc a48f 083d ab27 eb3b cd1c aebd
000000d0: 82b4 3b3d 33b5 b5bd 71f5 853d e3d5 923b
000000e0: 4abd 97bc 5d9c b0bd 07ea bcbd f4a5 ce3d
000000f0: 32b1 a2bd 9c17 dcbd 7e27 cb3d cd9b 0fbd
00000100: 8597 663d f1cd 163e d104 43bd 1ced c8bc
00000110: f04a 1c3e a517 01be a9c0 ecbd 8641 e8bd
00000120: b100 d2bd 4d5b 973d 1f07 2bbe 1f7b e73c
00000130: 8f8d f4bc 41cb afbd 6869 1f3e 2d66 c93b
00000140: 68e4 183e 6108 cb3d 1e83 3dbc 057b 353e
00000150: f687 db3c cdf6 ba3d 8e5e 7cbd a9ff 70bd
00000160: edec e73d 8877 45bd 966c dc3d 5aba 30be
00000170: 7230 a13d 0b62 01be 9ade c43d c2fe 3bbd
00000180: 52d8 ae3d dec6 443c 95c6 b03d a5bf 5a3c
00000190: b80b 173e 6d50 13be f00c 843d 7b9b 1ebe
000001a0: 1480 0a3e 8ab6 34be effb 0b3e d76b 76bd
000001b0: 9555 0bbe 7a4c 9b3d 77ee 08bc edfd 4dbd
000001c0: 3b04 193e 7a71 9439 f9bc 083c 8ca6 b73d
000001d0: 0844 b83d 4c39 f8bd c08f a23c 2945 163e
000001e0: d536 f53c d1d0 d9bd 160f 263e 80c8 0a3e
000001f0: 35c2 883d ff83 0fbd 452d f0bd 1dee 203e
00000200: 84a5 393d 3530 5bbd a15f 2e3d 5918 44bd
00000210: 5143 91bd dc33 fc3b 95ec 63bd c90a af3d
00000220: b5c0 153d 845b 043e 09c1 f1bd 15ca ff3d
00000230: c295 b8bd 91e5 cabd d73e ebbc d9f8 a3bd
00000240: 335e ef3c df17 bd3d 4e06 1fbe dfe3 0fbe
00000250: a08f 17be e486 31be 2d55 02be 2608 13be
00000260: 9c47 693d 6340 ec3b a6bf f6bc ccb0 bb3d
00000270: 38bf af3d fa41 8a3d b99f 0cbe aef9 1abe
00000280: f392 c4bd 1004 3d3d 098c e73c 8002 91bd
00000290: ce56 0b3c 5f62 debc 38c1 a43c 0009 1f3e
000002a0: 5815 fb3d 4920 8dbd f9f9 2abc 773b 8d3c
000002b0: a2fb 0c3e de41 dabd 3d7f b7bc cb84 08bd
000002c0: 7708 36be 0d52 a53c 96ee 4f3d cc67 21bd
000002d0: 72e3 293e 109a 1d3e 04a3 35bd b7f1 94bd
000002e0: 5e94 1f3e e58c 6cbc d676 c03d 7450 3fbd
000002f0: 9ca5 cabd 7d66 cc3d 032c 1e3d 894d 39be
00000300: e664 e93d 4fc0 1fbe 071b 29bd 3bbd 6fbd
00000310: d439 893b 2cae fbbd 9ff4 f03c a654 e93d
00000320: 10de c23b d76b 123e ec1d 243e 5775 443e
00000330: f7d7 813d e3ac f4bc a345 27be 3def 463d
00000340: 2993 f5bd 90d2 debc fb0e 963d 6b5f e3bd
00000350: 7a8f 95bd f28a 41bd dba7 2f3e 2661 893d
00000360: 80ed 553d b98e 28be f5e2 953c ac72 ce3d
00000370: 7cab 143e a62c a13d c962 10be d6bc 4a3d
00000380: 02ac 813b e0bc 25be e520 363d 143e 27bd
00000390: 91e1 573c 6aae 393c dec8 d83d c3f2 d8bd
000003a0: 1795 01be bbbf 2f3e 296e 00be 6818 0fbe
000003b0: 6113 99bd ae1f 19be 4b2e 7bbc def6 db3d
000003c0: 7d22 0a3e deca 6c3d 0a21 7dbc 0474 0dbe
000003d0: b04b e9b9 fccd 273d 9dd4 94bd 12c7 833d
000003e0: ca11 37bd ff28 f73d 06b1 31bd 1ea3 e23d
000003f0: 8032 92bc d7fb d63d db37 043e 7fdd c53c

rnn.weight_hh_l1 f4 [120, 30]
0.16186032 -0.03562901 -0.13419458 -0.04088758 0.015452352 -0.044175792 -0.17445517 -0.04371194
-0.16191155 -0.13854556 0.16119854 -0.10859778 -0.13002281 0.16503425 -0.13993858 0.16698529
0.0083315205 -0.0594193 -0.16439725 0.096289024 -0.13555425 0.05603043 -0.07235038 0.1094048
-0.086609915 -0.14963058 0.026933169 0.098698035 -0.13579933 0.06877337 -0.13909253 -0.14508776
-0.12093069 0.08644963 -0.03783907 -0.06924891 0.07575369 0.00096175657 0.09817009 -0.15030804
0.012093378 0.058375195 -0.080678 0.15219504 -0.018944174 0.054267067 -0.1260956 0.19017476
0.043090414 0.08169243 0.1361984 -0.17214802 -0.14051755 0.15703107 0.14650579 -0.11237012
-0.06837272 -0.09610382 0.008779386 0.17954242 -0.029953683 0.021037031 -0.012901431 -0.0051797517
0.08128276 -0.03286565 0.15419298 -0.046383224 -0.16658248 -0.08086419 0.0024279524 -0.14513645
-0.07974104 -0.17221607 -0.043301567 0.09734117 0.08794959 0.12497322 0.07465638 -0.0058963653
-0.046766594 -0.07848801 -0.18685621 -0.11267163 0.09072378 0.02929067 0.17189232 -0.16286848
-0.031797506 -0.12423062 -0.18331254 -0.04890758 -0.16686203 -0.12698561 -0.15399668 -0.04907175
-0.14253972 0.025068665 -0.14803377 -0.15583117 0.09821726 0.11518147 0.10020092 -0.092964485
-0.102112144 0.100567624 -0.08081401 0.068885855 -0.17759946 -0.18144561 0.10421881 -0.1333386
-0.01386472 0.028096145 -0.15131372 -0.02783675 0.033261534 -0.1804958 0.16683297 0.103693284
0.09426512 -0.12193175 -0.04867508 0.11739127 0.09069437 0.02013687 -0.07164157 0.15155566
0.08231255 0.12831767 0.085516 -0.14523411 -0.020651191 0.068727344 -0.018022563 -0.16994542
0.049694356 -0.16259497 -0.0014461912 -0.17476635 0.13111229 -0.12166828 -0.16913755 -0.02892292
0.07545344 -0.027369868 -0.15824185 0.048202116 -0.13623136 0.10675732 0.056938928 -0.10832058
0.07250743 -0.04796104 0.061587565 -0.10439048 -0.1247273 0.08474594 -0.16132821 0.13802747
-0.027587498 -0.09379082 -0.08977046 -0.17071292 -0.15192743 -0.030122118 -0.06197121 0.032886814
-0.090055175 -0.06834129 0.01102623 -0.025533991 0.06360303 -0.008202024 0.08423647 0.007942935
0.14421049 -0.13896795 -0.15301791 -0.046557255 -0.08250954 -0.18139029 0.0050033596 -0.09632445
-0.09337622 0.06763625 -0.124824524 0.12723537 0.16247143 0.015309527 -0.084637 -0.05993358
-0.0057732053 0.121926725 -0.1392197 -0.18837956 -0.076490946 -0.039319087 -0.018458303 0.09437793
-0.106056325 -0.07928995 -0.1510777 -0.1537735 -0.12519492 0.013689991 0.16133533 0.011614847
0.026009826 0.1479164 0.11530392 -0.05416889 0.0044272826 0.07236737 0.05034157 0.15551566
0.18268071 0.058066834 -0.15066157 0.14158213 0.099239066 -0.029492559 -0.11784618 0.16876863
0.03178994 -0.061550815 -0.045774277 -0.08067744 0.14651065 -0.08988066 0.061695863 -0.054398686
0.09352101 -0.07273434 0.010849144 -0.08674717 -0.04156979 -0.15560398 0.16730939 0.080929786
0.13662572 0.0035183982 -0.10257354 -0.044036977 -0.053053167 0.14783391 -0.09476327 -0.05499385
-0.095343076 -0.126379 -0.025452971 0.018853825 -0.031265248 0.03797714 -0.1610048 -0.14761339
00000000: b6be 253e baef 11bd 4e6a 09be bc79 27bd
00000010: dd2b 7d3c adf1 34bd 60a4 32be 4b0b 33bd
00000020: 24cc 25be e3de 0dbe 3b11 253e 8368 debd
00000030: b324 05be bdfe 283e 0f4c 0fbe 31fe 2a3e
00000040: ee80 083c a761 73bd c157 28be 2e33 c53d
00000050: bcce 0abe 2a80 653d 702c 94bd a00f e03d
00000060: 8a60 b1bd c238 19be f3a2 dc3c 3222 ca3d
00000070: fb0e 0bbe 0dd9 8c3d 466e 0ebe e391 14be
00000080: 82aa f7bd 810c b13d 24fd 1abd 5fd2 8dbd
00000090: c024 9b3d 641e 7c3a 660d c93d 5aea 19be
000000a0: 4e23 463c d41a 6f3d 823a a5bd 04d9 1b3e
000000b0: d030 9bbc 2547 5e3d 341f 01be 2cbd 423e
000000c0: 937f 303d 5c4e a73d 9877 0b3e 9247 30be
000000d0: d5e3 0fbe c1cc 203e 9d05 163e 4e22 e6bd
000000e0: ff06 8cbd 14d2 c4bd 6ad7 0f3c f8d9 373e
000000f0: 6d61 f5bc da55 ac3c 8660 53bc e8ba a9bb
00000100: 9377 a63d 229e 06bd c4e4 1d3e 56fc 3dbd
00000110: 9994 2abe 209c a5bd 481e 1f3b a69e 14be
00000120: 454f a3bd 6959 30be fc5c 31bd cf5a c73d
00000130: ea1e b43d f6f1 ff3d 72e5 983d 4c36 c1bb
00000140: 548e 3fbd 52be a0bd 3c57 3fbe 62c0 e6bd
00000150: 64cd b93d fdf2 ef3c 8a04 303e ffc6 26be
00000160: 1a3e 02bd a06c febd 48b6 3bbe 5153 48bd
00000170: e1dd 2abe 8408 02be 4eb1 1dbe 76ff 48bd
00000180: eff5 11be cd5c cd3c 2a96 17be 3592 1fbe
00000190: 2126 c93d 43e4 eb3d 2436 cd3d 2a64 bebd
000001a0: 2c20 d1bd 66f6 cd3d d181 a5bd 0714 8d3d
000001b0: a2dc 35be e1cc 39be ac70 d53d ea89 08be
000001c0: da28 63bc e329 e63c fcf1 1abe e509 e4bc
000001d0: 3f3d 083d e4d3 38be 43d6 2a3e 255d d43d
000001e0: 120e c13d 5ab7 f9bd 855f 47bd d66a f03d
000001f0: f8bd b93d 14f6 a43c d1b8 92bd 6831 1b3e
00000200: 7b93 a83d b565 033e 0323 af3d 40b8 14be
00000210: b02c a9bc ecc0 8c3d 0ea4 93bc 2c06 2ebe
00000220: 4f8c 4b3d 4c7f 26be 208e bdba f3f5 32be
00000230: 4d42 063e 382d f9bd 6532 2dbe c2ef ecbc
00000240: 5587 9a3d c636 e0bc 270a 22be 956f 453d
00000250: 3c80 0bbe 95a3 da3d cb38 693d 2ed7 ddbd
00000260: c77e 943d cc72 44bd 3e43 7c3d adca d5bd
00000270: 0771 ffbd 488f ad3d 3933 25be 1357 0d3e
00000280: 2dff e1bc 6715 c0bd 93d9 b7bd 5ecf 2ebe
00000290: dd92 1bbe a9c2 f6bc 86d5 7dbd 53b4 063d
000002a0: d96e b8bd 85f6 8bbd 5ca7 343c a92c d1bc
000002b0: 4e42 823d c861 06bc 2c84 ac3d 1623 023c
000002c0: eaab 133e 9d4d 0ebe bab0 1cbe d2b2 3ebd
000002d0: c3fa a8bd 60be 39be 39f3 a33b c145 c5bd
000002e0: 083c bfbd e084 8a3d 00a4 ffbd fd49 023e
000002f0: e95e 263e cfd4 7a3c 2a56 adbd ea7c 75bd
00000300: 282d bdbb b8b4 f93d 9c8f 0ebe 92e6 40be
00000310: 49a7 9cbd 0d0d 21bd de35 97bc 3749 c13d
00000320: 0f34 d9bd c562 a2bd 1db4 1abe cd76 1dbe
00000330: 1933 00be fc4b 603c 1735 253e 334c 3e3c
00000340: 8f12 d53c 6677 173e 7624 ec3d 33e0 5dbd
00000350: bd12 913b 5835 943d f632 4e3d 7f3f 1f3e
00000360: a710 3b3e 7dd7 6d3d 0747 1abe e8fa 103e
00000370: da3d cb3d 619a f1bc 5759 f1bd afd1 2c3e
00000380: 2b36 023d b51c 7cbd cf7d 3bbd 373a a5bd
00000390: e306 163e 5a13 b8bd cdb4 7c3d 28d1 5ebd
000003a0: f187 bf3d bef5 94bd 9cc0 313c 80a8 b1bd
000003b0: 1645 2abd a656 1fbe 2753 2b3e 84be a53d
000003c0: 9de7 0b3e ed94 663b 1312 d2bd 1e60 34bd
000003d0: 474e 59bd c661 173e 3f13 c2bd 3b41 61bd
000003e0: 3b43 c3bd 7f69 01be c082 d0bc 5673 9a3c
000003f0: fd0f 00bd eb8d 1b3d 71de 24be f727 17be

rnn.bias_ih_l1 f4 [120]
0.10074601 -0.04176963 0.1291355 -0.026950575 -0.14466164 0.0595475 0.026468702 0.16316931
0.08372837 0.10697804 0.02361856 -0.16449942 -0.020126307 -0.0955862 0.12840146 -0.0470788
0.0564626 0.04516839 -0.16682601 0.18217628 0.029554684 -0.1340844 0.10751177 -0.1613969
0.06294585 -0.08906453 -0.065217 0.0133391125 0.094051056 0.045089528 -0.13077645 -0.0064448514
0.061307494 -0.0076811123 -0.0306632 -0.16178778 0.013540953 0.026949808 0.18400449 0.082733795
-0.039257646 0.16341679 -0.05148523 -0.012649145 0.018356202 -0.14571278 -0.07647989 0.18790445
-0.050998595 -0.1611627 0.18175027 -0.12402509 -0.13972674 0.11892654 -0.066782475 0.020477667
0.06330807 -0.09585528 -0.082312405 -0.041052032 0.009162835 -0.099126 0.083618365 0.15325448
0.04726791 0.042110197 0.008002497 -0.09916051 -0.14314133 -0.13203081 -0.07830304 -0.065229505
-0.09735922 -0.104014374 0.14442174 -0.009156587 0.023006458 0.1947055 0.027572079 0.08479247
0.07716491 -0.062174305 0.05823722 -0.014032077 -0.054551393 0.08539533 0.15370776 0.047354594
0.0171373 -0.12907742 -0.1283737 0.18775147 -0.041979715 0.003428358 0.09224349 0.036781244
-0.11623888 -0.15554522 0.16212764 -0.022423403 -0.1213261 -0.11018646 0.053218696 -0.09496037
0.12347217 -0.087982416 0.10496518 0.011162539 -0.122813344 -0.0051989397 -0.15835366 0.03756502
-0.08413258 0.08787024 0.010440237 0.06636757 -0.09090172 0.092592314 0.045160726 0.14609936
00000000: ed53 ce3d a216 2bbd 193c 043e 74c7 dcbc
00000010: 2e22 14be 14e8 733d e4d4 d83c db15 273e
00000020: c879 ab3d 4d17 db3d b67b c13c 8972 28be
00000030: eddf a4bc b3c2 c3bd ac7b 033e b3d5 40bd
00000040: 5445 673d 7d02 393d 70d4 2abe 6b8c 3a3e
00000050: aa1c f23c 6c4d 09be 222f dc3d 3b45 25be
00000060: c1e9 803d 7767 b6bd 7e90 85bd 4b8c 5a3c
00000070: d79d c03d ccaf 383d 43ea 05be 552f d3bb
00000080: 911d 7b3d d7b1 fbbb 6431 fbbc b2ab 25be
00000090: e0da 5d3c d8c5 dc3c ac6b 3c3e 5670 a93d
000000a0: a0cc 20bd bb56 273e 2de2 52bd 5c3e 4fbc
000000b0: bf5f 963c bb35 15be 7da1 9cbd 066a 403e
000000c0: e7e3 50bd d607 25be be1c 3a3e de00 febd
000000d0: 8714 0fbe c28f f33d 40c5 88bd c8c0 a73c
000000e0: a9a7 813d c64f c4bd 6893 a8bd 2d26 28bd
000000f0: b71f 163c 9302 cbbd 1b40 ab3d beee 1c3e
00000100: ff9b 413d be7b 2c3d e81c 033c aa14 cbbd
00000110: a493 12be 1633 07be 585d a0bd 0c97 85bd
00000120: 4564 c7bd 7d05 d5bd 4be3 133e 8205 16bc
00000130: 0a78 bc3c e160 473e d7de e13c ada7 ad3d
00000140: a308 9e3d 7caa 7ebd 278a 6e3d cce6 65bc
00000150: 4871 5fbd bfe3 ae3d 9165 1d3e e4f6 413d
00000160: 8663 8c3c df2c 04be 6574 03be ec41 403e
00000170: ecf2 2bbd 4dae 603b 28ea bc3d eea7 163d
00000180: a60e eebd 3f47 1fbe ca04 263e 49b1 b7bc
00000190: d179 f8bd 70a9 e1bd d9fb 593d 957a c2bd
000001a0: fade fc3d 2030 b4bd fcf7 d63d 15e3 363c
000001b0: 9085 fbbd de5b aabb 7627 22be c7dd 193d
000001c0: b44d acbd 50f5 b33d 870d 2b3c b8eb 873d
000001d0: ae2a babd 0aa1 bd3d 74fa 383d 129b 153e

rnn.bias_hh_l1 f4 [120]
-0.12547308 -0.039065864 -0.01995097 -0.16585177 -0.09524225 0.15625809 -0.0008870141 -0.13672307
-0.14241411 0.007559115 0.059844643 0.0149613675 0.19339004 -0.053660013 0.030106843 0.16172503
0.17930669 -0.08793809 -0.16759233 0.05602285 0.12050162 0.15610822 -0.14304167 0.049926892
0.1483971 -0.1473192 -0.08144298 -0.01940157 0.06051377 0.006276391 -0.020641275 0.09908998
0.14355522 0.07504463 -0.08326784 0.1049228 0.15659635 0.013011971 0.061271194 -0.1519381
-0.07577139 -0.18459585 -0.11014422 -0.081437185 0.16506381 0.11213207 0.18897973 -0.15451492
0.041649327 0.13354297 0.0014683341 -0.11206875 0.15288007 -0.13837093 0.124264054 -0.13424756
0.17145611 0.080585785 0.0637 0.02088211 -0.053647146 -0.15659247 0.058850583 -0.071097374
0.0030436662 -0.13468538 -0.02457835 -0.10244195 -0.13831745 -0.07508032 0.060534596 0.05122851
-0.06936405 -0.091079816 0.051112954 -0.17119558 -0.115567714 0.08640056 -0.06421455 -0.08194846
-0.0007085594 -0.029435407 -0.1449618 -0.07750012 0.0055604707 -0.031311147 0.019669633 -0.157958
0.04626482 0.04785481 0.08672827 -0.16592692 -0.04414492 0.18160762 0.15225641 -0.019464882
0.0942192 -0.16693778 -0.0030859935 -0.14643347 -0.0876824 -0.16269104 -0.012939203 0.12626755
-0.18853934 0.012921241 -0.1051611 0.109541245 -0.09178673 -0.011126705 0.1048219 0.12942816
0.07535728 -0.10583089 -0.048880454 -0.16640383 -0.14108315 0.0662979 0.05534788 -0.036325574
00000000: 047c 00be 8703 20bd 3770 a3bc 0cd5 29be
00000010: 5e0e c3bd 1f02 203e 8286 68ba 2201 0cbe
00000020: 01d5 11be 74b2 f73b a81f 753d 8620 753c
00000030: 0a08 463e 9aca 5bbd a0a2 f63c 3f9b 253e
00000040: 2c9c 373e e318 b4bd 539d 2bbe 3778 653d
00000050: 8ec9 f63d d5da 1f3e 8479 12be 2480 4c3d
00000060: 69f5 173e d8da 16be 94cb a6bd 0bf0 9ebc
00000070: 49dd 773d 2faa cd3b e417 a9bc b0ef ca3d
00000080: 2400 133e 00b1 993d 5488 aabd c4e1 d63d
00000090: cb5a 203e 2930 553c 81f7 7a3d a995 1bbe
000000a0: 082e 9bbd b206 3dbe 4b93 e1bd 8ac8 a6bd
000000b0: 7d06 293e 80a5 e53d e783 413e 2939 1ebe
000000c0: 7c98 2a3d 7dbf 083e 1e75 c03a 4d84 e5bd
000000d0: 988c 1c3e 1cb1 0dbe 277e fe3d 3178 09be
000000e0: 3192 2f3e 290a a53d 2575 823d f510 ab3c
000000f0: 1cbd 5bbd c759 20be 4f0d 713d 809b 91bd
00000100: 3f78 473b f7ea 09be 8958 c9bc 16cd d1bd
00000110: 17a3 0dbe b6c3 99bd 20f3 773d fcd4 513d
00000120: bd0e 8ebd 0e88 babd d15b 513d e54d 2fbe
00000130: c4ae ecbd c7f2 b03d eb82 83bd 98d4 a7bd
00000140: 9ebe 39ba 8622 f1bc de70 14be 62b8 9ebd
00000150: 9c34 b63b 1e40 00bd 3622 a13c bebf 21be
00000160: 2e80 3d3d 6803 443d 979e b13d bfe8 29be
00000170: 4ed1 34bd 59f7 393e 1be9 1b3e d174 9fbc
00000180: fff5 c03d bdf1 2abe 613e 4abb a8f2 15be
00000190: d592 b3bd 7b98 26be f3fe 53bc 484c 013e
000001a0: 7510 41be 9db3 533c b45e d7bd 2957 e03d
000001b0: aefa bbbd c94c 36bc ddac d63d d188 043e
000001c0: eb54 9a3d debd d8bd df36 48bd c465 2abe
000001d0: 1a78 10be 32c7 873d 75b4 623d 20ca 14bd

distribution_projector.weight f4 [32, 30]
0.047159668 -0.16189471 -0.0990321 -0.034407903 -0.11506751 0.046655286 0.11537131 0.0733325
0.053583667 -0.09502993 0.07595643 -0.092950486 0.15264012 -0.11290427 0.021782242 0.15822259
-0.13843717 0.004983147 0.0068730684 -0.16239755 0.06674318 -0.18522505 0.00594493 0.16751766
0.069812134 -0.040466916 0.06825613 0.009780654 0.021342311 -0.041407287 -0.16696225 0.12348756
-0.15164797 -0.047819924 -0.17793608 -0.14927502 -0.07068445 0.068269044 0.13736485 -0.0253002
-0.023443794 -0.15100637 0.12760071 0.07201363 0.108343996 -0.009763466 0.18618768 -0.0021237864
-0.08356475 0.07912313 -0.10541709 -0.10129178 0.028064989 0.04108011 0.11131503 0.07954695
-0.16914226 -6.922544e-05 0.03122766 -0.12437299 0.029733408 -0.045639187 0.14545703 -0.14301014
-0.16108644 0.037928954 0.014705709 0.11429991 -0.04081743 0.11126989 -0.0057792137 0.090371594
0.069657326 -0.13748579 0.081221424 -0.08517344 0.04410932 -0.17065585 0.009171628 0.17073874
-0.18635766 -0.15883611 0.18567438 -0.054341905 0.11864245 -0.064759225 0.059049472 0.108416215
0.02724923 0.11808291 -0.11321629 0.07109345 0.05443925 0.1322896 -0.122845605 0.099342056
0.09742976 0.10711406 -0.013685539 0.0059021194 -0.14663573 -0.14417876 0.13366792 0.100921735
-0.04893482 -0.05725635 0.16543148 -0.17288592 0.08215801 0.16053033 -0.09721228 0.18040586
-0.13151656 0.062623926 0.16637278 -0.06338386 0.15277193 0.08585905 -0.03309378 0.029734813
-0.030311879 0.074805446 -0.053093817 0.052185345 -0.18027948 0.047250163 0.06931587 -0.17355338
0.10817411 -0.08426514 0.051584177 -0.07045435 -0.03395773 -0.1152826 0.1834794 0.116962224
-0.06498855 -0.046569336 0.18046734 0.14905775 -0.17354025 -0.17414449 -0.0808759 0.10006399
0.14446123 -0.055790965 -0.14378634 0.13699096 -0.07460235 -0.17611584 0.112370506 0.05907562
0.12840186 0.0735881 -0.14135279 -0.12698635 0.029406972 0.15223503 -0.065366164 -0.024017224
0.0661186 -0.18694668 0.10326622 0.10241753 0.016625868 -0.00825102 -0.059381656 0.16178358
-0.103879824 0.04484709 0.12200407 0.02100739 0.08448431 0.04004998 0.0684215 -0.037765514
-0.14264779 0.01217001 0.13335605 -0.13455944 -0.08538647 0.09867145 0.10892088 0.1866054
0.029816471 0.06934365 -0.07698375 -0.17555664 -0.03215604 0.06867572 -0.027498052 -0.057846773
-0.052446794 0.087541714 -0.035016503 -0.15847792 0.086610034 0.14541999 -0.028544545 0.15663645
0.1721967 -0.1593312 -0.09851343 -0.06580968 0.15203966 0.023589524 0.032970786 0.007980277
0.087379456 0.15824246 -0.098102234 0.046573047 0.043876242 0.13754937 -0.14268975 0.114702456
0.009961506 -0.015951863 0.14712246 0.058257017 -0.11830161 0.14584778 0.030995397 -0.08294547
0.17121665 0.009432029 -0.12672503 0.1265081 0.05762044 -0.1456822 -0.08845288 -0.13917522
-0.10848654 0.060680665 0.06672191 0.15390664 -0.12964834 -0.09666904 -0.023744918 -0.09165495
0.12583011 0.08331467 -0.16186625 -0.1082149 0.095182404 0.13032755 -0.05948932 0.090710975
0.08334571 -0.020658365 0.06387089 -0.04662868 0.1495556 -0.0368348 -0.005450541 0.17727256
00000000: 7f2a 413d bac7 25be 57d1 cabd 4def 0cbd
00000010: 84a8 ebbd 9d19 3f3d cb47 ec3d 5a2f 963d
00000020: 8c7a 5b3d 0d9f c2bd 0b8f 9b3d d35c bebd
00000030: b14d 1c3e 5b3a e7bd ac70 b23c 1a05 223e
00000040: 79c2 0dbe ab49 a33b 7a37 e13b 8b4b 26be
00000050: a6b0 883d a3ab 3dbe b0cd c23b c089 2b3e
00000060: aaf9 8e3d a3c0 25bd dfc9 8b3d 093f 203c
00000070: 12d6 ae3c b09a 29bd 27f8 2abe 0ce7 fc3d
00000080: 9b49 1bbe d3de 43bd e034 36be 8ddb 18be
00000090: 02c3 90bd a4d0 8b3d 5fa9 0c3e 5d42 cfbc
000000a0: 330d c0bc 6aa1 1abe c3a9 023e e27b 933d
000000b0: 75e3 dd3d f2f6 1fbc fca7 3e3e 392f 0bbb
000000c0: ff23 abbd 4f0b a23d eae4 d7bd 1172 cfbd
000000d0: 8ce8 e53c 9e43 283d 22f9 e33d 83e9 a23d
000000e0: a133 2dbe 202d 91b8 26d1 ff3c 44b7 febd
000000f0: 7a93 f33c 28f0 3abd b0f2 143e 4071 12be
00000100: d8f3 24be 645b 1b3d 37f0 703c 1216 ea3d
00000110: 2d30 27bd 78e1 e33d 8f5f bdbb be14 b93d
00000120: 80a8 8e3d 13c9 0cbe 6b57 a63d 6a6f aebd
00000130: f9ab 343d 68c0 2ebe 9944 163c 23d6 2e3e
00000140: 8bd4 3ebe efa5 22be 6d21 3e3e 9e95 5ebd
00000150: d0fa f23d 7ca0 84bd dcdd 713d 5209 de3d
00000160: c739 df3c 74d5 f13d f1dd e7bd 7199 913d
00000170: b1fb 5e3d ed76 073e 7a96 fbbd d973 cb3d
00000180: 4189 c73d 9e5e db3d 5039 60bc 9166 c13b
00000190: ad27 16be 99a3 13be 3ee0 083e 0eb0 ce3d
000001a0: e16f 48bd a285 6abd df66 293e 0209 31be
000001b0: 7542 a83d 1062 243e 3b17 c7bd 50bc 383e
000001c0: 47ac 06be f940 803d a05d 2a3e 66cf 81bd
000001d0: 3f70 1c3e dfd6 af3d 588d 07bd 6c96 f33c
000001e0: 9e50 f8bc 9933 993d e778 59bd 4dc0 553d
000001f0: 2f9b 38be 6389 413d 7bf5 8d3d fab7 31be
00000200: 638a dd3d 3493 acbd ee49 533d 5f4a 90bd
00000210: 4317 0bbd 4919 ecbd 06e2 3b3e e489 ef3d
00000220: b818 85bd 7dbf 3ebd 6ecc 383e 98a2 183e
00000230: 89b4 31be ef52 32be 44a2 a5bd 59ee cc3d
00000240: a5ed 133e 1185 64bd ba3c 13be 5c47 0c3e
00000250: 1ec9 98bd b657 34be 8222 e63d 47f9 713d
00000260: c77b 033e 5cb5 963d c9be 10be b608 02be
00000270: e4e6 f03c 80e3 1b3e b2de 85bd c5bf c4bc
00000280: 3069 873d f36e 3fbe 3d7d d33d 48c0 d13d
00000290: f932 883c 492f 07bc 2e3a 73bd 98aa 253e
000002a0: f2be d4bd 95b1 373d 45dd f93d b117 ac3c
000002b0: 1c06 ad3d 730b 243d 9220 8c3d 03b0 1abd
000002c0: 4312 12be b964 473c 7d8e 083e f3c9 09be
000002d0: 1adf aebd 4214 ca3d e911 df3d 7c15 3f3e
000002e0: ac41 f43c 0b04 8e3d a8a9 9dbd 1fc5 33be
000002f0: 0db6 03bd dba5 8c3d 9843 e1bc bdf0 6cbd
00000300: 73d2 56bd 1249 b33d 776d 0fbd 0948 22be
00000310: 9a60 b13d fae8 143e 40d6 e9bc 4e65 203e
00000320: 5554 303e b827 23be 69c1 c9bd 3ac7 86bd
00000330: 49b0 1b3e d13e c13c 600c 073d b5bf 023c
00000340: 00f4 b23d 500a 223e d3e9 c8bd 61c3 3e3d
00000350: 93b7 333d bed9 0c3e 431d 12be 1fe9 ea3d
00000360: 9635 233c 7bad 82bc 45a7 163e e99e 6e3d
00000370: 1d48 f2bd 1f59 153e 0fea fd3c 51df a9bd
00000380: 6b53 2f3e cc88 1a3c 35c4 01be 578b 013e
00000390: 6903 6c3d b72d 15be c926 b5bd f383 0ebe
000003a0: 312e debd 4a8c 783d 7fa5 883d b499 1d3e
000003b0: 89c2 04be 6bfa c5bd b484 c2bc 97b5 bbbd
000003c0: 9cd9 003e e2a0 aa3d 44c0 25be c69f ddbd
000003d0: feee c23d 9674 053e 13ab 73bd adc6 b93d
000003e0: 28b1 aa3d bb3b a9bc bece 823d b7fd 3ebd
000003f0: 1a25 193e 16e0 16bd 749a b2bb f086 353e

distribution_projector.bias f4 [32]
0.040595897 0.07042447 -0.13801633 -0.08269759 0.035578214 0.13700849 0.07082739 -0.017712986
-0.07585344 0.14592424 -0.04185345 -0.096326955 0.17304653 0.15902759 0.13286127 -0.16861223
-0.081882656 -0.1744149 0.02865255 0.14833471 0.019709747 0.1417891 -0.03897746 -0.07340794
-0.049797118 -0.015391302 0.1364143 -0.1640413 0.13603203 -0.096849225 -0.03534577 0.03256893
00000000: e247 263d b43a 903d 2754 0dbe 5b5d a9bd
00000010: 76ba 113d f44b 0c3e f30d 913d d31a 91bc
00000020: 0c59 9bbd 2a6d 153e 866e 2bbd 1147 c5bd
00000030: 1c33 313e 21d8 223e c90c 083e afa8 2cbe
00000040: 18b2 a7bd d299 32be c1b8 ea3c 0ee5 173e
00000050: 5676 a13c 2931 113e d4a6 1fbd e756 96bd
00000060: 10f8 4bbd cd2b 7cbc 31b0 0b3e 71fa 27be
00000070: fb4b 0b3e e358 c6bd bac6 10bd 0067 053d

exp_avg f4 [5, 4]
0.00016124583 0.00039269074 3.4847708e-05 -0.00014660452 0.00051855174 0.0006630727 -0.00033711107 -0.00024834194
0.0 0.0 0.0 0.0 0.0 0.0 0.0 0.0
0.0 0.0 0.0 0.0
00000000: 1914 2939 0fe2 cd39 7129 1238 dab9 19b9
00000010: 6bef 073a 0ed2 2d3a 48be b0b9 e433 82b9
00000020: 0000 0000 0000 0000 0000 0000 0000 0000
00000030: 0000 0000 0000 0000 0000 0000 0000 0000
00000040: 0000 0000 0000 0000 0000 0000 0000 0000

exp_avg_sq f4 [5, 4]
7.986327e-09 1.8149084e-08 2.549947e-08 8.422094e-09 8.108785e-09 1.2001483e-08 3.1496077e-09 2.1355169e-09
0.0 0.0 0.0 0.0 0.0 0.0 0.0 0.0
0.0 0.0 0.0 0.0
00000000: 3d34 0932 42e6 9b32 ed09 db32 c3b0 1032
00000010: d04e 0b32 152f 4e32 7c70 5831 69c0 1231
00000020: 0000 0000 0000 0000 0000 0000 0000 0000
00000030: 0000 0000 0000 0000 0000 0000 0000 0000
00000040: 0000 0000 0000 0000 0000 0000 0000 0000
