results/models/best_deepar_model_v5.ckpt (torch, 198975 bytes, 33 tensors)

embeddings.embeddings.series_id.weight f4 [5, 4]
0	0xbf3c0abf	-0.734539
1	0xbf1d06b7	-0.6133837
2	0xbfb4254a	-1.407388
3	0x3e42955b	0.19002287
4	0x3e8d7438	0.2762773
5	0x3f8d0230	1.1016293
6	0x3fc1ba7a	1.5135033
7	0x3f1f953b	0.6233708
8	0xbf21797c	-0.63075995
9	0x3cd02b03	0.025411135
10	0x3ddcd150	0.10782111
11	0xbfb26c34	-1.3939271
12	0x3e93fd08	0.28903985
13	0xbf4673cf	-0.7752046
14	0x3d078072	0.03308148
15	0xbd4e40b7	-0.050354686
16	0x3f754592	0.9580928
17	0xc0295ce1	-2.6462939
18	0x40266419	2.5998595
19	0x3f740996	0.95327127

rnn.weight_ih_l0 f4 [120, 14]
0	0x3d3b98c2	0.045799978
1	0x3d93cfb9	0.07217354
2	0xbb5c26e5	-0.003359252
3	0xbaeb9ce8	-0.0017975839
4	0x3e00b8d9	0.12570514
5	0xbd3b02c9	-0.045656953
6	0xbd3f6342	-0.04672552
7	0x3dc2c81a	0.095108226
8	0x3e5ff859	0.21872081
9	0x3c6de8dd	0.014520851
10	0x3dd73663	0.1050842
11	0xbdc131a1	-0.09433294
12	0xbc680c87	-0.014163143
13	0x3df2eece	0.11861955
14	0x3bada446	0.005299124
15	0xbdfd5bd1	-0.12371028
16	0xbd98a4f5	-0.07453338
17	0xbe006c1f	-0.12541245
18	0x3d27974c	0.040915772
19	0xbe122d1c	-0.1427502
20	0x3d66650c	0.05624871
21	0x3e5f927c	0.21833223
22	0xbce5f4f4	-0.028070904
23	0x3e8c2752	0.2737375
24	0xbd00422e	-0.031313114
25	0xbd1df23d	-0.038561095
26	0xbbb34d76	-0.0054718805
27	0xbded410b	-0.115846716
28	0x3db80450	0.089851975
29	0x3d40b033	0.047043037
30	0x3d1f3012	0.038864203
31	0x3dc929c4	0.09822419
32	0xbc91018d	-0.017700935
33	0x3e080f58	0.13287103
34	0x3e4d5e3d	0.2005548
35	0x3ca065c1	0.01957977
36	0xbcc38069	-0.023864942
37	0x3e838d57	0.2569377
38	0x3e2076c1	0.15670301
39	0xbdc0530a	-0.093908384
40	0x3d8b7689	0.06809718
41	0x3de85066	0.1134346
42	0xbd099b37	-0.03359529
43	0x3c80b138	0.015709504
44	0x3c61ce33	0.013782072
45	0xbdab21cc	-0.083560556
46	0xbd92a112	-0.07159628
47	0xbd71eca3	-0.059063565
48	0xbe1cf69a	-0.15328446
49	0xbcd67779	-0.026180016
50	0xbc50bc47	-0.012740201
51	0x3b2829e6	0.002565974
52	0x3d4c8220	0.049928784
53	0xbe05849f	-0.13038872
54	0xbdc914d8	-0.09818429
55	0xbbeff9a7	-0.007323462
56	0x3d95dc50	0.07317412
57	0x3e107e85	0.14110763
58	0x3e007037	0.12542807
59	0x3e1108de	0.14163539
60	0x3cd173fe	0.025568005
61	0xbb82ed55	-0.0039955773
62	0xbe03b0a6	-0.12860355
63	0xbe052f47	-0.13006316
64	0x3d1b838d	0.037967253
65	0x3dd52bde	0.104087576
66	0x3cfc25ec	0.030779801
67	0x3d9c10d3	0.076203965
68	0xbcd15793	-0.025554454
69	0x3e124955	0.14285786
70	0x3da7483b	0.08168074
71	0xbd78fbcc	-0.060787007
72	0xbc4bfa43	-0.012449804
73	0xbca71c23	-0.020399159
74	0xbe1e412a	-0.15454546
75	0xbba7ddea	-0.0051228898
76	0x3e4ffb3a	0.20310679
77	0xbd19a308	-0.037508994
78	0x3cbe56be	0.023234721
79	0xbdf81c01	-0.12114716
80	0xbd5ea495	-0.054356176
81	0xbd49f47e	-0.04930543
82	0x3e141d83	0.14464383
83	0x3d656db1	0.056012813
84	0xbd3eae62	-0.046553023
85	0xbcdbed34	-0.026846506
86	0xbded15b3	-0.115764044
87	0x3af074a7	0.0018345312
88	0xbd752071	-0.05984539
89	0xbc82657b	-0.01591753
90	0xbe162360	-0.14661932
91	0xbdb11e50	-0.0864836
92	0x3d4f89d6	0.05066856
93	0x3e8debe5	0.27719036
94	0xbdd55f53	-0.10418572
95	0xbb1579fa	-0.00228083
96	0x3de657bd	0.112472035
97	0xbcbc9cb9	-0.02302395
98	0x3e37b801	0.17941286
99	0x3df39c81	0.11895085
100	0xbdc39f34	-0.0955185
101	0x3ddcee04	0.107875854
102	0x3e5e65ab	0.21718471
103	0x3c5fb80b	0.013654719
104	0xbd128bdb	-0.035777908
105	0x3db7bc60	0.089714766
106	0x3d4e189d	0.05031644
107	0x3deb8311	0.11499608
108	0xbe9f0c96	-0.3106429
109	0xbdce427d	-0.100712754
110	0xbebfbb21	-0.37447456
111	0x3d2bd709	0.04195312
112	0xbe261d75	-0.16222174
113	0xbe3d0b7c	-0.18461412
114	0xbd20a8a6	-0.039223336
115	0x3dd7e18c	0.105410665
116	0x3d268186	0.040650867
117	0x3cbffd06	0.02343608
118	0xbe2aab53	-0.16666918
119	0x3e1f14c3	0.15535264
120	0xbc9ee011	-0.019393953
121	0x3deef3d3	0.116675995
122	0xbe3e89d1	-0.1860726
123	0x3ddf6556	0.10908
124	0x3c1e9027	0.009677923
125	0xbd989e78	-0.074521005
126	0x3e2086bf	0.15676402
127	0x3cd0fc57	0.02551095
128	0x3e18229c	0.14856952
129	0x3e73b826	0.23800716
130	0x3d34d203	0.044145595
131	0x3d042987	0.032266166
132	0xbdad1255	-0.08450762
133	0x3e355eb5	0.17711909
134	0xbe14440a	-0.1447908
135	0xbe2c6cfd	-0.1683845
136	0xbe36c724	-0.17849404
137	0xbe4105f5	-0.18849929
138	0xbd44728e	-0.04796081
139	0xbc90f54e	-0.017695095
140	0x3e575c97	0.21031414
141	0x3d173cd0	0.03692323
142	0xbe1ab827	-0.15109311
143	0x3e5c96d9	0.21541919
144	0x3d934781	0.07191373
145	0xbd2d9d77	-0.0423865
146	0xbd81e0d6	-0.06341712
147	0x3da264af	0.0792936
148	0x3e1c2967	0.15250169
149	0xbcf68bc6	-0.030095946
150	0x3d110bf7	0.0354118
151	0xbe2f6441	-0.17128088
152	0xbd8837d6	-0.06651275
153	0x3dc43f14	0.09582344
154	0x3b46c4cb	0.00303297
155	0xbd212002	-0.039337166
156	0xbd9b7261	-0.075901754
157	0xbca67e91	-0.020324023
158	0xbe351c07	-0.17686473
159	0x3d7bafc2	0.061446913
160	0x3dc7b3cf	0.09751093
161	0x3d0a7452	0.033802338
162	0x3d50b6cb	0.050955575
163	0x3deba57f	0.11506175
164	0x3d295cf3	0.04134841
165	0x3e0bcd8a	0.13652626
166	0x3e86db84	0.26339352
167	0x3d0aca02	0.033884056
168	0x3e3088e7	0.17239724
169	0x3e25c718	0.1618923
170	0x3d900ac6	0.07033305
171	0x3e24d93e	0.16098496
172	0x3cc47593	0.023981845
173	0x3e0b97c0	0.13632107
174	0xbe80fa50	-0.25190973
175	0xbd074e3a	-0.033033587
176	0xbdee0d27	-0.11623602
177	0x3dfb684d	0.12275753
178	0x3e3b2b4a	0.18278232
179	0x3da7c1ac	0.08191237
180	0x3edec8f6	0.43512696
181	0xbc9f816b	-0.019470891
182	0xbe2938a2	-0.1652551
183	0x3d92a7ed	0.071609356
184	0xbbb6b7ed	-0.005576125
185	0xbd802f78	-0.06259054
186	0xbe114fe8	-0.14190638
187	0xb9977faa	-0.00028896081
188	0x3e558fc8	0.2085563
189	0x3c58cbca	0.013232181
190	0xbd9c5dd3	-0.07635083
191	0x3dce865e	0.10084222
192	0xbdf8a4fe	-0.12140845
193	0x3cd8e3be	0.026475783
194	0xbdaf3bbd	-0.08556316
195	0xbe1356ca	-0.14388576
196	0x3e4fb953	0.2028554
197	0xbc3437aa	-0.0109995995
198	0x3d09e9bb	0.03367017
199	0x3dc9c111	0.098512776
200	0x3dc33a47	0.095326
201	0x3c87857b	0.01654314
202	0xbe964311	-0.29348043
203	0xbd5ca467	-0.053867724
204	0x3cf6cffd	0.030128473
205	0x3c247cb7	0.0100395
206	0xbc80b149	-0.015709536
207	0xbca189bd	-0.019718999
208	0x3df49464	0.11942366
209	0xbdf718e0	-0.120652914
210	0xbc4ee292	-0.012627261
211	0xbdba50de	-0.090974554
212	0xbcd0bf23	-0.025481766
213	0xbe55c753	-0.20876817
214	0xbe014694	-0.1262458
215	0xbce1bfce	-0.02755728
216	0x3dfc8b76	0.123312876
217	0x3e0a4e95	0.13506539
218	0x3d0c9e96	0.034330927
219	0xbd2a58d0	-0.041588604
220	0x3b647e4f	0.0034865325
221	0x3d7d3419	0.061817262
222	0x3e2c263c	0.1681146
223	0x3db39775	0.087691225
224	0x3e272e14	0.16326171
225	0xbcf471de	-0.029839452
226	0x3d585961	0.052819613
227	0x3db24835	0.08705179
228	0x3cffee25	0.031241486
229	0xbda708e5	-0.08155993
230	0x3d23a4bc	0.039952025
231	0x3c669e9a	0.0140758995
232	0x3d05d6c6	0.032675527
233	0x3e9b82f8	0.3037336
234	0xbe89df3a	-0.2692812
235	0xbdbc5c25	-0.09197263
236	0x3e1e29ff	0.15445708
237	0x3d50d242	0.050981767
238	0xbd858de9	-0.06521208
239	0xbd2efcdf	-0.042721625
240	0xbdc62567	-0.09675103
241	0x3dc6bb1d	0.09703658
242	0x3dbbd933	0.09172287
243	0xbda3ac14	-0.07991806
244	0x3e1834c3	0.14863877
245	0x3d1d9665	0.038473506
246	0x3d5af663	0.05345763
247	0xbd92d767	-0.07169991
248	0xbc5efd33	-0.013610172
249	0xbda2137b	-0.07913872
250	0x3dd131d1	0.1021458
251	0x3d9afb47	0.075674586
252	0x3e276378	0.16346538
253	0xbcd63574	-0.026148535
254	0xbd8ccb24	-0.068746835
255	0xbd6fc92d	-0.058541466

rnn.weight_hh_l0 f4 [120, 30]
0	0x3cd669bd	0.026173467
1	0xbcdf39b2	-0.027249191
2	0xbe4be632	-0.19912031
3	0x3dcb186d	0.09916768
4	0x3d89c50f	0.06727039
5	0xbdab8b10	-0.083761334
6	0x3dde0044	0.108398944
7	0xbdf957b4	-0.12174931
8	0x3d59809d	0.05310117
9	0x3cfb7304	0.030694492
10	0x3dd5ba02	0.10435869
11	0xbc8a2d8b	-0.01686742
12	0xbc875a1b	-0.016522458
13	0x3d054ac3	0.032542
14	0x3e140c6b	0.14457862
15	0xbce13ed6	-0.027495783
16	0xbdef2c81	-0.1167841
17	0xbdf84d57	-0.121241264
18	0xbde7ec3e	-0.113243565
19	0x3de8d9be	0.11369656
20	0xbde84e8a	-0.11343105
21	0xbe4a7e8c	-0.19774836
22	0xbc842fb8	-0.016136035
23	0xbd2077f6	-0.039176904
24	0xbd23103a	-0.039810397
25	0xbe0eb5c3	-0.13936524
26	0xbde83051	-0.113373406
27	0xbe7c80cd	-0.24658509
28	0x3b2ef516	0.0026696376
29	0x3e3f7ce9	0.18699993
30	0xbd352d94	-0.04423292
31	0x3e3daa24	0.18521935
32	0xbd1a3d48	-0.0376561
33	0xbdf0dc0c	-0.117607206
34	0x3ecdfe4e	0.40233082
35	0xbe8c28ae	-0.27374786
36	0xbc23d581	-0.009999634
37	0x3e5524bf	0.20814799
38	0xbd86b60b	-0.06577691
39	0xbe3fef4b	-0.18743627
40	0x3dfa018c	0.12207326
41	0x3dd54ab3	0.10414638
42	0x3e4eb555	0.2018636
43	0xbdc67576	-0.09690373
44	0xbe6168ea	-0.22012678
45	0x3ec4e207	0.38453695
46	0xbe04ac4f	-0.12956356
47	0xbc3c7a2c	-0.011503737
48	0xbeae4c12	-0.34042412
49	0xbe2028bf	-0.15640543
50	0x3e4bea5c	0.1991362
51	0xbe3ee109	-0.18640532
52	0xbbd3f6d7	-0.0064686346
53	0xbe7957e6	-0.24349937
54	0x3c35b39d	0.011090186
55	0xbe2e5a91	-0.17026736
56	0xbd99081f	-0.07472252
57	0x3e660507	0.22462855
58	0x3e1cab7f	0.15299796
59	0x3de9710e	0.113985166
60	0xbd94361e	-0.072368845
61	0x3ba78894	0.005112717
62	0xbdf93e22	-0.12170054
63	0x3e2978da	0.16550007
64	0x3d8988f7	0.06715577
65	0x3d2c9cc7	0.042141702
66	0xbe5a3791	-0.2131026
67	0xbe77c2b7	-0.24195372
68	0x3dcfee54	0.10152879
69	0x3dc0e440	0.09418535
70	0x3d7e40b1	0.062073413
71	0xbd933ab8	-0.07188934
72	0xbddcdcc1	-0.10784293
73	0xbdb1adf4	-0.08675757
74	0x3e010be6	0.12602195
75	0xbdc4211c	-0.095766276
76	0x3d34fa7d	0.044184197
77	0x3d0e853d	0.034795035
78	0x3d6e4138	0.058167666
79	0xbd62945d	-0.05531727
80	0xbe53741c	-0.20649761
81	0xbe0ea0c7	-0.13928519
82	0x3db4ac9c	0.08821985
83	0xbc94da7b	-0.018170586
84	0x3c975d91	0.018477233
85	0xbdcc54d8	-0.0997712
86	0x3c346ffb	0.011013026
87	0x3e242d94	0.16033012
88	0x3d464c61	0.048412684
89	0xbe11e8fd	-0.14249034
90	0x3e1c2287	0.15247546
91	0x3e6467fc	0.22305292
92	0xbd8101e9	-0.062991925
93	0x3e61c8da	0.22049275
94	0x3ddb7613	0.1071588
95	0xbb05cb26	-0.0020415275
96	0xbd5bad55	-0.0536321
97	0x3e22b6bd	0.15890022
98	0x3e437ffb	0.1909179
99	0xbd204f5a	-0.039138176
100	0x3d91a2d8	0.07111138
101	0xbe4dc185	-0.20093353
102	0xbdd6f452	-0.10495819
103	0x3e32294b	0.17398565
104	0xbc8ab908	-0.016933933
105	0x3e48d05f	0.19610737
106	0x3e500909	0.20315947
107	0xbe6f315d	-0.23358674
108	0xbe754549	-0.23952211
109	0xbd43dd6d	-0.04781859
110	0xbddfad66	-0.10921745
111	0xbe24f5e5	-0.16109426
112	0x3e277be2	0.16355851
113	0xbe384642	-0.17995551
114	0x3dc6c043	0.0970464
115	0x3d978610	0.07398617
116	0xbdce80c9	-0.100831576
117	0x3e496329	0.19666733
118	0x3e801b51	0.2502084
119	0x3e825745	0.25457206
120	0xbda82c09	-0.08211524
121	0x3da248b6	0.07924025
122	0xbe2fb736	-0.17159733
123	0x3d64a5a6	0.055822037
124	0x3e71209d	0.23547597
125	0xbe4b075d	-0.19827028
126	0xbdcc8183	-0.0998564
127	0x3e551c50	0.20811582
128	0x3cf66fa2	0.030082528
129	0xbd759f89	-0.059966598
130	0xbc061e6c	-0.008185964
131	0xbe11f714	-0.14254409
132	0x3af3ca64	0.0018599746
133	0xbdb5263d	-0.08845184
134	0xbea8858b	-0.32914385
135	0x3d5134c2	0.051075704
136	0xbe71c9f2	-0.23612192
137	0xbcb03aa4	-0.021512337
138	0xbe99424f	-0.29933402
139	0x3d1e95ed	0.0387172
140	0xbe32e772	-0.17471102
141	0xbe949f0b	-0.2902759
142	0x3da82c04	0.0821152
143	0xbe1abd65	-0.15111311
144	0x3b18ed64	0.0023334855
145	0xbe2d20ec	-0.1690709
146	0xbe187b0f	-0.14890693
147	0xbe0cb867	-0.13742219
148	0x3d9a622a	0.075382546
149	0x3e8d7d46	0.2763464
150	0xbdf3f4fa	-0.1191196
151	0x3e31eae7	0.17374764
152	0x3e06806a	0.13134924
153	0x3e02ba35	0.12766345
154	0xbe33a1d3	-0.175422
155	0x3e03cb2e	0.12870476
156	0xbdf88979	-0.12135596
157	0xbe4db0aa	-0.20086923
158	0x3ce12c47	0.027486933
159	0xbe38ebf7	-0.18058763
160	0x3e375499	0.17903365
161	0x3e0d2ac6	0.13785848
162	0x3e594ef8	0.2122153
163	0x3cdac2c5	0.026704201
164	0xbd177253	-0.036974262
165	0xbe141766	-0.14462051
166	0xbd860d1a	-0.06545468
167	0xbd810612	-0.06299986
168	0x3d6e4e77	0.0581803
169	0x3e29b119	0.16571464
170	0xbdaaa105	-0.08331493
171	0xbdda224a	-0.10651071
172	0xbe03332c	-0.1281249
173	0x3dca2757	0.09870785
174	0x3c990ee3	0.018683856
175	0xbde097fe	-0.1096649
176	0xbdffe526	-0.124948785
177	0xbe2d9feb	-0.16955535
178	0xbe256fdc	-0.16155952
179	0x3e16193e	0.14658067
180	0xbe2aa968	-0.16666186
181	0x3c238ceb	0.009982328
182	0xbe6eb29b	-0.2331032
183	0x3dc6ca79	0.09706587
184	0xbcfb7c99	-0.030699061
185	0x3c22e702	0.009942772
186	0x3de88850	0.113541245
187	0x3d5e7f4a	0.05432061
188	0x3e1f9c86	0.15587053
189	0x3e283c82	0.16429332
190	0x3e1b7a8e	0.1518347
191	0x3d97c900	0.074113846
192	0x3dd53c9e	0.104119524
193	0x3d7e9aea	0.062159456
194	0xbd46ce66	-0.04853668
195	0xbd715a3f	-0.058923956
196	0xbdeef87c	-0.116684884
197	0x3bb94c5d	0.005654855
198	0xbe7ffcb0	-0.24998736
199	0x3e04aa5f	0.12955616
200	0xbdfc3ee0	-0.1231668
201	0x3baf9445	0.0053582513
202	0x3e69b89b	0.22824328
203	0x3d9e1d83	0.07720473
204	0xbd0d4cb1	-0.034496967
205	0xbe324101	-0.1740761
206	0xbdea9fff	-0.11456298
207	0xbe0fa69e	-0.14028403
208	0x3d6e3008	0.058151275
209	0xbca4296c	-0.020039283
210	0xbdad621a	-0.08465977
211	0x3e2fee3e	0.17180726
212	0xbce6e7a2	-0.028186623
213	0x3dd4404d	0.10363827
214	0x3aeaa386	0.0017901517
215	0x3e0d7560	0.13814306
216	0x3a6d59b3	0.0009054199
217	0xbd989c67	-0.074517064
218	0xbddc927a	-0.10770126
219	0xbe5437ae	-0.20724365
220	0xbc53faa2	-0.0129381735
221	0xbdac963d	-0.08427093
222	0xbc3edbb2	-0.011649059
223	0xbd3ae42a	-0.04562775
224	0xbc959a49	-0.018262045
225	0x3dbfd058	0.0936591
226	0xbca77bcd	-0.020444775
227	0x3ddae3e6	0.106879994
228	0x3e832ebc	0.25621593
229	0xbe58da9e	-0.21177146
230	0xbb7d75c0	-0.003867492
231	0x3e877913	0.2645956
232	0xbe8470c1	-0.25867274
233	0x3d98e9d3	0.074664734
234	0xbe0ff150	-0.14056897
235	0x3dfb2ce6	0.12264423
236	0x3d61eaa3	0.055155408
237	0x3c4287a4	0.01187316
238	0xbbca8470	-0.0061803386
239	0x3d8096a2	0.06278731
240	0x3df78621	0.1208613
241	0x3e98c6cb	0.29839167
242	0x3b7a2e4f	0.0038174575
243	0xbdb7684a	-0.089554384
244	0x3eaa2868	0.33233953
245	0xbdf11185	-0.1177092
246	0xbedda42e	-0.43289322
247	0xbcafeb9c	-0.021474652
248	0xbe531ccb	-0.20616452
249	0xbe700fb6	-0.23443493
250	0x3e58b9ca	0.21164623
251	0x3e00bf19	0.12572898
252	0x3e7b9be6	0.2457119
253	0x3d990bdd	0.07472966
254	0xbeb511cb	-0.35365137
255	0x3efd3d53	0.4946085

rnn.bias_ih_l0 f4 [120]
0	0xbdb97fc7	-0.09057575
1	0x3e34dd95	0.17662652
2	0x3e2c106f	0.16803144
3	0x3ea649d3	0.32478198
4	0x3e692ddb	0.22771399
5	0x3d641342	0.05568243
6	0x3dea8f08	0.11453062
7	0xbd4c0606	-0.049810432
8	0x3f06df8a	0.52684844
9	0x3d1cca11	0.038278643
10	0xbd8136ca	-0.06309278
11	0x3e463b14	0.19358474
12	0x3dc7ddf5	0.09759132
13	0x3e11e2c4	0.1424666
14	0xbde40b98	-0.11135024
15	0x3aea96d9	0.0017897739
16	0x3cf3408f	0.02969387
17	0x3d607101	0.05479527
18	0xbdb19b4b	-0.08672198
19	0xbd1c7988	-0.03820184
20	0xbcbdd5c6	-0.023173224
21	0x3d350e9f	0.044203397
22	0x3d82bc8f	0.06383621
23	0x3d48fdbe	0.049070112
24	0x3b857f41	0.0040740077
25	0xbd518e84	-0.051161304
26	0x3de8aece	0.11361466
27	0x3dc479a2	0.09593512
28	0xbd8ff6ee	-0.0702952
29	0x3e530f32	0.20611265
30	0x3e220344	0.15821558
31	0xbe7b5c34	-0.24546891
32	0x3bf8bb0c	0.007590657
33	0xbdfdceb6	-0.123929426
34	0x3e93e09f	0.2888231
35	0xbdf92b8f	-0.12166511
36	0xbcaed34c	-0.021340989
37	0x3e17654c	0.14784735
38	0xbe974026	-0.2954113
39	0x3d9d6cdd	0.0768678
40	0x3ddb41be	0.10705899
41	0xbe331a73	-0.17490558
42	0xbd2738b8	-0.040825576
43	0xbc9da7ed	-0.019245112
44	0x3e018b92	0.12650898
45	0x3ddb21a5	0.106997766
46	0xbe7833af	-0.24238466
47	0x3d581668	0.052755743
48	0xbe3a5c2c	-0.18199223
49	0x3e206324	0.15662819
50	0xbe5d14cd	-0.21589966
51	0xbdcacb44	-0.09902051
52	0xbe5e9f71	-0.2174051
53	0x3e20f897	0.1571983
54	0x3e30a65f	0.17250966
55	0x3d12e3d7	0.035861816
56	0xbe82142d	-0.25406018
57	0xbde38f83	-0.11111357
58	0xbbfc95ad	-0.0077082724
59	0x3e24694e	0.16055796
60	0xbd6ac24d	-0.057314206
61	0x3e12963b	0.14315121
62	0xbdfd80ed	-0.12378106
63	0x3e13b3c4	0.14424044
64	0x3e143dd3	0.14476709
65	0xbe6d6d3a	-0.23186198
66	0xbe3aa08d	-0.18225308
67	0x3d9d3264	0.07675627
68	0xbdb85593	-0.09000697
69	0xbe10f07e	-0.1415424
70	0xbca51321	-0.020150723
71	0x3cd42ca2	0.025900189
72	0x3d19cef4	0.03755088
73	0x3cda4240	0.026642919
74	0xbe3896f9	-0.18026341
75	0x3d08b984	0.033380046
76	0xbda01cd6	-0.07818
77	0xbe35c1a4	-0.1774965
78	0xbe0015e6	-0.12508354
79	0xbd6495d7	-0.05580696
80	0xbdd94e1d	-0.10610602
81	0xbe1e2af7	-0.15446077
82	0xbd19d731	-0.03755874
83	0xbe685b94	-0.22691184
84	0x3e1819a7	0.14853536
85	0x3e08c18a	0.1335508
86	0xbdf590f6	-0.1199054
87	0xbd536c4d	-0.051616956
88	0x3e196479	0.14979734
89	0x3e2d976d	0.16952296
90	0x3e130362	0.14356759
91	0x3cebca0a	0.028782863
92	0xbda655c3	-0.081218265
93	0x3e6e5394	0.2327407
94	0x3e884606	0.26615924
95	0xbbe9c72b	-0.0071343384
96	0x3dd94768	0.10609323
97	0xbd68691f	-0.056740876
98	0x3ee1334f	0.43984458
99	0x3de85a82	0.11345388
100	0x3e02fd6e	0.12791988
101	0x3e3638ea	0.17795148
102	0x3e7ce967	0.24698411
103	0x3e265093	0.16241674
104	0x3de00574	0.1093854
105	0xbb8e0f63	-0.0043353303
106	0x3e134601	0.14382173
107	0x3e05e3ef	0.13075231
108	0x3e6a59a5	0.22885759
109	0x3e759ac9	0.23984827
110	0x3d15e83c	0.03659843
111	0xbc6e1821	-0.01453212
112	0x3e8881f0	0.26661634
113	0xbe30b36f	-0.17255948
114	0x3e094107	0.13403712
115	0x3e426a98	0.18985975
116	0x3e2e6043	0.17028908
117	0x3d5cf751	0.053946797
118	0x3dd9301b	0.106048785
119	0x3b683dbb	0.0035437185

rnn.bias_hh_l0 f4 [120]
0	0xbde1ae6a	-0.11019595
1	0x3e172cf8	0.14763248
2	0x3d5fe9c7	0.054666307
3	0x3dca75b5	0.09885732
4	0x3e893a49	0.2680228
5	0x3baa7393	0.005201766
6	0x3e8b3fa4	0.2719699
7	0xbd8562a8	-0.06512958
8	0x3e5b5ba4	0.21421677
9	0xbdd65b3f	-0.104666226
10	0xbdfa62d4	-0.12225881
11	0x3e4d4e5c	0.20049423
12	0x3e6babc8	0.23014748
13	0x3deb18da	0.114793494
14	0xbe08c542	-0.13356498
15	0x3e440a9f	0.19144677
16	0x3e9f703b	0.31140313
17	0x3d4dc9d7	0.050241318
18	0xbdd155df	-0.10221457
19	0x3e4e631d	0.20154996
20	0x3dcfd7dc	0.10148594
21	0x3d13d62c	0.036092922
22	0x3e1ab3e8	0.15107691
23	0xbdf32ace	-0.11873399
24	0x3e39c823	0.18142752
25	0x3d8db847	0.06919914
26	0xbd93c745	-0.07215742
27	0x3e14dc5c	0.14537185
28	0x3d6f01ce	0.05835133
29	0x3df61635	0.120159544
30	0x3e44a109	0.19202055
31	0xbe1e1111	-0.15436198
32	0x3c658e15	0.014010926
33	0x3c70b2d7	0.014691076
34	0x3e1e7a76	0.15476403
35	0x3d1a5115	0.037674982
36	0x3e557065	0.20843656
37	0x3c12db08	0.008963354
38	0xbeadbbbf	-0.339323
39	0x3e27d726	0.16390666
40	0x3deb6115	0.11493126
41	0xbe4f2047	-0.20227157
42	0xbccede8d	-0.025252605
43	0xbd0f9ed1	-0.03506357
44	0x3d06a4c5	0.03287198
45	0x3e05e34d	0.1307499
46	0x3d949ceb	0.07256492
47	0xbcbd3d7f	-0.023100613
48	0xbded96fa	-0.11601062
49	0xbcea8ccf	-0.028631596
50	0xbd93cf21	-0.07217241
51	0x3cc836ad	0.024440134
52	0xbd8b0dbc	-0.06789729
53	0x3e014176	0.12622628
54	0xbe30c3dd	-0.17262216
55	0xbdb7d737	-0.08976596
56	0xbda8d333	-0.08243408
57	0x3e49786e	0.19674847
58	0xbdc17998	-0.0944702
59	0x3e4c08d6	0.19925246
60	0x3cc30281	0.023804905
61	0x3c88d84a	0.016704697
62	0xbe20d48b	-0.15706079
63	0xbdd7281f	-0.10505699
64	0x3e8808d4	0.26569235
65	0xbe30d6a3	-0.17269377
66	0xbe6e1cdf	-0.23253201
67	0xbda958a9	-0.08268864
68	0x3c8c6d13	0.017141854
69	0x3e457b63	0.1928535
70	0xbd84bfc8	-0.06481892
71	0x3e1eabe5	0.1549526
72	0x3be0de55	0.0068624415
73	0xbe0ca756	-0.13735709
74	0xbd750c4a	-0.059826173
75	0x3dae6262	0.08514859
76	0x3d74f46e	0.05980342
77	0xbd26ea8f	-0.040751036
78	0xbcdbb797	-0.02682094
79	0xbe5381f1	-0.20655037
80	0x3e02eb2c	0.12785023
81	0x3dce4a18	0.10072726
82	0xbc1c9871	-0.009557829
83	0xbe1d621f	-0.15369461
84	0x3df8c127	0.12146216
85	0xbe3337d8	-0.17501771
86	0xbdad584d	-0.08464108
87	0x3e21ae4a	0.15789142
88	0x3e4759c6	0.1946784
89	0x3e4053e7	0.18782006
90	0xbdef2add	-0.116780974
91	0x3dc3ff77	0.095702104
92	0xbe2940ce	-0.16528627
93	0x3e8c9c5b	0.2746304
94	0x3dee27b0	0.116286635
95	0xbd34fa19	-0.044183824
96	0x3e016922	0.12637761
97	0x3e863c1f	0.26217744
98	0x3ebd5ac0	0.369833
99	0x3d2ae6ed	0.041724134
100	0x3c2077ff	0.009794234
101	0x3e8ebf86	0.27880496
102	0x3ec3a133	0.38208923
103	0x3e4221d6	0.1895822
104	0xbcbba61b	-0.022906354
105	0x3e5b2440	0.21400547
106	0x3e71ecbe	0.23625466
107	0x3e2c7799	0.16842498
108	0x3dddbe8b	0.10827359
109	0x3d3b1584	0.045674816
110	0x3c38ac06	0.011271482
111	0xbd7aef3a	-0.0612633
112	0x3e2c8118	0.1684612
113	0xbd580ec7	-0.052748468
114	0x3e04c1f9	0.1296462
115	0x3cd89789	0.026439445
116	0xbd268d8c	-0.040662333
117	0x3bbdd1bb	0.005792824
118	0x3e2821f6	0.16419205
119	0x3c7d200c	0.015449535

rnn.weight_ih_l1 f4 [120, 30]
0	0xbdc6cb25	-0.097067155
1	0x3dd7c1dd	0.10535023
2	0x3e56555f	0.20931004
3	0x3e3d53bf	0.18488978
4	0x3e1d3106	0.15350732
5	0xbd67e52f	-0.05661505
6	0xbd8ff355	-0.07028834
7	0xbd24c341	-0.04022527
8	0x3e35594c	0.17709845
9	0xbd986d11	-0.07442678
10	0xbd7750a5	-0.060379643
11	0xbe65188d	-0.22372647
12	0x3ce12139	0.027481662
13	0xbd586752	-0.05283291
14	0x3bcb0bf1	0.006196492
15	0x3bc983a2	0.006149725
16	0x3de59f62	0.112120405
17	0x3d8d14b4	0.068887144
18	0xbd577175	-0.052598435
19	0xbe11b7f6	-0.14230332
20	0xbdeeaff3	-0.116546534
21	0xbdb14b60	-0.08656955
22	0x3e713185	0.23554046
23	0xbe3f6e3f	-0.186944
24	0x3e95374f	0.2914376
25	0xbd6f20f6	-0.058381043
26	0xbcb26810	-0.021778136
27	0x3e24a2b6	0.16077694
28	0x3df64b75	0.12026111
29	0xbde69b6c	-0.11260113
30	0x3d5f16a1	0.05446494
31	0xbdaf6f96	-0.08566205
32	0x3c35b819	0.011091256
33	0xbe2963bb	-0.1654195
34	0xbe229b44	-0.15879542
35	0x3dc848fe	0.09779547
36	0xbe13f4a6	-0.14448795
37	0xbddf2371	-0.10895432
38	0xbe603e08	-0.21898663
39	0x3d88b290	0.06674683
40	0x3c940b3a	0.01807176
41	0xbdd63415	-0.104591526
42	0x3e3ef58d	0.18648358
43	0xbe08621f	-0.1331868
44	0xbd0e84fe	-0.0347948
45	0xbe33152f	-0.1748855
46	0xbceec87c	-0.029148333
47	0x3d2d2507	0.04227164
48	0x3e1d8f3b	0.1538667
49	0x3e1295fc	0.14315027
50	0x3de854a3	0.11344268
51	0x3d7d13ec	0.061786577
52	0xbcb65bbd	-0.022260541
53	0xbd29fdb6	-0.041501723
54	0x3de925a0	0.113841295
55	0xbb7058c3	-0.0036674
56	0x3c2174a3	0.0098544685
57	0xbd9c757d	-0.076395966
58	0x3dbf3e59	0.09338064
59	0xbdfa5d98	-0.12224883
60	0x3c55167c	0.013005849
61	0xbd5cf070	-0.053940237
62	0xbd76002e	-0.060058765
63	0x3d8435d5	0.0645558
64	0xbbe80b2f	-0.0070814113
65	0x3d91a789	0.07112033
66	0xbba4c19b	-0.0050279624
67	0x3dad2a69	0.08455355
68	0x3e6051ef	0.21906255
69	0x3e620c46	0.22074994
70	0x3d8d4825	0.06898526
71	0xbe3fed93	-0.18742971
72	0xbda7dd9d	-0.08196566
73	0x3e5edf12	0.21764782
74	0xbdd4e83a	-0.10395856
75	0xbe173173	-0.14764957
76	0xbe7708ef	-0.24124502
77	0xbb91a71f	-0.004444971
78	0x3df55c3e	0.119804844
79	0xbca56051	-0.020187529
80	0x3e0a0dc4	0.13481814
81	0xbe23521f	-0.15949295
82	0x3d51a999	0.05118713
83	0x3c14c182	0.009079339
84	0x3e08c750	0.13357282
85	0xbdba4ef9	-0.09097094
86	0x3d0bb94d	0.034112263
87	0xbc7918ff	-0.015203713
88	0xbe43b143	-0.19110589
89	0x3d856562	0.06513478
90	0xbc46452f	-0.012101456
91	0x3c806b80	0.01567626
92	0xbdda0602	-0.10645677
93	0x3d0660a6	0.032807015
94	0xbe2e0159	-0.16992702
95	0xbe487e73	-0.19579487
96	0x3cce2467	0.025163842
97	0xbe31e2ea	-0.17371717
98	0xbdd471bb	-0.10373255
99	0xbe1ba4bf	-0.15199564
100	0x3dc0170a	0.09379394
101	0x3ce8631f	0.028367577
102	0x3d3f3b05	0.046687145
103	0xbe057505	-0.1303292
104	0xbe05cb9a	-0.13065949
105	0xbd74cecc	-0.05976753
106	0xbd20b206	-0.039232276
107	0xbdda87e5	-0.10670451
108	0xbdee5ef1	-0.116392024
109	0x3c060713	0.008180398
110	0xbdb88367	-0.09009438
111	0x3d6f0016	0.05834969
112	0x3e1f05a6	0.15529498
113	0x3d85bf13	0.06530585
114	0x3d5af2a5	0.05345406
115	0xbc00e8aa	-0.007867971
116	0xbe5cc863	-0.21560816
117	0x3e2c41b1	0.16821934
118	0xbc178755	-0.009248574
119	0x3e5f2b9f	0.21793984
120	0xbd8ecdbf	-0.06972837
121	0xbe0d7b9a	-0.13816682
122	0x3ddb0089	0.106934614
123	0x3e2ac1be	0.1667547
124	0xbdba8012	-0.09106459
125	0xbd9c9903	-0.07646372
126	0xbcdbd147	-0.02683319
127	0xbcfeea21	-0.0311175
128	0x3d7faf2c	0.062422916
129	0x3d8f2d45	0.06991056
130	0xbe8507f8	-0.25982642
131	0x3df95492	0.12174334
132	0xbc04da3f	-0.008108675
133	0x3d753aca	0.05987052
134	0xbe41c053	-0.18921022
135	0xbcead052	-0.028663788
136	0x3df5e4f1	0.12006558
137	0xbd80bb7c	-0.0628576
138	0x3dbfc117	0.09363001
139	0x3e100f28	0.14068282
140	0xbe87e25a	-0.2653988
141	0xbdb2d27b	-0.08731552
142	0x3e29d422	0.16584828
143	0xbad8ab69	-0.0016530576
144	0x3d4265ce	0.04746037
145	0x3d1fe7e7	0.03903952
146	0xbe0b755c	-0.13618988
147	0x3cb2f8ab	0.02184709
148	0xbc86293c	-0.016377084
149	0x3cd13b9c	0.02554112
150	0x3d2df7d4	0.042472675
151	0xbe30628e	-0.17225096
152	0xbe112d67	-0.14177476
153	0x3da43c56	0.08019321
154	0x3cf23cd1	0.029570015
155	0x3d6ac76e	0.057319097
156	0xbd96f08e	-0.07370101
157	0x3d368fc4	0.0445707
158	0x3c60040c	0.01367284
159	0xbdd2db1f	-0.102957
160	0x3c4f717d	0.012661335
161	0x3dcc7f22	0.09985186
162	0xbd1cd2af	-0.03828686
163	0x3e03e96a	0.12882009
164	0xbe277a22	-0.16355184
165	0x3beb8538	0.007187512
166	0x3bbf13a8	0.0058312006
167	0xbe15b457	-0.14619575
168	0xbe0c7f7e	-0.1372051
169	0x3cf5b916	0.029995482
170	0x3c6c6368	0.014427997
171	0xbe012954	-0.12613422
172	0x3c0b43cc	0.008500051
173	0xbd52010a	-0.051270522
174	0x3e0f4f1a	0.13995019
175	0xbe7360cf	-0.23767398
176	0xbbd0b53d	-0.0063692615
177	0xbd99b464	-0.0750511
178	0x3dba12f1	0.09085644
179	0x3dd36d72	0.103236094
180	0xbe329708	-0.17440426
181	0x3e666f05	0.22503288
182	0x3da087de	0.078384146
183	0x3e228af1	0.15873314
184	0x3dbaf26a	0.09128268
185	0x3d5206ff	0.051276203
186	0xbd8796ec	-0.06620583
187	0xbe2ab579	-0.16670789
188	0x3da9e36a	0.08295329
189	0xbd83eb32	-0.06441344
190	0xbe80b4ac	-0.25137842
191	0xbdd0e88a	-0.10200603
192	0xbd9ff0ab	-0.07809576
193	0x3dc3f9ee	0.09569155
194	0xbdb36cf3	-0.08761015
195	0x3e26781d	0.16256757
196	0x3c974c11	0.018468888
197	0x3dc667b3	0.09687748
198	0xbddc07ee	-0.107437
199	0x3c1a6816	0.00942423
200	0xbb6c5e6e	-0.0036067027
201	0x3df1fec2	0.11816169
202	0x3c4bb254	0.012432653
203	0x3db23779	0.08701987
204	0x3e98adef	0.298202
205	0xbe6ca63f	-0.23110293
206	0xbdda1158	-0.10647839
207	0xbc827184	-0.01592327
208	0x3d9dd1d5	0.07706038
209	0xbdb8426a	-0.089970425
210	0x3dd35b35	0.10320131
211	0x3e451a4e	0.19248316
212	0x3e1c6fb3	0.15276985
213	0xbc2b3f19	-0.010452055
214	0xbe1997f3	-0.1499937
215	0x3cae5c12	0.021284137
216	0xbe84cdb1	-0.2593818
217	0xbe22f0cb	-0.15912168
218	0x3e21f850	0.1581738
219	0x3e53f433	0.20698623
220	0xbdba2964	-0.09089926
221	0x3db5c90a	0.08876236
222	0x3d09e105	0.03366186
223	0x3d410cc6	0.047131322
224	0x3dd7cb6e	0.10536848
225	0xbd28e7d9	-0.041236732
226	0x3d020e91	0.031752173
227	0xbd975eff	-0.07391166
228	0x3d6f2dbc	0.058393225
229	0xbe6fc1fd	-0.23413844
230	0xbd5735ee	-0.052541666
231	0xbdd9d780	-0.106368065
232	0x3e8f84f5	0.28031126
233	0xbe8ee19c	-0.279065
234	0x3e2d1096	0.16900858
235	0xbde6e704	-0.112745315
236	0xbe1197e3	-0.14218096
237	0x3d0f427d	0.034975518
238	0xbcd93f98	-0.026519582
239	0x3e02c2f1	0.12769677
240	0x3b4ca6eb	0.003122742
241	0x3ea0e991	0.31428197
242	0xbc300a28	-0.010744609
243	0xbcc62adb	-0.024190357
244	0xbde23590	-0.110453725
245	0xbdd2bcf5	-0.10289947
246	0x3d30615c	0.0430616
247	0xbd854c80	-0.06508732
248	0x3e082fda	0.13299504
249	0x3cdf9a95	0.02729539
250	0xbcb7acb7	-0.022421224
251	0xbe2f7463	-0.17134242
252	0xbca80f70	-0.020515174
253	0x3d98919f	0.0744965
254	0x3debddf0	0.115169406
255	0x3cc821e0	0.024430215

rnn.weight_hh_l1 f4 [120, 30]
0	0x3d8b8fe4	0.06814554
1	0x3d1c6844	0.038185373
2	0x3d8effdf	0.06982397
3	0x3d96535a	0.07340117
4	0xbe422ed8	-0.18963182
5	0x3d559c98	0.052151293
6	0xbd95221c	-0.072818965
7	0x3e36a299	0.17835464
8	0x3d3a7807	0.045524623
9	0x3e32649c	0.17421192
10	0xbda42a95	-0.080159344
11	0xbbf1cbc0	-0.007379025
12	0xbd582ddc	-0.05277811
13	0x3dc9ae14	0.09847656
14	0x3e033f8a	0.12817207
15	0xbe9466e7	-0.28984758
16	0x3d23d0a3	0.039993893
17	0x3e06b01f	0.13153122
18	0x3e09eaff	0.1346855
19	0x3cf75a63	0.030194467
20	0xbe4ce513	-0.2000926
21	0xbd022ecc	-0.03178291
22	0x3e145ef3	0.14489345
23	0x3e687b9f	0.22703408
24	0xbda109dc	-0.07863209
25	0x3e42682f	0.18985055
26	0x3d85a77d	0.065260865
27	0xbd1b5d22	-0.037930615
28	0xbe385095	-0.1799949
29	0xbd6b7189	-0.057481322
30	0x3d7ccd76	0.06171938
31	0xbe58c931	-0.21170498
32	0x3dca1b34	0.0986847
33	0x3e04be6b	0.12963264
34	0xbe361891	-0.17782809
35	0x3de5a970	0.11213958
36	0x3dcc66bb	0.09980532
37	0x3dea5ef7	0.11443894
38	0xbdad0760	-0.08448672
39	0xbc201566	-0.009770727
40	0xbe313332	-0.17304686
41	0x3dcaa10c	0.098939985
42	0x3e3dfa2a	0.18552461
43	0x3e1b07fa	0.15139762
44	0xbe225e2b	-0.15856235
45	0xbdf0e01d	-0.11761496
46	0xbe682654	-0.22670871
47	0xbc550a93	-0.013003009
48	0x38f341e2	0.000115994146
49	0xbc2724fe	-0.010201691
50	0x3d800441	0.06250811
51	0xbbd87dad	-0.0066067786
52	0xbdaead9b	-0.08529206
53	0x3d4bd3ea	0.049762644
54	0xbe534b21	-0.20634128
55	0x3cc3196c	0.023815833
56	0x3d878ea9	0.06619007
57	0xbe45f603	-0.19332127
58	0xbe3e1cbd	-0.1856565
59	0xbbb47eed	-0.005508295
60	0xbd9d19b7	-0.0767092
61	0xbdf4813a	-0.119387105
62	0x3e3f5268	0.18683779
63	0x3dda8b45	0.10671095
64	0xbdd9295b	-0.10603591
65	0x3df57974	0.11986056
66	0x3d0b096e	0.03394454
67	0xbdb79057	-0.089630775
68	0x3e130fff	0.14361571
69	0x3e229ad0	0.15879369
70	0x3d0d88f8	0.03455445
71	0xbe77380e	-0.24142477
72	0x3ba7278c	0.00510115
73	0xbe1f4363	-0.1555305
74	0x3e0d9094	0.13824683
75	0x3d65ba2e	0.056085758
76	0xbe38639c	-0.18006748
77	0x3aeeeabe	0.0018227918
78	0x3e0ddae7	0.13853036
79	0xbdc6b265	-0.09701995
80	0xbdf8e256	-0.12152545
81	0xbce26318	-0.027635142
82	0x3d49805f	0.04919469
83	0x3e239d4e	0.15977976
84	0xbc3a006d	-0.011352641
85	0x3d99906f	0.07498252
86	0x3dd841d8	0.10559434
87	0x3d2c9914	0.042138174
88	0x3dcd5dba	0.100276425
89	0x3dc6ed85	0.09713272
90	0x3e57d3ae	0.21076843
91	0xbe4c6f3e	-0.1996431
92	0x3d8e229f	0.06940197
93	0xbd92bd06	-0.071649596
94	0x3dbafc1a	0.09130116
95	0xbbdbe986	-0.006711188
96	0xbdb5709c	-0.08859369
97	0x3e2928c2	0.16519454
98	0x3e102c65	0.14079435
99	0xbda34d2a	-0.07973702
100	0x3e07ad09	0.13249601
101	0x3dd1a8d2	0.10237278
102	0x3e0be531	0.13661648
103	0xbdeee53c	-0.11664817
104	0x3c851765	0.016246507
105	0x3c9574de	0.018244203
106	0xbdb29b53	-0.08721032
107	0xbe103ebf	-0.14086436
108	0xbbbde245	-0.0057947957
109	0x3de21ff2	0.11041249
110	0xbe5bde1e	-0.2147145
111	0xbd930073	-0.0717782
112	0x3e91ce4c	0.28477705
113	0xbcba52b7	-0.02274452
114	0xbddf3eb5	-0.10900632
115	0x3cccf50e	0.025019195
116	0x3e3bb0d6	0.18329176
117	0xbdc71535	-0.09720842
118	0xbd3c987c	-0.046043858
119	0xbd7f9fb2	-0.062408157
120	0xbcee951e	-0.029123839
121	0x3e17680b	0.14785783
122	0xbd5e52bd	-0.054278124
123	0xbddf3e60	-0.10900569
124	0xbd173c72	-0.03692288
125	0x3d0acca6	0.033886574
126	0xbde4e8df	-0.11177229
127	0xbd067c41	-0.03283334
128	0xbbf02033	-0.007328057
129	0xbe0676ea	-0.131313
130	0xbe4d9e00	-0.20079803
131	0xbcf89046	-0.030342232
132	0x3d979d86	0.07403092
133	0x3cc1a19d	0.023636634
134	0xbdf7e519	-0.12104244
135	0x3d08b131	0.033372108
136	0x3db7f115	0.089815296
137	0x3e04099f	0.12894295
138	0xbd86d961	-0.065844305
139	0xbdca2e6c	-0.098721355
140	0xbe698016	-0.22802767
141	0xbc72a7b0	-0.014810488
142	0x3d8fb66e	0.070172176
143	0xbba6510f	-0.005075581
144	0xbe3ae899	-0.18252791
145	0xbdde613e	-0.10858391
146	0x3d6c9d25	0.057767052
147	0xbe4873e0	-0.19575453
148	0xbd60d671	-0.054892007
149	0x3df3d401	0.11905671
150	0x3e268f2c	0.16265553
151	0x3dc50fc0	0.09622145
152	0xbe2f7d9d	-0.17137761
153	0xbd43d7db	-0.047813278
154	0xbe3eedf2	-0.18645456
155	0xbd85b798	-0.06529158
156	0x3d837faa	0.06420834
157	0xbd94943a	-0.072548345
158	0x3db9c98b	0.090716444
159	0xbe117366	-0.14204177
160	0x3d8e7f0b	0.06957825
161	0x3e0a01e1	0.13477279
162	0xbe254dd4	-0.1614297
163	0xbe080228	-0.13282073
164	0x3e328d19	0.17436637
165	0xbd829503	-0.06376078
166	0xbdc349a6	-0.09535532
167	0xbd44a055	-0.048004467
168	0x3df182b4	0.11792508
169	0x3da47b78	0.08031362
170	0xbdd68820	-0.104751825
171	0x3d7ff241	0.06248689
172	0xbd3eb2ca	-0.046557225
173	0xbd989300	-0.07449913
174	0xbd887a4f	-0.066639535
175	0x3e29fde5	0.1660076
176	0xbd815241	-0.06314517
177	0xbbcd9dc7	-0.006274912
178	0xbe488428	-0.19581664
179	0xbdb31b54	-0.08745447
180	0x3ddba504	0.107248336
181	0x3df507bc	0.11964366
182	0xbdcfbeb6	-0.10143797
183	0xbc4c5628	-0.012471713
184	0xbc565f49	-0.013084241
185	0xbdccef71	-0.10006607
186	0x3e5ee912	0.21768597
187	0x3db35459	0.087563224
188	0x3d02900c	0.031875655
189	0x3e299a7c	0.16562837
190	0x3cdc7eb2	0.026915882
191	0xbd43b39a	-0.047778703
192	0x3e03b0f5	0.12860473
193	0x3db2ce7c	0.0873079
194	0xbcf5658f	-0.029955653
195	0xbe37c164	-0.17944866
196	0xbe278c09	-0.16362013
197	0x3d0fb2b1	0.035082523
198	0x3d7e7f46	0.062133096
199	0x3de34ea4	0.11098984
200	0x3ca24172	0.019806597
201	0x3e0e7859	0.13913096
202	0x3e14a2e5	0.14515264
203	0xbdbc990a	-0.092088774
204	0x3da41cb5	0.08013288
205	0x3d212cdc	0.03934942
206	0xbdf25497	-0.118325405
207	0xbdc588ef	-0.09645259
208	0x3d765f65	0.06014957
209	0xbe00b10b	-0.12567537
210	0x3d832dd1	0.06405223
211	0x3d85d2a3	0.065343164
212	0x3de6e343	0.112738155
213	0x3cd97eb1	0.026549669
214	0x3c1c1c12	0.009528177
215	0x3dc13e1f	0.09435677
216	0x3d89ea8b	0.06734189
217	0x3dc556e1	0.096357115
218	0x3cb99950	0.022656113
219	0x3c806297	0.015672011
220	0x3de658ee	0.11247431
221	0xbe533132	-0.20624235
222	0x3c6f713f	0.014614402
223	0x3dda9e6a	0.10674746
224	0x3e09f425	0.1347204
225	0xbe14bcb9	-0.14525117
226	0x3dc9168e	0.09818755
227	0x3ce11dcd	0.02748003
228	0x3d8708a5	0.06593446
229	0x3e02bd77	0.12767588
230	0xbe3cb1a8	-0.18427145
231	0xbe252f4b	-0.16131322
232	0x3db23cf8	0.08703035
233	0xbd901422	-0.0703509
234	0xbbd99190	-0.006639667
235	0xbd06f967	-0.032952692
236	0x3b8f8faf	0.004381142
237	0x3d642970	0.05570358
238	0xbe4aa76b	-0.19790427
239	0x3e6297f1	0.22128274
240	0xbe0ebe2e	-0.13939735
241	0xbdd10396	-0.10205762
242	0x3e1165c5	0.14198978
243	0x3dffc040	0.12487841
244	0x3e123793	0.14279012
245	0x3d942579	0.0723371
246	0x3e626299	0.22107925
247	0x3e0238cd	0.1271698
248	0xbdff7fc5	-0.12475542
249	0x3d825738	0.06364292
250	0x3e3c9875	0.18417533
251	0x3db8e528	0.09028083
252	0xbe180a95	-0.14847787
253	0xbd43f124	-0.04783739
254	0x3d7bdb29	0.061488304
255	0x3e165849	0.14682116

rnn.bias_ih_l1 f4 [120]
0	0x3e787ba1	0.2426591
1	0x3de36d7e	0.11104868
2	0x3c45a813	0.012063998
3	0xbc9b8f00	-0.018989086
4	0x3bf7949e	0.0075555583
5	0xbd3205a3	-0.043462407
6	0x3de18370	0.11011398
7	0xbd0e34f9	-0.034718487
8	0x3e452e42	0.19255927
9	0xbda3740d	-0.07981119
10	0x3d9fae2f	0.07796895
11	0xbd7612fe	-0.060076706
12	0x3e1af1d6	0.15131316
13	0x3d1b8c25	0.03797545
14	0x3e62d13f	0.22150134
15	0x3eb896c5	0.36052528
16	0x3e2be6a0	0.16787195
17	0x3d81c916	0.06337182
18	0x3e8541dd	0.26026812
19	0x3da00520	0.078134775
20	0x3e1c7c58	0.15281808
21	0x3e092ef7	0.13396822
22	0x3e835476	0.25650376
23	0x3db9cf26	0.090727136
24	0xbd0155cc	-0.031575963
25	0xbd8fb5e0	-0.07017112
26	0x3e6198ec	0.22030991
27	0x3e54d2d5	0.20783551
28	0x3e4ad398	0.19807279
29	0xbc880da7	-0.016608072
30	0x3e2318fa	0.15927497
31	0x3e30bb03	0.1725884
32	0xbe05eba4	-0.13078171
33	0xbdee3df2	-0.11632909
34	0xbd17ed97	-0.037091818
35	0x3d4a4c3b	0.049389105
36	0x3d591e9d	0.05300771
37	0x3e0f170a	0.13973632
38	0xbe029001	-0.12750246
39	0x3e358a09	0.17728437
40	0xbdd62eb2	-0.10458125
41	0x3dcaf459	0.09909887
42	0x3dc0945b	0.094032966
43	0xbd68e00a	-0.056854285
44	0xb9c1705a	-0.00036895537
45	0xbd551a92	-0.052027293
46	0x3cd9f2d1	0.026605042
47	0x3d8fee6f	0.070278995
48	0x3e34da71	0.17661454
49	0xbe0e02a1	-0.1386819
50	0x3e45db5a	0.19321957
51	0xbe1c159e	-0.15242621
52	0xbd1ca020	-0.038238645
53	0x3e017dff	0.1264572
54	0x3dbad8ff	0.0912342
55	0x3a92ea36	0.0011208716
56	0x3e6022e8	0.21888316
57	0xbd85daed	-0.065358974
58	0xbdfc52b5	-0.123204626
59	0x3e111555	0.14168294
60	0x3db24c4d	0.087059595
61	0xbe39acc5	-0.18132313
62	0xbccbc1d1	-0.024872692
63	0x3de225e2	0.11042382
64	0xbe3d9309	-0.1851312
65	0xbc9506f1	-0.018191786
66	0x3d958251	0.073002465
67	0x3e29ffc6	0.16601476
68	0xbc7d75f2	-0.015470015
69	0x3de4966d	0.11161504
70	0xbe2fa3db	-0.1715235
71	0xbd9d6310	-0.0768491
72	0xbe46cc54	-0.19413882
73	0xbd8ca6b7	-0.06867736
74	0xbd6fdf2a	-0.058562435
75	0xbccdb635	-0.025111297
76	0xbe33ec13	-0.17570524
77	0xbd8fda2a	-0.07024033
78	0x3bb9d1ab	0.0056707463
79	0x3d91d139	0.07119984
80	0xbd244f81	-0.040114883
81	0x3c702925	0.014658247
82	0xbdf66441	-0.12030841
83	0x3e1b9aa1	0.15195705
84	0x3e063073	0.1310442
85	0x3e14e62d	0.1454093
86	0xbe0bb9fd	-0.13645168
87	0x3db2293f	0.08699273
88	0xbb1faf16	-0.0024365834
89	0xbd836539	-0.06415791
90	0xbcb81042	-0.02246869
91	0x3e1a4aed	0.15067644
92	0x3e961225	0.29310718
93	0xbd0b9153	-0.03407414
94	0x3e1c51a6	0.15265521
95	0x3e558cba	0.20854464
96	0x3e5fd466	0.21858367
97	0x3e879746	0.264826
98	0x3e5e6e29	0.2172171
99	0x3e8549b7	0.26032802
100	0x3c0bd5a4	0.008534823
101	0xbd9c0aa1	-0.07619215
102	0x3d8eccdd	0.06972668
103	0x3e9a2257	0.30104324
104	0xbc065a2c	-0.00820021
105	0x3e563505	0.20918663
106	0x3c8023ba	0.015642036
107	0x3deb71f8	0.11496347
108	0x3ebdabf3	0.3704525
109	0x3e1898bb	0.14902012
110	0xbb61e236	-0.0034467108
111	0x3e4ae68e	0.19814512
112	0x3ea8bbb0	0.32955694
113	0x3e3a758f	0.18208908
114	0xbc13328d	-0.00898422
115	0x3d931ee5	0.07183627
116	0x3dd20a40	0.10255861
117	0x3db37477	0.08762448
118	0x3d194482	0.03741885
119	0x3e950cd8	0.29111362

rnn.bias_hh_l1 f4 [120]
0	0xbdaca4cb	-0.08429869
1	0x3e64c4d0	0.22340703
2	0x3da55d15	0.080743946
3	0xbc06c1af	-0.008224889
4	0x3d22232a	0.039584316
5	0x3df0be5f	0.117550604
6	0x3d8a899f	0.067645304
7	0x3e4703de	0.19435069
8	0x3e145042	0.14483741
9	0x3dbe4aee	0.092916355
10	0x3e2f3666	0.17110595
11	0x3e359af7	0.17734896
12	0x3e629176	0.22125801
13	0x3c9585ab	0.018252214
14	0x3dd840ae	0.10559212
15	0x3e100d62	0.14067605
16	0xbe116ec4	-0.1420241
17	0x3e81036e	0.2519793
18	0x3d2a4bca	0.041576184
19	0xbda89420	-0.082313776
20	0xbd94a7ea	-0.072585896
21	0x3c8bac53	0.017049944
22	0x3cc3bacd	0.023892784
23	0x3dd8c2ac	0.10584006
24	0x3e1cb37a	0.1530284
25	0xbdbf5cda	-0.09343882
26	0x3e5449a1	0.20731212
27	0xbd2dfd9a	-0.04247818
28	0x3d54e3f4	0.051975206
29	0xbdb649e4	-0.08900812
30	0x3dafa48a	0.08576305
31	0xbd381e0b	-0.044950526
32	0xbe21731c	-0.15766567
33	0x3e627e68	0.22118533
34	0xbdf7e967	-0.12105065
35	0x3c81764f	0.015803484
36	0x3e034b66	0.12821731
37	0x3d56d4b6	0.05244895
38	0x3d20da07	0.039270427
39	0x3dd7d036	0.1053776
40	0xbe11ccbe	-0.14238259
41	0x3cb5b40b	0.022180578
42	0xbd927085	-0.07150368
43	0xbe07d925	-0.13266428
44	0xbde550a4	-0.111970216
45	0xbdf10f66	-0.11770515
46	0xbdc3d4dc	-0.09562084
47	0xbd3959e9	-0.04525176
48	0xbd326f8f	-0.04356342
49	0xbcf05f8c	-0.029342435
50	0x3dff7634	0.12473717
51	0x3d9268e4	0.071489125
52	0x3d8c5a4e	0.06853162
53	0xbca03646	-0.01955713
54	0xbdd513db	-0.10404178
55	0x3dfe8bb0	0.12428987
56	0x3dfc90af	0.12332284
57	0x3e7eaaf3	0.248699
58	0x3c0fb3aa	0.008770863
59	0x3d86e638	0.065868795
60	0x3e232d23	0.15935187
61	0xbe62aea0	-0.22136927
62	0xbce57975	-0.028012017
63	0xbd291e58	-0.041288704
64	0xbe2fa43b	-0.17152493
65	0x3e581ee9	0.21105541
66	0xbd270021	-0.040771607
67	0xbd0e854a	-0.034795083
68	0xbdca989f	-0.098923914
69	0xbddc4411	-0.1075517
70	0xbd822c7d	-0.06356142
71	0x3e1081b8	0.14111984
72	0xbe244bfa	-0.16044608
73	0x3df19515	0.11796013
74	0x3e031575	0.12801154
75	0x3dae8621	0.08521677
76	0x3d1205b9	0.03564999
77	0x3cd376af	0.025813429
78	0x3d1c7bdf	0.03820407
79	0xbd9bdd4f	-0.07610571
80	0xbdd46fde	-0.103728995
81	0x3e817f09	0.25292233
82	0xbd249789	-0.040183578
83	0xbd43ad41	-0.04777265
84	0xbe3a3ecb	-0.18188016
85	0x3d906d0c	0.07052049
86	0x3cb4c4b8	0.022066459
87	0xbe032146	-0.12805662
88	0xbe7438e1	-0.23849823
89	0x3e2ce8ac	0.16885632
90	0x3e7e855d	0.24855562
91	0xbdc4dc0b	-0.09612282
92	0x3e62afc9	0.22137369
93	0x3b94bed9	0.0045393524
94	0x3da53503	0.08066752
95	0x3d7c346c	0.06157343
96	0x3d993855	0.074814476
97	0x3e7f1d6e	0.2491357
98	0x3db678d1	0.08909763
99	0x3e8775b2	0.26456982
100	0x3dcb967a	0.099408105
101	0x3c3428e5	0.010996078
102	0x3e874a7f	0.26424024
103	0xbd2ef25d	-0.042711604
104	0x3dba56f6	0.09098618
105	0x3e99b1ed	0.3001856
106	0xbcca2f45	-0.024680743
107	0xbd920a1b	-0.07130834
108	0x3e55fe0e	0.20897695
109	0x3da2b37e	0.07944392
110	0x3e2c9360	0.16853094
111	0xbd28bb61	-0.041194323
112	0x3e2004ae	0.15626785
113	0xbda0fd3f	-0.07860803
114	0x3c8474a9	0.01616891
115	0x3d01ba3b	0.031671744
116	0x3e8721c5	0.26392952
117	0x3d4d4fda	0.05012498
118	0x3e9f51cd	0.31117097
119	0x3e40fb8a	0.18845955

distribution_projector.weight f4 [7, 30]
0	0xbe305cb7	-0.17222868
1	0x3e20aac6	0.15690145
2	0x3e7a8dc2	0.24468139
3	0xbd8f23c3	-0.06989243
4	0xbe73236d	-0.23743983
5	0x3e251ce3	0.161243
6	0x3ceb6cfa	0.028738488
7	0xbcd796ac	-0.026316963
8	0x3e614d21	0.22002079
9	0xbe3697cb	-0.17831342
10	0xbc83c863	-0.016086763
11	0xbe1d988a	-0.1539022
12	0x3e43ce1f	0.19121598
13	0x3e8f0e15	0.2794043
14	0xbe377561	-0.1791587
15	0xbeacaea6	-0.33726996
16	0x3d01413f	0.031556364
17	0xbdedff42	-0.11620952
18	0x3ece89f5	0.40339628
19	0x3e96ae3f	0.29429814
20	0xbe6eb193	-0.23309927
21	0xbe606a45	-0.21915539
22	0x3eb7e71d	0.35918513
23	0x3e55af00	0.20867538
24	0xbcf62d03	-0.03005076
25	0xbe20b2ef	-0.15693258
26	0x3e426452	0.18983582
27	0x3db39aba	0.08769746
28	0xbe8efdb3	-0.27927932
29	0x3dd65501	0.10465432
30	0xbf033b08	-0.5126195
31	0x3ef6b2a6	0.48183173
32	0xbec71e0c	-0.3889011
33	0xbf11474a	-0.56749403
34	0x3f08e01a	0.5346695
35	0xbf059d35	-0.52193004
36	0xbeda95db	-0.42692456
37	0xbef1093d	-0.4707736
38	0xbeffb654	-0.49943793
39	0xbf0ca4ef	-0.5493917
40	0xbf0256c4	-0.50913644
41	0x3f15d759	0.5853172
42	0x3edc3757	0.4301097
43	0x3f0d4cd1	0.5519534
44	0xbf0fa65f	-0.5611324
45	0xbf253cd1	-0.64545923
46	0x3ec25d94	0.3796202
47	0xbeffc909	-0.49958065
48	0xbeb74892	-0.35797554
49	0xbeb33f5d	-0.3500928
50	0x3eedbc8e	0.46432918
51	0xbef05e16	-0.46946782
52	0x3f0c79ef	0.54873556
53	0xbecdacd6	-0.40170926
54	0x3f04f671	0.5193854
55	0xbf01bb4a	-0.50676405
56	0xbebaa86b	-0.36456618
57	0x3ee1d7e1	0.44110015
58	0x3ebceb61	0.3689833
59	0x3ed06c56	0.40707654
60	0xbe032d2f	-0.12810205
61	0x3e34a7d2	0.17642143
62	0x3de3a1e7	0.11114865
63	0x3d13f11b	0.036118608
64	0xbe32f448	-0.17475998
65	0xbd726b2a	-0.05918423
66	0x3e87f8ca	0.26556998
67	0xbd460d5f	-0.048352595
68	0x3e963203	0.2933503
69	0xbd949c31	-0.07256354
70	0xbe1aa729	-0.15102829
71	0xbd87e310	-0.066351056
72	0x3d93c3a1	0.07215048
73	0x3e815346	0.25258845
74	0x3db8d9e8	0.09025937
75	0x3e0317dd	0.12802072
76	0x3dac8624	0.08424023
77	0xbca01338	-0.019540414
78	0x3ccd3a36	0.025052171
79	0x3da7eca6	0.08199434
80	0x3d2a4c9b	0.041576963
81	0xbe6bdb94	-0.23032981
82	0x3e6a6a1b	0.22892039
83	0x3d7f0a55	0.062265713
84	0x3d294cdd	0.04133307
85	0x3e09b3cf	0.13447498
86	0x3c5f2203	0.013618949
87	0xbd007450	-0.031360924
88	0xbce28357	-0.027650518
89	0xbd882b1e	-0.06648849
90	0xbe54f0ac	-0.20794934
91	0xbe5e7025	-0.21722467
92	0xbe488035	-0.19580157
93	0xbcd95f97	-0.026534839
94	0x3de9e5e3	0.114208005
95	0x3d625ec4	0.055266157
96	0x3e25dd4e	0.16197702
97	0xbe36d134	-0.17853242
98	0xbdd331fc	-0.10312268
99	0x3d84cab8	0.06483978
100	0xbda9405a	-0.08264227
101	0x3d88e5be	0.06684445
102	0xbac7eb84	-0.0015252684
103	0xbe4f9d69	-0.20274891
104	0x3a1b0aac	0.0005914371
105	0x3e8ed8e7	0.27899858
106	0xbd6f8ddf	-0.05848491
107	0x3db8328e	0.089940175
108	0xbd9b0062	-0.075684324
109	0xbe0f2aa6	-0.13981113
110	0x3e978c25	0.2959911
111	0xbe4bf66c	-0.19918221
112	0xbe2f7703	-0.17135243
113	0x3e154b96	0.14579615
114	0xbe0285ca	-0.12746349
115	0x3dde16d2	0.108441964
116	0xbe244365	-0.16041334
117	0xbe33e44e	-0.1756756
118	0xbe176d04	-0.1478768
119	0x3e66c555	0.22536214
120	0xbe569960	-0.20956945
121	0x3e153e9a	0.14574662
122	0x3da7ca5c	0.08192894
123	0xbdc4174d	-0.09574757
124	0xbd674fc6	-0.056472562
125	0x3e1f66b9	0.1556653
126	0x3e3b0d2d	0.18266745
127	0xbe336620	-0.17519426
128	0x3e1c3a6e	0.15256664
129	0xbd4ba444	-0.049717203
130	0xbdcd0f52	-0.10012688
131	0x3dd71d92	0.10503687
132	0x3e946c07	0.28988668
133	0x3d8011bf	0.06253385
134	0x3d01238b	0.031528037
135	0xbc0d0caf	-0.008608981
136	0x3e0e6d51	0.13908888
137	0xbdab497b	-0.08363625
138	0x3e62d3c9	0.22151102
139	0x3e42d9b3	0.19028358
140	0x3d29505f	0.041336413
141	0xbe81bb8e	-0.25338405
142	0x3e81dd0c	0.25363958
143	0x3ea8278b	0.3284267
144	0xbe74eb0e	-0.23917791
145	0x3cd17a47	0.025571002
146	0x3d9cdf01	0.07659722
147	0xbde22f43	-0.11044171
148	0xbd6ed30a	-0.05830673
149	0xbccf01dd	-0.025269443
150	0x3e497595	0.1967376
151	0xbdf12510	-0.11774647
152	0xbe7ff41b	-0.24995463
153	0x3dc6dbe0	0.097099066
154	0xbdc3d362	-0.095618024
155	0x3c750d8b	0.014956842
156	0xbe51060e	-0.20412466
157	0x3e5d3916	0.21603808
158	0xbe5b0222	-0.21387532
159	0x3a8415fe	0.0010077355
160	0x3e68d21d	0.22736402
161	0xbe168650	-0.14699674
162	0xbea625f8	-0.32450843
163	0xbdbd6952	-0.09248604
164	0x3d2c61c8	0.04208544
165	0xbddabf31	-0.10680998
166	0x3d967f56	0.07348506
167	0x3e22d253	0.15900545
168	0xbe056984	-0.13028532
169	0xbe6f10f7	-0.23346315
170	0xbe040fd5	-0.12896664
171	0x3e96a770	0.2942462
172	0xbe3aa6b4	-0.18227655
173	0xbea9561c	-0.3307351
174	0x3d6721cd	0.05642872
175	0xbdeed750	-0.11662161
176	0xbe0d7762	-0.13815072
177	0x3e3ea017	0.18615757
178	0x3ce3d284	0.027810343
179	0x3df9af8d	0.12191687
180	0x3df45fce	0.11932336
181	0xbddf08e9	-0.10890371
182	0xbce75c14	-0.028242148
183	0xbe156d21	-0.1459241
184	0xbddad0e3	-0.10684373
185	0xbe034b3d	-0.1282167
186	0xbd2494cd	-0.04018097
187	0x3d1d16ae	0.038351707
188	0xbd38b7e2	-0.04509724
189	0x3e26159a	0.16219178
190	0xbdd8a8c6	-0.10579066
191	0xbd7a61ad	-0.061128307
192	0xbde44dc8	-0.11147648
193	0xbddc70eb	-0.10763725
194	0xbcc3878e	-0.023868348
195	0xbe252963	-0.16129069
196	0xbe0ac374	-0.13551122
197	0x3dc062ec	0.09393868
198	0xbcd65000	-0.026161194
199	0xbe1a3e8c	-0.15062922
200	0xbe01f1b5	-0.1268986
201	0x3e62b1d0	0.22138143
202	0xbe10ae29	-0.14128937
203	0xbe90dfcf	-0.28295752
204	0x3d20b3a4	0.03923382
205	0xbd4cc8a0	-0.04999602
206	0xbe8d79d0	-0.27631998
207	0x3e4b7169	0.19867481
208	0xbd658e5a	-0.05604396
209	0x3d3853da	0.045001842

distribution_projector.bias f4 [7]
0	0xbdd4a1fb	-0.10382458
1	0xbeb68c76	-0.35654038
2	0xbb6d2fa3	-0.0036191724
3	0x3d79cda4	0.06098713
4	0x3d9eb24c	0.07748851
5	0xbe13c254	-0.14429599
6	0x3e22ec77	0.15910517

exp_avg f4 [5, 4]
0	0x2cc59bb7	5.6163646e-12
1	0x2d75588e	1.3946301e-11
2	0xad46d21e	-1.1301652e-11
3	0x2ca97724	4.816496e-12
4	0xaf06e584	-1.226877e-10
5	0x2f35bc1c	1.6528684e-10
6	0x2eaa9a99	7.758167e-11
7	0x2e9d0e55	7.142079e-11
8	0xb3cb9d39	-9.481523e-08
9	0xb41d37e7	-1.4642102e-07
10	0x33f4b87b	1.1395692e-07
11	0xb2be08c5	-2.2122899e-08
12	0xb67d4cd3	-3.7744655e-06
13	0xb726f51c	-9.95144e-06
14	0x3714abfc	8.861531e-06
15	0xb55ba826	-8.1828546e-07
16	0xb583d3bb	-9.821882e-07
17	0x371e4cde	9.435431e-06
18	0xb6c6bdc8	-5.9229533e-06
19	0x35e70773	1.7213009e-06

exp_avg_sq f4 [5, 4]
0	0x3587e786	1.0125666e-06
1	0x36c5039b	5.8714772e-06
2	0x3679dfa1	3.723406e-06
3	0x3574260a	9.095244e-07
4	0x34e0247b	4.1749794e-07
5	0x36c8c24b	5.983083e-06
6	0x367a5fbd	3.730863e-06
7	0x341f041f	1.4809528e-07
8	0x35ce639d	1.5377187e-06
9	0x36bb33d9	5.57907e-06
10	0x367199e3	3.6001372e-06
11	0x34f3efe0	4.543681e-07
12	0x3590ab95	1.0778773e-06
13	0x36f2055a	7.212785e-06
14	0x36ce7588	6.152961e-06
15	0x355a066e	8.1220685e-07
16	0x30ef4a89	1.7410723e-09
17	0x3331d818	4.140756e-08
18	0x3201062b	7.510191e-09
19	0x3167c125	3.3724714e-09
