analysis/lightning_logs/version_6/checkpoints/epoch=18-step=950.ckpt (torch, 343340 bytes, 33 tensors)

model.param_proj.proj.0.weight f4 [1, 40]
000000 44 0c ab bd bd 38 ce 3c 78 7b 02 be 86 b2 9f 3c
       -0.08351949 0.02517354 -0.12742412 0.019494306
000010 36 3b ef bd 43 07 78 3e f4 37 94 3c 01 b9 3c 3e
       -0.116812155 0.2422152 0.018093087 0.18429948
000020 48 20 3a 3d 1c 59 81 3e 58 ec 2d be 0e 75 39 be
       0.045440942 0.25263298 -0.16984689 -0.18111059
000030 62 80 6b 3e 87 c7 73 3d 39 2c 40 3c 38 11 83 bd
       0.22998193 0.059516456 0.0117292935 -0.063997686
000040 52 70 5f 3e 96 32 bb bd 2b ec e7 bb 5c dc da bd
       0.2182019 -0.09140508 -0.007077714 -0.106865615
000050 27 23 8a 3e b2 04 9c bd ad 71 a3 bd 90 c5 7e bd
       0.26979944 -0.07618083 -0.07980666 -0.06220013
000060 d1 8a 67 3d 69 7f 3e bd de 86 40 3e fe 48 0f 3d
       0.05652887 -0.046508227 0.18801448 0.03498172
000070 9f fb b1 3c 94 6b a1 bc 98 a7 2c bd cd df a6 bd
       0.021726428 -0.019704618 -0.042152017 -0.08148155
000080 2f e9 74 3c 8d ea fa 3d e7 16 bb 3c 64 e1 06 3d
       0.014948173 0.12251768 0.02283807 0.032929793
000090 7c 6b 33 3e 84 1e a2 bd 38 b1 9e bd 09 27 23 bc
       0.17521471 -0.07915977 -0.077486455 -0.009958037

model.param_proj.proj.1.weight f4 [1, 40]
000000 49 61 2a be 6d dd 8a bd 4e 16 9d 3c eb ea 0c 3e
       -0.16638674 -0.06780515 0.019175675 0.13761489
000010 75 68 67 3d 98 27 11 3d b2 bf 18 3e 87 ba 2d 3e
       0.056496102 0.03543815 0.14916876 0.16965686
000020 f1 81 ff 3d 1e 5d b8 bd 75 46 f2 3d 68 ed 1b 3e
       0.12475956 -0.09002136 0.11829845 0.15227282
000030 9b 76 45 bd 46 a9 e2 3d 69 3f 53 3d 3c 55 a4 3d
       -0.048208814 0.110674426 0.051574145 0.0802407
000040 22 99 29 3d b7 04 0b 3e 6c b3 6f 3d 63 cf 26 3e
       0.041405804 0.13576017 0.05852072 0.16290049
000050 c1 49 85 bc 0e 04 2c bd 01 26 26 be 6a e3 f5 3d
       -0.01627052 -0.041996054 -0.16225435 0.120062664
000060 9f 79 01 3d 3d 58 80 3d 98 32 67 3c b1 e0 13 bd
       0.031610128 0.0626683 0.014111184 -0.036102954
000070 ad 23 eb bd 83 76 f7 bd 7a c3 24 3e 38 90 02 bd
       -0.11481414 -0.12083151 0.16090193 -0.03187582
000080 d9 80 76 3d 8a d8 eb bd 4a 6d a6 3d ad f0 1e be
       0.060181472 -0.11515911 0.08126314 -0.15521498
000090 4b f2 3a be d9 d8 2f bc 9d c1 2a bc 39 f6 9c 3d
       -0.1825649 -0.010732853 -0.010422138 0.07664151

model.param_proj.proj.2.weight f4 [1, 40]
000000 6a 56 1a 3e 90 64 dc 3c 33 43 6d be 03 ff 70 be
       0.15072027 0.02690342 -0.23170166 -0.23534779
000010 e7 4e 3a be 71 5b ad 3e bd 67 90 3e 8f 67 bf 3e
       -0.18194161 0.33858827 0.28204146 0.37383696
000020 1f ad 5a 3e 96 80 19 3e 1b d2 28 be 12 11 79 be
       0.21355103 0.14990458 -0.16486399 -0.24322918
000030 8e ef 4b 3e 40 f6 1d be 8f 32 6b 3b 5c 00 8c be
       0.19915602 -0.15425968 0.003588829 -0.27344024
000040 1c 99 91 3e 4e e7 03 be 44 49 1b be ab 85 7b be
       0.28437126 -0.12881204 -0.15164667 -0.24562709
000050 8a 22 95 bb 55 0c 35 be 9d 2f eb bd b8 c8 52 3c
       -0.0045512365 -0.17680486 -0.11483691 0.012865238
000060 d1 65 75 be 56 1d 6b 3c ce 08 5f 3e 9d 10 92 be
       -0.23964621 0.014350256 0.21780702 -0.285283
000070 82 d0 af 3d c0 e5 8d bd 29 dc 91 3e 1a e0 36 be
       0.085846916 -0.06928587 0.2848828 -0.17858925
000080 c3 ef 9c 3d 22 04 7e 3e d8 c9 b2 ba 78 db 10 3e
       0.076629184 0.24806264 -0.0013640476 0.1414622
000090 bf ff c8 3d 28 f1 89 be fd 8d 97 be 24 ce 12 3e
       0.09814405 -0.269418 -0.29600516 0.14336449

model.rnn.weight_ih_l0 f4 [160, 43]
000000 5b 74 79 3e b7 c8 74 bb aa ce 49 3e 9d 4b 38 3e
       0.24360792 -0.003735108 0.19707742 0.17997594
000010 6a 53 81 bc 80 fd d8 bd fb eb 34 3d f6 41 b8 bc
       -0.015786845 -0.10595226 0.04417036 -0.02249239
000020 f9 3e f7 bd aa 67 ce 3d 26 1d b4 bd 83 6d ed 3d
       -0.12072558 0.10078366 -0.08794622 0.11593153
000030 fa 58 9b bd 75 3e 37 bd 77 f5 bf bd 12 7f fd bd
       -0.0758533 -0.044737298 -0.093729906 -0.12377752
000040 3b 08 e1 3d 5e f5 a8 3d 2d 6e 2c bd 7d a5 bc 3d
       0.10987898 0.08249925 -0.04209726 0.09211252
000050 1b a7 04 3e ef a0 34 bd 79 8f fb bd b1 02 21 3e
       0.1295437 -0.04409879 -0.122832246 0.15723683
000060 d4 f1 59 bd 0d 8a b6 3d 26 fd a0 bd 67 2e f1 3d
       -0.05320914 0.0891305 -0.07860784 0.11776429
000070 12 c2 5f bc dc b9 05 3d 6c a2 04 be e1 e9 e6 bd
       -0.01365711 0.032647952 -0.12952584 -0.112750776
000080 ee 0d 62 3d 52 45 92 3d f5 0e 8f 3d 39 6b 99 bc
       0.055189066 0.07142128 0.06985275 -0.018727886
000090 c1 1f 50 bd a1 1a 53 3d 07 cb b5 bd 8e 3a 8f 3c
       -0.050811533 0.051539067 -0.08876615 0.017483976
0000a0 74 ef 0d bd 71 05 0c be 02 73 c3 bd 68 25 ca bd
       -0.03465219 -0.1367395 -0.095434204 -0.09870416
0000b0 f6 e5 f1 3d 9a 04 a7 3d 17 58 07 bd b2 fa 9c 3a
       0.1181144 0.081551746 -0.033042993 0.0011976568
0000c0 ca 1a ea 3d 46 4c aa 3d c2 be 22 3e 61 76 68 bd
       0.11430891 0.08315329 0.15893081 -0.05675352
0000d0 1d 02 8f bd 0c 1e 5b 3c 01 fd f2 bd 7f 7b 69 bd
       -0.06982825 0.013373863 -0.11864663 -0.05700254
0000e0 34 20 10 3e 9a de 7f 3d 21 f5 14 3e 42 66 90 bd
       0.14074785 0.06246815 0.14546634 -0.07050754
0000f0 30 d7 32 3e 15 b0 19 3e b6 9b 2f 3e fb cf d8 bc
       0.174649 0.15008576 0.17149243 -0.02646636
000100 ad 7d cb 3c ca 8e 12 3d b8 a6 c6 bc 78 a9 e2 bc
       0.0248402 0.035780706 -0.02424942 -0.0276687
000110 86 b4 ab 3d e1 06 8c bb b4 bb ae bd 06 e7 af bd
       0.083840415 -0.004273281 -0.08531895 -0.08588986
000120 84 87 c0 bd c0 db 03 3e 9f ba 31 3e 09 52 bd bc
       -0.094008476 0.12876797 0.17356347 -0.023110406
000130 28 48 57 3c 7c f7 09 3e 34 91 41 3d 11 37 b3 bc
       0.013139762 0.13473314 0.047257617 -0.021876844
000140 a6 2c 8e bd 54 48 33 be cc 49 15 be 47 45 f4 bd
       -0.0694211 -0.1750806 -0.14578933 -0.11927276
000150 fa f1 19 be 25 6d 9e 3d 33 df 56 3b 6e 6c d5 3d
       -0.15033713 0.077356614 0.0032786846 0.10421072
000160 e0 62 b0 bd 53 d3 ea 3d 35 c1 01 3c 60 e9 9d bd
       -0.08612609 0.11466088 0.007919599 -0.077105284
000170 25 62 9f bc ac 70 ba bc 46 d1 db 3d 65 53 a4 bd
       -0.019455979 -0.022758804 0.10733275 -0.08023719
000180 9c d0 ff bd d0 8a b9 3c 1a 5d 2e bd 05 22 ce 3d
       -0.12490961 0.022649199 -0.042569257 0.100650825
000190 88 6b 5f bd b8 93 fa bb 47 a9 be 3d f2 7d 02 be
       -0.05454591 -0.007647004 0.09309631 -0.12743357
0001a0 a3 50 06 3d fb b6 ca bb 65 28 ab bd 8a c9 ed bc
       0.032791745 -0.0061863638 -0.08357314 -0.029026765
0001b0 f0 f4 cb bc 82 d7 3d 3e ce e6 1d 3e 0c e6 3d bb
       -0.024897069 0.18539241 0.15420076 -0.002897623
0001c0 ec 27 09 bb b3 4d 7a bd 0d e6 c9 3d 7e 08 13 3e
       -0.0020928336 -0.061109256 0.09858332 0.14358708
0001d0 44 b1 d0 3c 61 ef c0 3d d7 34 62 bd c1 da df 3d
       0.025475152 0.09420658 -0.055226173 0.10930396
0001e0 fb de 3c bd d6 21 73 3d 76 2d cc 3d d3 38 9b bb
       -0.04611109 0.05935844 0.099696085 -0.0047369986
0001f0 42 1a 26 3d ec 33 06 be df bd 80 3c 95 b3 7e 3c
       0.040552385 -0.13105744 0.015715538 0.015545745
000200 7f 16 c6 bd 67 a8 1e 3e 54 7e 29 bd ca 43 df bd
       -0.096722595 0.15493928 -0.04138024 -0.109016016
000210 08 4e a0 bd a1 14 fd 3d 58 9d e8 3d d3 a5 26 3e
       -0.07827383 0.1235745 0.11358136 0.16274194
000220 aa bf 80 bd 71 ea ae 3d 4a c8 d8 3d 78 62 21 bd
       -0.06286557 0.0854081 0.10585077 -0.039400548
000230 06 91 56 3e b0 0e 1b bd 14 f5 12 3e c5 41 fb 3d
       0.2095376 -0.037855804 0.14351302 0.12268404
000240 09 96 82 bc 6b 56 46 3c 8d 00 d8 bd 49 88 20 bd
       -0.015940683 0.012105565 -0.1054698 -0.03919247
000250 7d 12 5a 3d 8c e1 5d 3d ab c4 e0 3c 54 58 ab 3d
       0.053240288 0.054170176 0.027437529 0.08366457
000260 ab 16 0c 3d 13 33 74 3e f1 5c 34 3e be cf 0d bd
       0.034201305 0.23847608 0.1761358 -0.034621947
000270 af 96 6d 3d 28 62 39 3e 73 de e6 3c 1c 9e a1 bd
       0.05800503 0.1810385 0.028182244 -0.07891485
000280 ab b1 43 bd 07 41 15 3d d0 08 3a 3d 6a f5 9a 3d
       -0.04777686 0.036438968 0.04541856 0.0756634
000290 55 35 87 3c 83 cf 82 3e f7 e8 05 3e f7 3f 13 3e
       0.016504923 0.25548944 0.1307715 0.1437987
0002a0 83 37 17 be 19 81 cf 3b 2d ad 5e 3d 41 38 fa 3d
       -0.1476727 0.0063325283 0.054364372 0.12217761
0002b0 98 23 f6 3d d2 d9 2b 3e ba c7 01 3e e3 7f 0e 3e
       0.12018508 0.1678231 0.12673846 0.13915972
0002c0 d4 ff 7d bc b8 43 5b bd 77 ee cb bd ac 2e de 3c
       -0.015502889 -0.05353138 -0.09957593 0.027121864
0002d0 10 bd d9 3d a8 b8 24 3e 1a d2 ab 3d 36 01 85 3d
       0.10631764 0.16086066 0.08389683 0.064943716
0002e0 46 b8 b2 3d 8a 39 7f 3d c7 ea 08 3d 69 65 02 be
       0.087265536 0.062310733 0.033427026 -0.12733997
0002f0 59 bc a0 bd 33 ea 20 3e 99 c4 0e be b6 42 a2 bd
       -0.078484245 0.1571434 -0.13942184 -0.0792288
000300 eb f0 87 bd 6a 06 6b 3d e7 7e 07 3e 97 3b a8 bc
       -0.06637748 0.057379164 0.13232003 -0.020536227
000310 b5 47 ad bb 3d e4 8b bd 1e 6b 9e bd 53 a8 db 3c
       -0.005288089 -0.06830642 -0.07735275 0.026813662
000320 12 f2 9a bd a7 94 6a bc 45 14 f8 3d 57 c0 08 be
       -0.075657025 -0.014317668 0.12113241 -0.13354622
000330 4b 15 85 bc 28 e4 4c 3d 39 58 f2 3c b7 06 89 bc
       -0.016245505 0.050022274 0.029583083 -0.016726835
000340 df f5 64 be c5 3e 10 be 1d 6c d0 bd b2 7c ff bc
       -0.22359417 -0.14086445 -0.10176871 -0.031187389
000350 26 01 32 3e 43 60 da 3d 08 da f3 bd f3 e7 00 be
       0.1738325 0.10662892 -0.119068205 -0.12588482
000360 f7 74 0e 3d dc 8f 33 b9 ef a2 a1 3d 7c cf 89 bd
       0.034779515 -0.00017124362 0.07892405 -0.06729028
000370 cf ae 56 bd 42 66 98 bd 0a c0 4b 3d db a6 0b 3e
       -0.052412804 -0.07441379 0.04974369 0.13637869
000380 fe 2f a8 bd 67 6d 21 bd a3 ac d5 3d 4b 35 39 bd
       -0.08212279 -0.039410975 0.104333185 -0.04521684
000390 58 1b 8c 3c 85 e1 38 bd ad 38 96 bd 44 82 bc 3d
       0.017102882 -0.045136947 -0.07335029 0.09204534
0003a0 da 76 a4 bd 59 1e 84 bd 19 55 cc bd ea f5 03 be
       -0.08030482 -0.06451101 -0.099771686 -0.12886778
0003b0 68 84 fa bd 7f e7 14 3d 94 ab f6 3c 8d ce 35 be
       -0.12232286 0.036353584 0.030111112 -0.17754574
0003c0 0a d9 12 3d aa 16 a7 bd f1 55 f8 bc 37 f5 b8 bd
       0.035851516 -0.0815862 -0.030314418 -0.09031146
0003d0 ce 08 7e 3c 75 45 80 3d 77 a9 f0 3d 4f 14 04 be
       0.015505029 0.06263248 0.11751073 -0.12898372
0003e0 af c6 99 3d a2 3d be 3d 4d a8 76 bd ca a0 1e be
       0.07508599 0.09289099 -0.060219098 -0.15491024
0003f0 63 c2 96 bc 76 2f fe 3d 9b ca 15 3e 44 e4 9f 3d
       -0.018403238 0.12411396 0.14628069 0.0780721

model.rnn.weight_hh_l0 f4 [160, 40]
000000 9f 0c b2 3d 4a d6 15 3d 88 0f 2d bd 7d 44 60 bd
       0.086938135 0.036581315 -0.04225114 -0.054752816
000010 e3 45 da bc 4a 7d 17 bd 14 42 fe 3d e7 fc f2 bd
       -0.026644653 -0.03698472 0.12414947 -0.118646435
000020 21 d5 48 3c b1 c3 f4 bd 2b 91 45 3b ac 2a 01 be
       0.012257845 -0.11951388 0.0030146341 -0.12613934
000030 77 07 b3 bd c3 ed 52 3c b2 cf dc 3b f2 1a c5 3c
       -0.08741658 0.01287407 0.0067386264 0.0240607
000040 05 11 f5 bc c4 ab 49 3d 8f b5 d8 bc 6c c3 14 3d
       -0.029915342 0.049236074 -0.026453761 0.03631918
000050 20 43 60 bd c3 00 4a bd 9e 26 17 bd ed 2d f8 bd
       -0.054751515 -0.049317133 -0.036902063 -0.12118135
000060 46 2f 6a 3d d9 79 25 bd c0 55 8d 3d b1 ee d9 bd
       0.05717399 -0.040399406 0.06901121 -0.1064123
000070 a1 45 05 3e cf 4b 0b be 00 2e df bd d8 d0 f9 bd
       0.13014843 -0.13603137 -0.10897446 -0.12198037
000080 d6 1a 0b 3d 6a 99 d7 bc d1 a2 55 bd ee a2 eb 3d
       0.03396114 -0.02631827 -0.052157227 0.11505686
000090 f6 e3 26 be 48 60 35 be 13 5e 18 3e a9 ed 16 3e
       -0.16297898 -0.1771251 0.14879636 0.14739098
0000a0 1e 48 08 be bf a9 bc 3d 78 8b 68 bc e7 1f 12 be
       -0.1330876 0.09212064 -0.014193408 -0.14269982
0000b0 32 00 36 be 7b d5 fc bd 80 a5 f4 bd 82 0f 01 be
       -0.17773512 -0.12345406 -0.11945629 -0.12603572
0000c0 a6 c2 b0 bd 00 6f a0 3d 31 17 5b 3d 7b 0f ce bd
       -0.08630876 0.078336716 0.053488914 -0.100615464
0000d0 9f f5 69 bd 48 87 27 be d9 a6 27 be 58 1e 29 3d
       -0.05711901 -0.163602 -0.16372241 0.041288704
0000e0 a4 fc 85 bd 8b 2a dc bc b9 03 83 3d d0 10 4f 3d
       -0.06542328 -0.026875755 0.063971944 0.050553143
0000f0 b8 04 3b bd fe 39 b7 ba 3b 8f b7 3d 54 09 59 3d
       -0.045658797 -0.0013979075 0.08962866 0.05298741
000100 8b a2 6f 3d a4 98 42 3e 1d 51 4d bd 11 dd 2b be
       0.058504622 0.1900354 -0.050126184 -0.16783549
000110 a3 cb 89 3d 83 95 d1 bd 3e d8 ec bb c1 b6 80 bd
       0.06728294 -0.10233595 -0.0072279265 -0.062848575
000120 97 a4 e9 3c 77 f5 91 bd f5 a0 d3 3c 4e 65 fa 3c
       0.028520865 -0.07126897 0.025833586 0.030565884
000130 ae 7b 87 bd f9 dc cf 3d 98 7f 68 bd 1f 5e 69 bd
       -0.06615387 0.10149569 -0.056762308 -0.056974526
000140 05 45 38 be 8a f1 d5 bd 28 df c0 bd 4b ac 24 3d
       -0.17995079 -0.104464605 -0.09417564 0.040203374
000150 64 16 1f be 1b 5f 84 bd 09 ae 87 3d 94 dd 8a 3d
       -0.15535885 -0.064634524 0.066249914 0.06780544
000160 ec fb fc bd 84 a6 24 3e a5 36 15 be 1c 4c 85 bd
       -0.12352738 0.16079146 -0.14571626 -0.06508657
000170 b7 70 a9 bc 53 ce 07 be c7 10 0d bd 40 4a 4e bd
       -0.02068363 -0.132623 -0.03443983 -0.05036378
000180 f5 03 c4 3d 7e aa d6 bd b0 9a e8 3d 4d 01 1b bd
       0.09571067 -0.104817376 0.11357629 -0.037843037
000190 ca 01 dd bd 03 c8 3f bd 3e 89 ad 3d 80 90 cc 3d
       -0.10791357 -0.046821605 0.084734425 0.09988499
0001a0 a6 76 11 3e 77 65 7f bd 51 71 1a 3e 33 3c ac bd
       0.14205417 -0.062352624 0.1508229 -0.084099196
0001b0 fd 03 c9 bd 83 6c b1 ba aa d1 60 bb 93 c4 18 be
       -0.09815214 -0.0013536367 -0.0034304657 -0.14918737
0001c0 17 12 e7 3d b4 a2 16 3d 4a 0c 74 bd f8 ee 91 bb
       0.11282747 0.03677626 -0.059582032 -0.004453536
0001d0 d1 ce 85 bd 84 77 ec 3d d5 a0 e0 bd e2 bb d1 bd
       -0.06533588 0.11546233 -0.10968176 -0.10240914
0001e0 dc 2b 69 3d 09 fb b5 bd 57 2b e5 3d 8e c1 98 3c
       0.056926593 -0.08885772 0.11189907 0.018646982
0001f0 27 3f c2 3d c9 eb f5 bd fc 05 60 bd 41 7b 1e 3d
       0.094847016 -0.12007863 -0.054693207 0.038691763
000200 ee 06 0c 3d 51 12 12 bd 0d 0d 9d bd e3 9d d4 bd
       0.034186296 -0.035662 -0.07668505 -0.10381677
000210 52 fe 12 be df 16 a5 bd 24 5e 41 3d 12 2d b4 bd
       -0.14354828 -0.08061003 0.04720892 -0.08797659
000220 4f 22 f2 bc 56 b0 cc bc d7 69 47 3d bc 73 20 3e
       -0.029557375 -0.024986427 0.04868492 0.15669149
000230 09 d6 0c be af a4 73 3d d9 83 0c be d7 73 84 3d
       -0.13753523 0.059483226 -0.13722171 0.06467407
000240 99 19 9d 3d 71 97 a4 bc 85 c9 56 bd ef 05 16 bd
       0.07670898 -0.020091744 -0.052438278 -0.036626752
000250 74 85 ad bb a0 d5 17 3e d5 0d 2c 3e 5a 2d 71 3d
       -0.00529545 0.14827585 0.16802152 0.05888114
000260 fe 9e 25 bd 57 20 5a bc 67 d0 86 3d 47 b7 26 3e
       -0.04043483 -0.0133133745 0.06582718 0.16280852
000270 4b 94 2d 3e b8 ab 00 3e c0 a3 2e 3d bf 17 3a bd
       0.169511 0.12565506 0.042636633 -0.045432802
000280 56 13 7b bd 32 b7 35 3d 15 8f bc 3d 1e 5f 65 be
       -0.061297737 0.04436416 0.09206978 -0.22399566
000290 30 69 1e 3e 65 cd 1d be 9b 30 13 3e a3 e7 3a 3d
       0.15469813 -0.15410383 0.1437401 0.045631062
0002a0 78 b8 a4 bc 74 5a bc bd fe c2 9b 3d fd 3a 21 3d
       -0.020107493 -0.0919694 0.07605551 0.039362896
0002b0 91 dd 97 3d 81 25 c0 bd f4 26 10 3e f9 6b e2 bd
       0.07415307 -0.09382153 0.1407736 -0.110557504
0002c0 c9 6e 9e bd c6 11 09 bd b1 2c 72 bd b3 2f c5 3d
       -0.07735974 -0.033464216 -0.059124652 0.096282385
0002d0 34 75 39 be 91 87 0c 3e e1 cd 52 3d 43 46 5b 3e
       -0.18111116 0.1372359 0.051465873 0.21413521
0002e0 f2 5f dc bb 46 14 ca 3c 85 89 2b 3e ed 4f d5 3d
       -0.0067253048 0.02466787 0.16751678 0.10415635
0002f0 78 e0 cb 3d d6 75 8f bd fd d9 a3 bc 2e 79 00 3e
       0.099549234 -0.07004897 -0.020001406 0.12546226
000300 b3 65 84 bc 49 30 31 be 85 ea 17 bd 35 b7 97 3c
       -0.016161775 -0.17303576 -0.03708889 0.018519977
000310 b0 6e 62 3b 5e 83 22 be c6 dd 40 3d b6 3d c7 3d
       0.0034550838 -0.15870425 0.0470865 0.09728567
000320 cc 42 ed 3d d3 ec 31 bd 37 dd 4f 3d 72 8b 01 3e
       0.11585006 -0.043438744 0.050748076 0.1265085
000330 9b c9 95 3d bf cf 30 3e 3b 56 f5 bd e7 44 ee 3d
       0.07313844 0.17266749 -0.11979338 0.11634236
000340 9c 7f 22 3e 90 5e 31 be 13 d9 a0 3d e4 0a 01 be
       0.15868992 -0.17321229 0.078539036 -0.1260181
000350 36 d0 06 3e 83 f8 02 be 2a a3 00 3c a3 f7 a0 3d
       0.13165364 -0.12790112 0.007851401 0.07859733
000360 81 75 0d 3e 6b c1 10 be c5 41 01 3e 89 e2 cd bd
       0.13814355 -0.14136283 0.12622745 -0.10052974
000370 f8 3a c3 b9 4f bb 7c 3d 79 4f 5b bd c9 2a a3 bd
       -0.00037237233 0.06170207 -0.053542588 -0.07967145
000380 0e ec cb bd 49 a5 da 3c a3 d0 28 be 3f 90 64 bd
       -0.09957133 0.026690142 -0.16485839 -0.055801626
000390 41 a4 a9 3d 00 6f fc 3c 77 d5 56 bd 3d 03 00 3e
       0.08283282 0.030814648 -0.05244967 0.12501235
0003a0 49 b0 2a bd 2f 2c d7 3c 2c 19 03 be 2f 93 2c be
       -0.041672025 0.026266186 -0.12802571 -0.16853021
0003b0 81 3b 0b 3e f6 88 e2 3d d9 63 c6 bd 8e 40 2c 3c
       0.13596918 0.110612795 -0.09687013 0.010513438
0003c0 f6 db 28 3e 60 aa 13 3e 68 4c 12 3e f6 d0 60 3e
       0.16490158 0.14420462 0.14286959 0.21954712
0003d0 75 27 01 3e 4c ff c0 bd 9f 38 96 bd c2 fa 7f 3d
       0.12612708 -0.09423694 -0.07335018 0.062495
0003e0 ba e9 c4 3d 6e 2c ce bd d7 d0 8b 3d 46 96 3d bd
       0.09614892 -0.10067068 0.068269424 -0.04628589
0003f0 d5 ec 1a 3d d1 f5 d0 bd c1 e4 18 3e 78 42 3c 3d
       0.037823517 -0.10203136 0.14931013 0.045961827

model.rnn.bias_ih_l0 f4 [160]
000000 d9 6a 61 bc 54 40 c9 3d cf e5 c4 bd bd 10 ca 3d
       -0.013758385 0.09826723 -0.09614145 0.09866474
000010 1e 70 fc bd 49 ac 7a bd f3 53 05 3e 34 f9 ec 3c
       -0.12326072 -0.06119946 0.13020305 0.028927423
000020 26 38 0b be 26 b7 e9 3d a0 e1 de bc e5 83 90 bd
       -0.13595638 0.11411886 -0.027207196 -0.07056407
000030 29 e9 c1 3d ee 3d d2 bd 47 79 9f 3d ad db fd 3b
       0.094683 -0.102657184 0.07786804 0.0077471347
000040 c7 95 ff bd 7b 74 10 bc 71 3b ce 3d 08 0b c2 bd
       -0.1247974 -0.008816834 0.10069931 -0.0947476
000050 eb 06 e4 bd cb 57 dd bd 30 88 1e 3e d6 9d ee bd
       -0.11134132 -0.10807761 0.15481639 -0.116511986
000060 65 51 45 3e d7 e8 5f 3d f3 76 42 bb 85 9a 1e 3e
       0.19269331 0.054665413 -0.002967295 0.15488632
000070 47 98 6d bd eb 4c 51 bd 86 41 72 bd 86 0b b0 bd
       -0.05800655 -0.051098745 -0.05914452 -0.08595948
000080 3b 3d fa bd 4b 9b f8 3d 55 3c 17 3e c4 5a ff bc
       -0.1221871 0.12138995 0.14769109 -0.03117121
000090 80 93 fd bc fa 82 ad 3d 4e 54 a5 3d 68 c7 16 3d
       -0.030954123 0.084722474 0.080727205 0.036811262
0000a0 2c 49 68 3c 9d ce f1 3d 50 28 2f 3d be f2 b7 3d
       0.014177602 0.118069865 0.042763054 0.08981846
0000b0 7b 25 35 3d 86 9a 2a bd 85 cc a7 3d 53 bf e0 bb
       0.044225197 -0.04165127 0.08193306 -0.006858745
0000c0 e8 50 da bd b2 f0 9f bc 92 48 79 3d 91 9e 47 bd
       -0.10659963 -0.019523952 0.060860224 -0.048735205
0000d0 6f 13 38 3d d4 ac f3 3b 0a de 4b bd 25 6a 52 3d
       0.04494041 0.007436374 -0.0497723 0.05137076
0000e0 99 f9 8b bd d3 2c 72 3d b0 81 d5 bd 93 c6 27 3e
       -0.06834716 0.05912478 -0.104251266 0.16384344
0000f0 36 2d 09 bd c6 14 68 3d a0 50 95 bd e7 15 c4 3d
       -0.033490382 0.056660436 -0.072907686 0.0957449
000100 6e e6 60 bc b0 d8 07 be 44 35 b2 3d 04 cb 6e 3b
       -0.013726814 -0.13266253 0.08701566 0.0036436925
000110 61 6a 36 3e ee be cf bd 33 cc 1a be 76 7c ba 3d
       0.17814018 -0.10143839 -0.15116958 0.0910577
000120 4f 90 43 3d 4c 24 f1 3d d2 14 e1 bd 48 1f a6 3d
       0.047745045 0.11774501 -0.10990299 0.08111435
000130 07 24 14 be a2 c2 02 3e 18 dd d1 3d 32 6d f0 bd
       -0.14466868 0.12769559 0.102472484 -0.11739577
000140 31 0d a8 3d df a5 67 3c a6 7a 32 3e 73 26 de bd
       0.08205641 0.014138668 0.17429599 -0.10847177
000150 20 9c bd bd b1 57 da bd 33 81 38 bd a8 0b fc 3c
       -0.09258294 -0.10661257 -0.04504509 0.030767277
000160 07 cf 9d bd 96 1c d6 bd 05 78 47 3d 13 99 05 be
       -0.07705503 -0.10454671 0.048698444 -0.13046674
000170 7e fc 25 be 89 27 2a be 7b 75 66 3d ce 12 37 be
       -0.162096 -0.16616644 0.05626438 -0.17878267
000180 e9 b0 90 bd 01 10 12 3d 9d ad c9 3d 8d b9 a5 b9
       -0.07064993 0.035659794 0.09847567 -0.000316095
000190 b5 1e d9 bd c5 d5 0a bd 45 89 2c bd da f9 83 bd
       -0.1060156 -0.033895273 -0.042123098 -0.0644414
0001a0 c5 d0 12 be 44 77 2e 3e 8f 1a 26 bd 7f 47 39 be
       -0.14337452 0.17037684 -0.040552672 -0.1809368
0001b0 4e 2c f7 bc 16 87 c7 3c 71 5b 04 3e ea 11 17 3e
       -0.030172493 0.024356406 0.12925507 0.14752927
0001c0 51 2c 2e 3e 3e 4f 3a 3e 43 6a d8 bc 41 6b 09 3e
       0.17009093 0.18194291 -0.026417857 0.1341982
0001d0 fb c6 e0 bd 0c 46 1b bc 70 44 fb bd 1c a9 f0 ba
       -0.109754525 -0.00947715 -0.12268913 -0.0018360945
0001e0 db f3 7a bd 00 26 e3 3d 38 9f 4d bd 01 da 9e bd
       -0.061267715 0.11091232 -0.05020067 -0.07756425
0001f0 f7 bb 93 bd 7e 14 79 bd 68 7a 84 bc c7 5c af 3d
       -0.07213586 -0.06081056 -0.01617165 0.08562618
000200 5c cd a3 bd 1d 2b 18 3d b5 99 0c 3d 5f 6f c7 bd
       -0.079981536 0.03715049 0.034326274 -0.09738039
000210 4c de bf 3d 86 0f f1 bd fb 57 02 3e 67 25 6d bd
       0.09368572 -0.11770539 0.12728874 -0.057896998
000220 d1 77 b8 bd 5d 22 19 be f6 ed b0 3d 6a 58 db 3d
       -0.09007228 -0.14954515 0.086391374 0.10710223
000230 a5 3a f1 3b d6 69 ec bd f2 10 04 be 6e a3 8d 3d
       0.0073617273 -0.11543624 -0.12897089 0.06915937
000240 a6 ea e7 3d 79 2f c3 bd 29 91 96 3c e3 9d 2e bd
       0.113240525 -0.09530539 0.018379765 -0.04263104
000250 e1 f6 7d bc de 75 de 3c f5 e6 77 bd 00 6a c9 bd
       -0.015500755 0.027155813 -0.060522992 -0.09834671
000260 fe ad b7 bd ad e3 49 bd e8 9e b1 3d 32 f6 26 bd
       -0.08968733 -0.049289394 0.08672887 -0.040762134
000270 a2 1f 88 bd 32 1e 13 3e 87 66 38 3e 6c ae be 3d
       -0.066466585 0.14366987 0.18007861 0.09310612

model.rnn.bias_hh_l0 f4 [160]
000000 5a cf 18 be bc 63 a8 3c 17 5a bc bd ee f8 03 3e
       -0.14922848 0.02055537 -0.09196871 0.12887928
000010 d3 04 ad 3d 03 dd 12 be 6f bc 02 be 6f 90 7e 3d
       0.08448186 -0.14342122 -0.12767194 0.06214946
000020 1e 4e 83 3d 93 22 21 3e 29 89 07 be 58 a8 30 bd
       0.06411384 0.15735845 -0.13235916 -0.043129295
000030 40 bc 36 3e a5 8b b4 bd ce a9 06 3e 1c b3 d7 3d
       0.17845249 -0.088156976 0.13150713 0.10532209
000040 f2 e9 92 3d a4 0f 5e bd e1 ec 0d be 2f 55 a3 3b
       0.07173528 -0.054214135 -0.13859893 0.00498452
000050 dd 5c 20 3e 90 40 ea 3d 31 8f 02 be 90 f1 3c ba
       0.15660425 0.114380956 -0.12749936 -0.00072076265
000060 28 76 57 bd 8c 64 3f 3e b8 b3 fb 3d 43 a8 89 3c
       -0.052602917 0.186907 0.12290138 0.016803866
000070 c3 55 46 3d 50 09 45 3d ab 59 9d 3d cc 99 3b bc
       0.048421632 0.048104584 0.076831184 -0.011450242
000080 a5 73 09 bc 72 12 25 3e 80 95 03 3e 21 f3 a4 bd
       -0.008389388 0.16120318 0.12849998 -0.08054186
000090 6d b3 32 bb 78 d6 02 3e 2d 5e 52 bd e5 f5 cc bd
       -0.002726759 0.12777126 -0.051359344 -0.10007838
0000a0 12 8a 1f bc 8a 5f 2a 3e 2e 59 c8 bd 3f 5b 1b be
       -0.009737508 0.16638008 -0.09782635 -0.15171526
0000b0 60 e0 11 bd 0b f9 5b bd 70 61 82 3d 80 f4 af 3d
       -0.03561437 -0.053704303 0.06366241 0.085915565
0000c0 1a ba 9a bd 5c 99 1c 3e cd 41 97 bd 5b 81 b6 3d
       -0.07555027 0.15292877 -0.073855974 0.08911391
0000d0 f4 ce 03 3e 72 31 cf bd 48 4c 9a 3d ea 94 2c bd
       0.12871915 -0.10116853 0.07534081 -0.042134203
0000e0 56 89 66 bd 21 04 b5 3d 71 40 e9 bd ef 5d 84 ba
       -0.056283318 0.08838678 -0.11389244 -0.0010098795
0000f0 d9 cd 31 3d ae d7 d0 bb c6 ed 3f 3e 51 98 f5 bd
       0.043409202 -0.0063733673 0.18743047 -0.11991943
000100 20 a4 77 bd f9 a0 b6 3d 6f 91 2a ba df 3c c8 3d
       -0.060459256 0.08917422 -0.00065066566 0.09777235
000110 47 2e aa bd 87 58 6d bb 8f 8b b4 3d f5 c5 b8 3d
       -0.08309608 -0.0036216096 0.08815681 0.09022132
000120 30 34 be 3d ff 3e 09 bd c0 2a 88 3d 4f 56 0b 3e
       0.09287298 -0.033507343 0.06648779 0.13607143
000130 9e 32 04 be 49 57 07 3e aa 39 51 3e 69 8f e8 3d
       -0.12909934 0.1321689 0.20432153 0.11355478
000140 1b 91 3e bd 2f 85 0b be 27 19 b6 bd 4c b1 90 bd
       -0.046525102 -0.13625024 -0.08891516 -0.07065067
000150 0a e9 a5 3d bd b9 85 bd 64 2b ce 3c f5 fd 0f 3d
       0.08101089 -0.065295674 0.025167175 0.0351543
000160 de 65 3f 3d e9 ce f5 3c b3 14 4b be 83 a8 ba bc
       0.046728007 0.030005889 -0.19832115 -0.02278543
000170 0e 13 ba 3b 4f 78 ec 3d af 73 79 bd 0d 83 d5 3d
       0.005678541 0.115463845 -0.06090134 0.104253866
000180 a5 0a 10 3c cb 24 a0 bd 0c 61 6d bd 6b 6a 2e 3d
       0.0087916 -0.07819518 -0.05795388 0.042581957
000190 14 a9 ab 3d f5 06 e7 bd 7b 5b 94 3c bd 83 e4 3d
       0.083818585 -0.11280624 0.018110028 0.111579396
0001a0 7e e9 1b be 79 cd b4 bd 4f d4 bf bc 80 f9 ea 3d
       -0.15225789 -0.08828253 -0.023416666 0.114733696
0001b0 2d ae 9a 3d f0 a6 df 3d 12 31 cc bc 5d 03 22 be
       0.07552753 0.10920513 -0.024925742 -0.15821595
0001c0 36 8f b8 3d dd b6 37 bd 1a 52 17 3e 00 e5 dc bd
       0.0901169 -0.044852126 0.14777413 -0.10785866
0001d0 fc b5 1c be 79 5b f1 3c 02 54 21 3e b5 3c 22 3e
       -0.15303797 0.029462563 0.15754703 0.1584347
0001e0 ba ad ab bd c4 c7 15 3e 4b 01 38 bd af ef 23 3e
       -0.08382745 0.14626986 -0.044923108 0.16009401
0001f0 59 d6 ef 3d 10 ab cc 3d e3 eb d6 bc 5f 5f d0 3d
       0.117108054 0.09993565 -0.026235526 0.101744406
000200 4c 08 34 be 0c 67 82 3d ef 83 fa 3c 64 ff 8c bd
       -0.1758129 0.06367311 0.030580489 -0.068846494
000210 be d2 8c 3d d1 d2 78 bd fb 20 d5 3c 81 e0 a2 bd
       0.068761334 -0.060747925 0.026016703 -0.07952977
000220 22 ef 96 3d 7c 41 da bd c7 ec d1 3d 44 b4 a6 bd
       0.0736983 -0.106570214 0.1025024 -0.08139852
000230 49 ef f0 bb 23 db 1e 3e b8 ca b7 bd 8d c3 d6 bd
       -0.0073527438 0.15513282 -0.089742124 -0.10486517
000240 f8 cf 14 3e 1b 6e ba bb cf 8f 4a 3c 38 63 b1 bd
       0.14532459 -0.005689395 0.012363388 -0.086615026
000250 21 07 d4 3d 39 b4 1a 3e 77 8a be bd 71 5e 01 3e
       0.10352922 0.15107812 -0.09303754 0.12633683
000260 95 a7 d5 3d 10 50 85 3d 0d 1c 4a 3d eb 25 7b 3c
       0.10432354 0.06509411 0.049343158 0.015328865
000270 53 e0 87 3d 9e 65 aa bb 00 91 cf ba ed 46 a7 3c
       0.06634583 -0.005200102 -0.001583606 0.020419562

model.rnn.weight_ih_l1 f4 [160, 40]
000000 48 29 3d be 76 94 e4 3d 58 cf 9e 3d e0 7c 55 be
       -0.18472779 0.11161129 0.077543914 -0.20848417
000010 94 57 0c be cf 74 ae 3c 9c 34 3d 3d 43 a5 93 3b
       -0.13705283 0.021295933 0.04619275 0.0045057847
000020 c9 8f e0 3d 59 09 ba bd cd 44 e3 bd 00 f0 a8 bd
       0.10964925 -0.09083814 -0.11097107 -0.08248901
000030 c5 ea f6 3d cf dd 14 be 57 6f c4 bd 9e ce f9 3d
       0.120564975 -0.14537738 -0.09591549 0.12197612
000040 95 8c 7d 3d ee ac 38 3d ef 13 a5 bd 98 3b 08 be
       0.061901648 0.045086794 -0.08060443 -0.13303983
000050 fe 65 e8 bd fb 23 81 bd 6d 09 f8 3c 42 ee b0 3d
       -0.113475785 -0.06305691 0.030277932 0.08639194
000060 a3 86 14 bd bd 69 24 3e 7a 41 a5 3c 07 66 c9 bd
       -0.036261212 0.16055961 0.020172823 -0.09833913
000070 e1 26 ba 3d 29 8e c2 3d fb 07 5c bd 30 27 89 3c
       0.09089447 0.09499771 -0.05371855 0.016742319
000080 65 d2 08 3e 1b aa 0d 3e 13 52 34 3e 43 cb 83 bd
       0.13361509 0.13834421 0.17609434 -0.064352535
000090 05 20 c0 bd ea b4 ed bc 76 9f 1f 3e c4 d0 a6 bd
       -0.09381107 -0.02901693 0.15588173 -0.08145288
0000a0 1c 08 37 3d 41 09 06 3e c6 b8 97 3d 89 ab e7 bd
       0.044685468 0.13089468 0.074082896 -0.113120146
0000b0 7a 50 88 3d 96 56 5c 3d 66 0f 1d 3e e0 9b 0e 3e
       0.06655975 0.053793512 0.15337905 0.13926649
0000c0 b2 30 8f 3c 21 92 f5 bd 1f 17 c3 bd c3 14 6b bd
       0.017479274 -0.119907625 -0.095258944 -0.057392847
0000d0 d4 ad 41 bd 23 7b 24 be d8 3f 8d 3b bf 48 df bd
       -0.047284916 -0.16062598 0.0043105893 -0.10902547
0000e0 9b 3a e2 bd 90 a6 af bd 61 a1 fd bd 46 02 06 be
       -0.11046334 -0.08576691 -0.12384296 -0.13086805
0000f0 da e1 70 bd 49 b8 aa bd ff ab 87 3b 41 ab 49 bc
       -0.05880914 -0.08335931 0.0041403766 -0.0123088965
000100 f8 53 36 3e 42 24 00 3e b6 3e b9 3b f1 da 3d 3c
       0.17805469 0.12513831 0.0056532277 0.011587844
000110 05 a4 4c 3d f8 7e b5 3d 14 f0 4b bd dc 8c 36 be
       0.04996111 0.08862108 -0.049789503 -0.17827171
000120 6f e0 c4 bd eb c7 5c 3d 0c f8 45 bc c1 8d 59 3d
       -0.0961312 0.053901594 -0.012083065 0.053113703
000130 63 a6 2a 3e e5 1b d1 bd a5 bc 9a bd 5c 8b b7 3d
       0.16665034 -0.102103986 -0.07555512 0.089621276
000140 55 b3 1c be 77 63 5f bd e0 c4 7f bd 80 80 46 3d
       -0.15302785 -0.054538216 -0.062443614 0.04846239
000150 6b 32 57 bd e8 34 0c 3e 12 ae a4 bd 34 d2 f5 bd
       -0.052538317 0.13692057 -0.08041014 -0.12002984
000160 4b d0 31 be 87 2d fc 3d 44 f2 34 bd 2e 93 3d 3d
       -0.17364614 0.12313371 -0.044176355 0.04628294
000170 2d f7 37 3d d2 30 21 3c d5 ad 00 be cd 47 59 3d
       0.04491346 0.0098383 -0.12566312 0.05304699
000180 90 7e a4 bd 0c d0 9b 3c 4c 84 9d 3d 35 5c 33 3e
       -0.080319524 0.019020103 0.07691249 0.17515643
000190 c6 f2 00 3e 08 e2 5d 3d 8d f3 9b bc 5d 96 26 3e
       0.1259261 0.05417064 -0.019037032 0.16268297
0001a0 23 72 a1 be 1c 97 c6 bc 21 fd fa 3c 30 41 14 be
       -0.31532392 -0.024241976 0.03063828 -0.14477992
0001b0 4b 63 41 3d a6 1b 10 3e c7 4b c4 bd dc 07 00 3e
       0.047213834 0.14073047 -0.09584766 0.12502998
0001c0 a8 7d 45 bc 17 27 a6 bc 78 66 a7 bc c3 2b c3 bd
       -0.012053885 -0.020282311 -0.020434603 -0.09529831
0001d0 40 00 b1 3d 60 3e f5 bd 66 77 c1 3d d4 d0 d0 bd
       0.08642626 -0.11974788 0.094466016 -0.10196081
0001e0 85 40 54 3d 78 82 07 be 1d 6b 8e 3d 34 0f 54 3d
       0.051819343 -0.13233364 0.06954024 0.05177231
0001f0 a6 53 7e bd b3 53 14 bd c9 a6 ab bd 4a 6b a0 3b
       -0.062091492 -0.036212634 -0.08381421 0.0048956024
000200 6a 36 57 3d 58 04 7c bc 10 94 05 be 83 c6 cc bd
       0.052542128 -0.015381895 -0.13044763 -0.099988006
000210 ce 17 96 3c f9 1f 0d be dc 4f cc 3d ab 09 21 bd
       0.018321898 -0.13781728 0.099761695 -0.03931586
000220 50 c2 93 bd fb 5b 2b 3e a4 03 37 bd f2 05 22 3d
       -0.072147965 0.16734307 -0.044681206 0.03955645
000230 79 33 87 3c 3b 6a ee bc ef 7c 3c 3c 4c 32 81 3d
       0.016504036 -0.029103389 0.011504396 0.063084215
000240 28 b0 ca bd 8a d2 35 3d f7 19 27 3e 6b 57 20 be
       -0.098968804 0.04439024 0.16318499 -0.15658347
000250 86 ec 6d bc ae 13 a8 3d 6f dc 2f 3c 3a 43 fa bd
       -0.014521724 0.082068786 0.010733708 -0.12219854
000260 19 8c 27 3e 81 ff 1b 3d ae 7f d2 3c 7a 32 a0 bc
       0.16362037 0.038085464 0.025695648 -0.01955532
000270 09 1f c0 3c 7c d1 ec 3d 5b 9a df 3c f7 e1 a9 bc
       0.023452299 0.115633935 0.027295282 -0.020737631
000280 4d fd 4d be d6 10 e0 bd e5 f1 b9 bd 41 7c 78 be
       -0.20116158 -0.10940711 -0.09079341 -0.24266149
000290 84 81 ee 3d 0c 08 11 3e 87 d2 de bc 2a f6 15 3e
       0.11645797 0.14163226 -0.027199997 0.14644685
0002a0 3c b2 b0 3d 1e 45 9a 3c 51 68 fc 3d b4 5c 36 be
       0.086277455 0.018831786 0.12324584 -0.17808801
0002b0 1c 81 4f 3d 8d 57 4a 3d bf fe 18 be 1a 58 aa 3d
       0.050660238 0.0493999 -0.14940928 0.08317585
0002c0 72 90 c7 bc a8 4a 5b bc 1f 05 bf 3c 56 08 08 bd
       -0.02436087 -0.013384499 0.023317872 -0.033211075
0002d0 79 d0 6d bd ed 7c 0c 3e a1 88 bc bd 1b 65 89 3e
       -0.058060143 0.1371953 -0.092057474 0.2683495
0002e0 57 d5 b7 3d bc fd 9d bd b3 18 26 bd 0b 50 d8 bc
       0.08976238 -0.077144116 -0.0405509 -0.026405355
0002f0 db f5 a5 bd ea 34 b5 3d 77 8d 45 be 74 9f 0a be
       -0.08103534 0.08847983 -0.19292246 -0.13537389
000300 3a 91 33 3e a5 e5 30 3d 5a 59 66 3e 85 bb 11 3c
       0.17535868 0.043187756 0.22495022 0.008894806
000310 9d 05 aa 3c 95 85 af 3d 27 f7 b4 3d 23 66 30 3d
       0.02075463 0.085704006 0.08836203 0.043066155
000320 10 76 1c 3d fc 2e b7 3c c7 4e 6b 3d 4d 7d 69 bd
       0.03819853 0.022361271 0.057448175 -0.05700426
000330 00 5a ec bd b6 b0 03 be e3 76 6e be a5 96 9e 3d
       -0.11540604 -0.12860379 -0.23287539 0.07743577
000340 94 7b e7 3d fb 83 b5 3c 38 1b 71 be 87 f7 17 3c
       0.113028675 0.02215766 -0.2354554 0.009275324
000350 a8 8e 27 be 5e f3 17 3d 28 68 b0 3d ca 01 cc bd
       -0.16363013 0.037097327 0.08613616 -0.09961279
000360 59 47 00 be 3f 3d 81 bd bd 77 32 3b b3 57 d9 bd
       -0.12527217 -0.0631051 0.0027232014 -0.106124304
000370 5d b5 1c be c9 e3 a2 3d a4 d4 88 3e 59 c7 35 3e
       -0.1530356 0.07953603 0.26724732 0.17751826
000380 db ee 8b bc 37 3e 0b 3e db f7 66 3d f6 49 d0 3c
       -0.017081669 0.13597952 0.056388717 0.025425892
000390 25 42 4b 3b 69 59 b2 bd 1a bf a5 bd 77 24 0d be
       0.0031014767 -0.0870846 -0.0809309 -0.13783441
0003a0 6c 38 60 3c 94 3d 05 3e 74 c6 0c 3e df 2c 81 3c
       0.013685327 0.13011771 0.13747579 0.015768467
0003b0 0b 10 ff bc cc 13 22 3e 49 bf ff bd 98 ce dd 3d
       -0.03113558 0.15827864 -0.124876566 0.1083042
0003c0 13 4c 74 3d df 89 15 3d b1 2d 31 3e 85 ae 41 bd
       0.059642863 0.036508437 0.17302586 -0.047285575
0003d0 76 37 08 be 50 1e 37 bd 1f 31 dd 3d e4 3d c4 3c
       -0.13302407 -0.044706643 0.10800385 0.023955293
0003e0 f6 18 32 be 37 f6 14 3e 2b ec db bc 74 ce f6 bd
       -0.17392334 0.14547049 -0.026846012 -0.120510966
0003f0 5c 71 3f bd bc 66 0a be f4 2b 31 bd 86 07 af bd
       -0.046738967 -0.13515753 -0.043254808 -0.08546357

model.rnn.weight_hh_l1 f4 [160, 40]
000000 c2 f5 96 3d cc e9 c1 3d e1 8d 8d 3d 83 b0 19 3e
       0.07371093 0.09468421 0.06911827 0.1500874
000010 59 c7 9f 3d 62 ac 08 3e 18 91 f9 3d 07 d1 73 3d
       0.078016944 0.13347009 0.121858776 0.059525516
000020 8b a7 b2 bd a7 a0 10 3b ad 2e 88 3d af 1d fd 3c
       -0.087233625 0.0022068413 0.06649528 0.030897943
000030 dd 60 77 3d a8 55 17 3e b1 9f 09 be b2 d7 df bd
       0.06039511 0.14778769 -0.13439824 -0.109298125
000040 73 22 9e bd 98 f0 aa 3c ad cb 84 bd df 4f 05 3e
       -0.077214144 0.020866677 -0.064841606 0.1301875
000050 0e 76 35 3c c8 e5 08 3e 1e 3a 29 38 f7 c5 94 3d
       0.01107551 0.13368905 4.0346866e-05 0.07264321
000060 14 eb cb 3d 4a 01 72 3d 5b a7 92 3d 94 32 86 3c
       0.09956947 0.05908326 0.07160827 0.01638154
000070 b1 fd 0a be 2f 95 f6 3d 47 9d 6a bd cf ab a8 bd
       -0.13573338 0.12040173 -0.057278898 -0.08235895
000080 b7 16 cc bd 0d 8e 1c 3e 5d 9a a7 bd 0f 26 22 be
       -0.0996527 0.15288563 -0.08183739 -0.1583483
000090 26 a1 04 3e 19 f9 2c 3e 83 ac 3a 3d 66 f4 dd 3c
       0.12952098 0.16891898 0.045574676 0.027094077
0000a0 30 f0 80 3d a3 b6 80 3d ff 69 bc bd 41 46 05 3e
       0.06295812 0.06284835 -0.09199905 0.13015081
0000b0 25 07 98 bc 12 9f b6 3d ef f8 08 be ad 2a 58 3d
       -0.018558094 0.08917059 -0.1337621 0.052775074
0000c0 17 eb 1d be 0c 45 26 3d 45 a9 ce bd 26 72 8d bd
       -0.15421711 0.040593192 -0.10090879 -0.06906538
0000d0 ce e8 5d bd 9a 7f 8b 3d 53 83 af bd a6 ab 10 3e
       -0.054177098 0.068114474 -0.0856997 0.14127979
0000e0 cd a8 c7 3c 68 74 72 bd 09 d9 07 3c d7 2b 0d 3d
       0.024372483 -0.059193045 0.008291491 0.034465637
0000f0 be 1d f9 bd 70 79 93 3d ba e5 83 bc 88 a0 0a 3e
       -0.12163876 0.07200897 -0.016100753 0.135378
000100 6c 3e 1a be 9f 0b 01 bd 49 8b 17 3d 83 ab 11 3e
       -0.15062875 -0.031505223 0.036998067 0.14225583
000110 0b 2c 29 3d 5c d1 d3 3d c8 23 f4 3c 63 06 14 3e
       0.04130177 0.103426665 0.029802218 0.14455561
000120 82 a9 04 be 18 47 8f 3c 63 11 12 be 52 2d e2 3c
       -0.12955287 0.017489955 -0.14264445 0.027609501
000130 f5 f1 2a be 0c 47 b2 3d c5 96 da 3d b6 54 85 bc
       -0.16693862 0.08704957 0.10673288 -0.016275745
000140 d2 ac 05 3d a3 f7 d1 3d 3c a6 a3 3d df 55 63 bb
       0.032635517 0.10252311 0.07990691 -0.0034688634
000150 82 7d 00 3e 10 d2 93 bd e5 98 2f be fc ce 16 be
       0.12547877 -0.072178006 -0.17148168 -0.14727396
000160 e9 df 9b bd d6 11 a0 3d 77 cb 33 3e 68 72 1a 3e
       -0.07611067 0.07815902 0.17558084 0.15082705
000170 72 97 15 be 87 4e 48 3c db 3f 06 bd b1 94 ff bc
       -0.14608553 0.012225754 -0.03277574 -0.031198831
000180 f4 e4 ac bd 9d 5e 4c bd 40 87 ed 3d e4 3e f6 bb
       -0.08442107 -0.049894918 0.115980625 -0.0075148214
000190 65 bd 22 3e 66 b1 89 3d 6b 52 8b bd c2 4b 9b bd
       0.15892561 0.06723289 -0.06802829 -0.07582809
0001a0 17 45 6c 3d 17 84 96 3d 00 74 8c bd 8a 2e e0 3d
       0.057683077 0.07349413 -0.06858063 0.109463766
0001b0 99 0e ac bd 7f ac c8 3d cc c5 46 be f9 40 ef bd
       -0.08401222 0.09798526 -0.19411391 -0.116823144
0001c0 29 57 5e bb 01 77 cf bd 6b a5 b1 3d 8a c2 f3 3c
       -0.0033926463 -0.1013012 0.08674129 0.02975585
0001d0 de cc 7d 3b af 61 16 3e 39 de f1 bd 1a 3b 2c 3e
       0.0038726847 0.14685701 -0.11809964 0.1681942
0001e0 b0 17 87 b9 0b 96 ae bd ec ec c5 3d 7e 99 1e bc
       -0.00025766855 -0.08524712 0.0966433 -0.00968015
0001f0 a4 c7 37 3e 21 a3 55 bd 1e 90 30 3e ba 5e 07 3e
       0.1794725 -0.052157525 0.17242476 0.13219729
000200 e6 6c 2f 3e 7c d1 46 bc f1 f1 66 ba 47 b1 85 3d
       0.17131385 -0.012134906 -0.0008809856 0.065279536
000210 b9 ca 11 3d ad 6f b7 bd cd f9 43 3d 7e ff 2d bd
       0.035593722 -0.08956847 0.04784565 -0.042479984
000220 04 b2 fa bc 42 44 16 3e 39 eb 62 bd ac f3 99 3d
       -0.030602463 0.14674476 -0.055400107 0.0751718
000230 fa 2f 32 bd 21 59 5b 3d 38 dc e3 bd 4e 9f 14 3e
       -0.043502785 0.053551797 -0.11125988 0.14513895
000240 15 1d 64 3c 8e eb fe bd fa ae c7 3d 22 c4 91 3d
       0.013922949 -0.12447272 0.09750171 0.071174875
000250 1c 02 b6 3d 88 ea e9 bd 84 03 24 3d 54 de 7c 3d
       0.08887121 -0.114216864 0.040042415 0.061735466
000260 8e 2f 06 3e 45 eb 88 bc 2e b8 09 3e d4 67 74 3d
       0.13104078 -0.016713748 0.13449165 0.05966933
000270 f2 07 cb 3d 65 ae 06 bc de 9b 77 bd b9 6f c1 3d
       0.09913625 -0.00822029 -0.06045138 0.094451375
000280 85 c9 36 be 33 66 b0 3d 34 e7 02 be 69 ff 19 bd
       -0.17850311 0.08613243 -0.1278351 -0.037597094
000290 a9 af 83 bc 19 b5 03 3c 41 58 6a 3d c5 d6 eb 3d
       -0.016074972 0.0080387825 0.05721307 0.115155734
0002a0 65 89 01 be 9f 42 02 be 8e d7 bd bd 62 58 c5 bd
       -0.12650068 -0.12720726 -0.092696294 -0.09635998
0002b0 87 40 fa 3c cb 66 36 3e 7c fb 62 bc a0 1c d5 3d
       0.030548347 0.1781265 -0.013853904 0.104058504
0002c0 23 0d 14 be 1e 6c 8d bd 4b 07 28 3e 66 80 17 3e
       -0.14458136 -0.06905387 0.16409032 0.14795074
0002d0 80 59 6a 3d 94 7d 2d 3e 42 d9 ff bd 2c a8 a6 3c
       0.05721426 0.16942436 -0.124926105 0.020343862
0002e0 51 4a d2 3d 67 22 f0 3c 61 a4 6c 3d 0a 33 7f bd
       0.10268081 0.02931328 0.05777395 -0.062304534
0002f0 96 4e e9 bc 8a 47 8d bd 02 fb c0 bd 46 3e 0b 3e
       -0.028479856 -0.068984106 -0.09422876 0.13597974
000300 ef dc e9 bd 32 2e 0f be 9f c7 7b 3d ad 76 f6 3d
       -0.11419093 -0.13982466 0.06146967 0.12034354
000310 2c 5e 6e be d9 d8 57 3d 0e 33 25 bd ee 93 6d bd
       -0.23278111 0.052697036 -0.040331893 -0.058002405
000320 fb 2c 1c bd 0e a0 67 3d 5f 4f 3b bc 5c 6f 58 3d
       -0.038128834 0.056549124 -0.011432498 0.052840576
000330 e9 b0 1f 3e e0 38 66 3d ff 73 92 bc d9 55 fd bd
       0.1559483 0.056206584 -0.017877577 -0.1236989
000340 fd 9f a2 3d 69 09 c5 bd cf bc 69 3d d3 6f b2 bb
       0.079406716 -0.096209355 0.057064828 -0.0054454594
000350 ff 4f 28 be e7 89 21 3e 7e 13 c5 3d a9 43 46 3e
       -0.16436766 0.15775262 0.096228585 0.19361748
000360 d5 6e 7e bd 33 fb 3d 3e c7 93 e8 3c a6 fd f2 3d
       -0.062117416 0.18552856 0.028390778 0.11864786
000370 7e 31 e4 bd be 26 52 bc d7 f1 6c 3c 7e a2 aa bd
       -0.111422524 -0.01282662 0.014461956 -0.08331774
000380 8c 39 fd 3d 24 28 c8 3b 04 35 05 3d 25 b4 a7 bd
       0.12364492 0.0061083008 0.032521263 -0.08188657
000390 f6 f7 70 3d da e3 12 be 20 07 ae 3d d6 ae 96 3d
       0.058830224 -0.14344731 0.08497453 0.07357566
0003a0 68 0e 1f 3e 00 d0 1b bb 10 5e 4a 3d ee a5 91 3d
       0.1553284 -0.00237751 0.04940611 0.07111727
0003b0 55 1c 03 3d a6 88 41 bd 60 01 08 3e a7 f6 33 3e
       0.03200944 -0.04724946 0.13281775 0.17574559
0003c0 b8 63 8c 3c 63 d2 40 bc 55 79 bd bc 37 ce 41 3e
       0.017137393 -0.01176891 -0.023129145 0.18926321
0003d0 2f 78 b8 bb d5 bd b0 bd df 6d 2f bd 0c 89 8c bc
       -0.0056295614 -0.086299576 -0.04282939 -0.017155193
0003e0 85 df 19 3e ef 48 20 be 75 63 dc bd 7c 37 58 3e
       0.15026672 -0.15652822 -0.107611574 0.21114916
0003f0 38 b2 ac 3c b0 4b 85 3d 49 6c fc 3d 15 7a 62 3c
       0.021081075 0.06508577 0.12325341 0.013823052

model.rnn.bias_ih_l1 f4 [160]
000000 ec 31 8f 3d 1d 1f 07 3e 6c ca 4f 3c ab 5b 48 3e
       0.06991944 0.13195463 0.0126825385 0.19566219
000010 f2 2e 61 3d e8 11 c5 3d 6e bb 98 bd 6b e1 c0 bd
       0.05497641 0.09622556 -0.074576244 -0.09417995
000020 01 22 03 3b e0 7b bf 3c 7b af 66 bc e3 d3 32 3e
       0.0020009282 0.023374498 -0.014079924 0.17463641
000030 c7 d6 88 3d 8f 69 bd bd 61 d4 ba 3d db a2 bd 3d
       0.066815905 -0.09248649 0.09122539 0.09259578
000040 2a 36 14 3e 0d 3e 87 bd 76 d4 9d 3d 95 91 44 3e
       0.14473787 -0.06603632 0.07706539 0.1919616
000050 c4 e6 ee 3d ed 30 da 3d 61 b5 2e bc 82 ba 93 bc
       0.11665109 0.10653863 -0.010663361 -0.01803327
000060 7f 05 2a 3d 6b e2 23 3c 98 6b cb 3d 2f f2 fe 3c
       0.041509148 0.010002713 0.09932631 0.031121342
000070 47 27 91 3d bf 40 f5 bd 01 2a d8 bd fa 79 d0 3c
       0.0708757 -0.1197524 -0.105548866 0.025448788
000080 47 2f cd 3d c9 37 7c 3d af 8c e7 ba 4d 97 1d 3e
       0.10018783 0.06157664 -0.0017665828 0.15389748
000090 35 1c 2f 3d 0d f7 7a bd 33 9f e6 bc a7 1f 0d 3e
       0.04275151 -0.061270762 -0.028152084 0.13781606
0000a0 6f 8f c7 3d 80 ac 47 bd 6d 31 1b 3e 93 de 07 3d
       0.09744155 -0.048748493 0.15155573 0.033171248
0000b0 34 32 3a 3e 40 90 0a 3c 51 11 ff bd 8a 7f 19 3d
       0.18183213 0.008457243 -0.12454475 0.037475146
0000c0 6f 62 09 be 0e ae d8 bc f2 7e 0b 3e 86 f5 11 3d
       -0.13416456 -0.026450183 0.13622645 0.03563454
0000d0 55 87 23 3e 49 33 0b 3e 10 12 eb 3d 15 c3 e1 3d
       0.15969594 0.13593782 0.114780545 0.11023537
0000e0 d0 c3 12 bd 9d d0 77 3d ae bd b4 3c 93 5d 96 bd
       -0.035831273 0.060501684 0.022063103 -0.073420666
0000f0 fa 92 df 3a 9d 5d a7 bd 4c a2 aa 3d 14 75 7e bc
       0.0017057352 -0.08172152 0.08331737 -0.015530843
000100 72 2b 0b 3e 07 42 e9 3c 55 7e fb 3c 56 88 a5 bd
       0.13590792 0.028473867 0.030699888 -0.08082645
000110 30 9d cc 3d 0a 97 c6 bd 5d b8 26 3e 17 e0 02 bd
       0.09990919 -0.09696777 0.16281267 -0.03195199
000120 76 00 f8 bc 70 13 82 bd 82 f3 e3 bd 0d a6 21 3d
       -0.030273657 -0.06351364 -0.1113043 0.039465
000130 77 c3 37 3d 6e 90 65 bd a4 83 74 bc fd 26 a0 bd
       0.044864144 -0.056045942 -0.014923964 -0.078199364
000140 7f 36 37 bd a3 d9 a2 bd e0 04 1b 3d 4a 50 fa 3b
       -0.044729706 -0.07951667 0.037846446 0.0076389657
000150 ec 68 12 bd 94 6e c1 bd 70 5f b3 bd fb 4f 22 bd
       -0.035744593 -0.09444919 -0.08758438 -0.039627057
000160 9d 60 31 3e 7b d2 a1 3d be 40 84 bb 43 ab 9b 3d
       0.17322011 0.07901474 -0.004036038 0.07601025
000170 57 fc d1 3c f3 24 c6 3d 14 4f 1a bb 41 20 a1 bd
       0.02563302 0.09675016 -0.002354567 -0.0786748
000180 d0 9c 03 be 26 b4 f0 3c 23 c8 82 bc 76 03 1e 3e
       -0.12852788 0.029382776 -0.015964573 0.15431008
000190 97 7f b6 3d b6 de b2 bd ab f0 0a 3e e4 0b 2c 3e
       0.089110546 -0.08733885 0.1356837 0.16801411
0001a0 46 ec 04 be 96 7a 74 bd 37 ab a6 bc 9b ee ed bd
       -0.12980756 -0.05968722 -0.020345313 -0.11617776
0001b0 a1 80 21 bd 74 00 08 be a1 9e b4 3d e6 97 0c be
       -0.03942931 -0.13281423 0.088193186 -0.1372982
0001c0 9b 72 1d 3c df 67 ae 3d b2 ec d8 bd 47 ed ce bd
       0.009609844 0.085159056 -0.10592021 -0.10103851
0001d0 3f 78 9c bd c8 13 1b 3d fa ac 09 be ed e8 84 bc
       -0.076401226 0.03786066 -0.13444892 -0.016224349
0001e0 ea 72 0b 3d 1f 1c 5f bd 33 0e f9 3d 85 a8 51 bb
       0.034045137 -0.054470178 0.121609114 -0.0031991315
0001f0 64 cd f1 bc 1b b7 96 bd 12 b9 a9 bd 53 37 b4 bd
       -0.029516883 -0.07359143 -0.082872525 -0.08799615
000200 b6 10 bc bd 71 eb b8 bd 98 4f 09 3e b9 3a 6c bd
       -0.09182875 -0.09029282 0.13409269 -0.05767319
000210 0c 30 1d 3e 1a 32 9a bd 60 ff e4 bd 84 9d e6 3c
       0.1535036 -0.07529087 -0.111815214 0.028151281
000220 76 93 20 3e fd 22 12 bd ab 7f 01 bd 93 4d 67 bd
       0.15681252 -0.0356779 -0.031615894 -0.056470465
000230 e5 a1 9a bd b4 2b a0 3d 6d 80 5b 3d 79 f7 10 3d
       -0.0755041 0.07820836 0.053589273 0.03539226
000240 0f 5c c3 bb 49 7d e1 bd 56 dd bf 3d 7b f4 f3 3d
       -0.005961902 -0.11010224 0.09368388 0.11911865
000250 72 9d e5 bd 2c af e6 bc 24 0a 1f 3e ea 8c 06 3e
       -0.11211671 -0.0281597 0.15531212 0.13139692
000260 d2 29 c1 bc 77 3d 95 3d aa 3c 12 be 99 21 f5 3d
       -0.023579512 0.07287114 -0.14280954 0.11969299
000270 38 fd 37 3e 07 45 61 3d 9e bc a8 bd cf 4f ec bd
       0.17967689 0.05499747 -0.08239101 -0.1153866

model.rnn.bias_hh_l1 f4 [160]
000000 d5 d5 1b 3d 7c b0 d4 3d dd 4c 7c bd b9 ed 30 3d
       0.038045723 0.10385224 -0.06159674 0.04319546
000010 e2 fc ae 3d e5 2d 02 3e 7f 05 f4 3b 39 98 3e 3e
       0.08544327 0.1271282 0.0074469442 0.18612756
000020 09 37 14 3e 11 84 87 3d f9 d9 3a 3e 53 0e 7f bd
       0.14474119 0.066169865 0.18247212 -0.06226952
000030 68 fa 36 bd 88 73 60 bd 13 e3 d5 bd c6 b4 86 bd
       -0.0446724 -0.05479768 -0.104437016 -0.065774485
000040 f3 00 a9 3d 9d 85 b5 bd 20 5a 81 3d f3 c9 28 3e
       0.08252134 -0.08863375 0.06316018 0.16483288
000050 80 c2 cc bd bd 94 9b bd af 8e e3 3d 95 00 c2 3d
       -0.099980354 -0.07596729 0.11111199 0.09472767
000060 0b 78 f4 3d 45 23 e7 bd 70 21 f5 bc 56 dd 97 3b
       0.11936959 -0.11286024 -0.02992317 0.0046345396
000070 8c 76 0e 3d 1d b0 aa bd ee c8 ce 3c 7e 27 0d 3e
       0.034781024 -0.08334372 0.025242295 0.13784596
000080 92 e4 91 bb cd 85 63 bd c8 00 35 be 5f c2 0d 3e
       -0.0044522965 -0.055547524 -0.1767608 0.13843678
000090 dd 29 fe 3d d2 19 93 bd b5 00 25 3e ca 2b cd bd
       0.124103285 -0.07182659 0.16113551 -0.10018118
0000a0 fe b0 fc 3d e8 49 ad bb 15 f0 15 3d 00 49 bc bd
       0.12338446 -0.0052883513 0.036605913 -0.09193611
0000b0 74 da c9 bd f4 98 18 bb f9 e2 14 3e 8b 73 51 bd
       -0.0985612 -0.0023284527 0.14539708 -0.05113558
0000c0 2f 6e 00 be b3 cc ab bd 54 36 93 bd d2 42 10 3e
       -0.12542032 -0.08388653 -0.07188097 0.1408799
0000d0 98 81 22 3e f3 b2 de 3d cc 08 c4 3d 9b 0c a5 3d
       0.15869749 0.108739756 0.0957199 0.08059045
0000e0 10 85 e3 bd 18 83 74 bc 28 01 c2 3d 73 db 81 bc
       -0.11109364 -0.014923833 0.09472877 -0.015851712
0000f0 e7 4a b3 3b e6 02 c6 bd b9 c0 bf 3c 02 33 0d 3e
       0.0054715755 -0.096685216 0.023407327 0.13788989
000100 ce b7 00 3d 52 bc 86 3d b3 9b 02 be 58 16 24 3e
       0.03142529 0.06578888 -0.12754707 0.16024148
000110 8a e3 25 3d 39 9f b1 3d f3 84 29 3e e0 81 fe 3d
       0.0405002 0.086729474 0.16554622 0.124271154
000120 fe c5 51 3a 5f 98 0d be 41 4a 26 be 65 27 ca bb
       0.00080022204 -0.13827656 -0.16239263 -0.006169247
000130 71 fe d9 3d d4 a2 41 3e 5d b2 61 ba d8 c9 04 bd
       0.10644234 0.1890977 -0.0008609647 -0.032419056
000140 9f be 0d bd 47 26 0e bd b5 82 d4 bc bd ab 5a 3d
       -0.03460562 -0.034704473 -0.025941232 0.05338644
000150 28 1d 76 3d 4b 11 ba 3d c4 75 18 3e cc eb f1 bc
       0.0600864 0.090853296 0.14888674 -0.029531382
000160 65 9b d9 bd 12 c1 86 bd 8c dc 9c bd 9f 39 62 bc
       -0.10625342 -0.06579794 -0.076592535 -0.013807683
000170 6a df 05 be 9b 76 8f 3d 1f bd e0 bc 29 f0 4f bd
       -0.13073507 0.07005044 -0.02743393 -0.050766144
000180 10 f9 17 3d 47 8c fd 3d 41 37 a3 3d 7e 2a 03 3e
       0.03710276 0.123802714 0.07969523 0.12809178
000190 f6 82 c0 3d ca a1 5c 3d 5d a6 04 3e 1c 19 e2 3d
       0.09399979 0.05386523 0.12954088 0.110399455
0001a0 15 a6 02 3e e2 47 4b bd 29 6b 94 3c 53 7a 65 bc
       0.12758668 -0.0496291 0.018117504 -0.014006215
0001b0 4b a2 fb bd 82 e4 c5 3d bb 15 87 3c ab 31 75 3d
       -0.12286814 0.09662725 0.016489854 0.05986182
0001c0 2d 90 0c 3e dc 21 be 3d 9b 80 89 bc 4e 5b a8 3b
       0.13726874 0.09283802 -0.016784957 0.0051378375
0001d0 42 5a 17 3d 77 89 d2 3d 00 e5 99 3d 52 67 bd bd
       0.03695131 0.102801256 0.075143814 -0.092482224
0001e0 08 c3 14 3e 46 a4 0d 3e 8a 45 2a 3e 56 5c 0c bd
       0.14527524 0.13832197 0.1662809 -0.034267746
0001f0 49 52 2b 3e 1a d9 09 be c6 c4 0d bd c3 a9 19 bd
       0.16730608 -0.13461724 -0.034611486 -0.037515413
000200 44 73 bb bd 5c 0d b9 bd 88 23 19 3e db 94 41 3d
       -0.091528445 -0.09035751 0.1495496 0.0472611
000210 d1 2d b7 bd b1 f1 8c bc 7f 7c 53 ba bd 1a f3 3d
       -0.08944286 -0.017205091 -0.00080675626 0.11870334
000220 68 c3 59 bd 1b a4 4a 3e d4 96 07 3e 55 7b 08 bd
       -0.05316487 0.19789164 0.1324113 -0.033320744
000230 a9 69 ef 3d a1 5c 42 3e 38 b0 0b 3e 9c b0 b6 3d
       0.11690075 0.18980648 0.13641441 0.08920404
000240 4b 8e 58 3d 56 69 5d 3d 4e 5f a7 3d 44 bd 8c 3d
       0.052870076 0.054055534 0.08172475 0.06872037
000250 8d 8d d5 bd d0 c0 b8 bd a9 fb 10 3e 07 78 6e bd
       -0.10427389 -0.09021151 0.141585 -0.058219936
000260 2c 95 b9 bd 7b 7b f2 bd 09 5f fb 3d af df ad 3c
       -0.090616554 -0.11839958 0.12273986 0.021224825
000270 5b 09 52 3d 7a 49 2b 3e 1b 25 01 bd a4 c8 f0 3d
       0.051278453 0.16727248 -0.031529527 0.11757019

exp_avg f4 [1, 40]
000000 15 1a 5d b5 e4 f5 57 36 61 2c 20 38 69 a5 18 37
       -8.236687e-07 3.2180624e-06 3.8188304e-05 9.098419e-06
000010 13 4c 34 b8 a0 a9 bc b7 cf 69 9d b7 c8 91 04 b8
       -4.2986194e-05 -2.2490334e-05 -1.876513e-05 -3.160702e-05
000020 2c cd 55 b7 84 8c 50 b7 0b d1 99 37 ff b2 de 36
       -1.274356e-05 -1.24304825e-05 1.8336365e-05 6.6369535e-06
000030 2a 9f b3 b7 21 92 a2 37 fc 3c aa 36 66 23 d9 37
       -2.141258e-05 1.9379951e-05 5.0734943e-06 2.58849e-05
000040 31 01 9c b7 db 01 91 35 a0 b1 06 37 a1 ed b7 36
       -1.8597204e-05 1.0803882e-06 8.028379e-06 5.4814886e-06
000050 bd 37 b5 b5 c9 51 8f 37 98 6a 3e 37 69 b9 86 b5
       -1.3501773e-06 1.7085013e-05 1.1349701e-05 -1.003774e-06
000060 fb e7 80 37 b0 7e bc 36 3a 4f a6 b7 05 6b 59 37
       1.5366813e-05 5.617585e-06 -1.9825635e-05 1.2959125e-05
000070 c8 64 41 b5 2b 2d 0e 36 3e 0b ea b7 c5 68 82 b7
       -7.204476e-07 2.118594e-06 -2.7900209e-05 -1.5545995e-05
000080 c8 0d f8 b5 70 e9 42 b7 b0 c5 8e 36 7c 9e c5 34
       -1.8481451e-06 -1.16176525e-05 4.2549436e-06 3.6809422e-07
000090 4f 0e bf 35 02 01 c3 37 80 47 9c 37 de 96 95 b6
       1.4234773e-06 2.324628e-05 1.8629944e-05 -4.4581093e-06
